models/models_trained/Q235B-Z/stove1#0x0.pth (torch, 166767 bytes, 14 tensors)

model.0.weight f4 [256, 20]
0	0x3dc7533a	0.09732671
1	0xbe133487	-0.14375506
2	0x3e15e711	0.14638926
3	0xbc997a9c	-0.018735223
4	0x3e379e3b	0.17931454
5	0xbe580919	-0.2109722
6	0xbe6d6b65	-0.23185499
7	0x3e7f9788	0.24960148
8	0xbe45d803	-0.19320683
9	0xbe6c55e0	-0.23079634
10	0x3c84189d	0.016125018
11	0xbc754c50	-0.014971808
12	0xbda01a8b	-0.07817563
13	0x3e1cff99	0.15331878
14	0xbe3bdf2e	-0.18346855
15	0x3d321d15	0.043484766
16	0xbc144c64	-0.009051416
17	0xbe394f9c	-0.18096775
18	0xbe79e075	-0.2440203
19	0xbe50912d	-0.2036788
20	0x3e7da78a	0.24770942
21	0xbd5c92ec	-0.053851053
22	0x3e5d4750	0.21609235
23	0x3de7d9b1	0.11320818
24	0xbdc848b5	-0.09779493
25	0xbd83a7d2	-0.064284936
26	0xbd84b708	-0.06480223
27	0x3e07caee	0.13261005
28	0xbde6facd	-0.11278305
29	0x3e5011cb	0.20319287
30	0xbdccde7c	-0.10003373
31	0xbe356d1d	-0.17717405
32	0x3e4e9673	0.2017458
33	0xbe154d87	-0.14580356
34	0xbdebc9fc	-0.11513135
35	0x3c38139d	0.011235145
36	0x3e430bbb	0.19047444
37	0xbe6c821a	-0.23096505
38	0xbe1c2ffc	-0.1525268
39	0xbb717552	-0.003684361
40	0xbe4036b1	-0.18770863
41	0xbe7d608e	-0.24743864
42	0xbe417c60	-0.18895102
43	0xbc9789a6	-0.018498253
44	0xbcb2f7da	-0.0218467
45	0x3cbfa91d	0.02339607
46	0x3e873320	0.26406193
47	0x3d41cd37	0.04731485
48	0xbe4ed86a	-0.20199743
49	0xbe254cbb	-0.16142552
50	0xbdb3ba7b	-0.08775803
51	0xbe03b9a2	-0.12863782
52	0x3b7d4672	0.0038646725
53	0xbe741a4a	-0.23838153
54	0xbc6af957	-0.014341674
55	0xbe8262a6	-0.25465888
56	0x3dd301b2	0.10303058
57	0xbe0720b0	-0.13196063
58	0x3e182aba	0.14860049
59	0x3d02c095	0.03192194
60	0xbe5d4012	-0.21606472
61	0x3e82a621	0.2551737
62	0x3c6f82a6	0.014618551
63	0x3c19f0e0	0.009395808
64	0xbddeb526	-0.10874395
65	0xbe131c49	-0.14366259
66	0xbe244b06	-0.16044244
67	0xbe169a9a	-0.14707413
68	0x3dba5896	0.09098928
69	0x3df04928	0.117327034
70	0xbdbc8624	-0.09205273
71	0x3da39f40	0.07989359
72	0x3e0ebb1c	0.13938564
73	0x3e04e1fb	0.1297683
74	0xbe0be42b	-0.13661258
75	0xbc304843	-0.010759416
76	0xbd5e7d2a	-0.054318585
77	0xbe54b3d8	-0.2077173
78	0x3e2231fb	0.15839379
79	0xbd8cad69	-0.06869013
80	0xbd2255fe	-0.03963279
81	0x3d48bc33	0.049007606
82	0x3e5e9c4b	0.21739309
83	0x3e02c8f8	0.12771976
84	0xbe52b1e7	-0.20575677
85	0xbe132529	-0.14369644
86	0xbdd9251d	-0.10602782
87	0xbe153ef1	-0.14574791
88	0xbe24ef94	-0.16107017
89	0xbd52fa07	-0.051507976
90	0x3c986c1d	0.01860624
91	0xbe3b8c9c	-0.18315357
92	0x3d619472	0.05507321
93	0xbd2abe11	-0.041685168
94	0x3e32e261	0.17469169
95	0x3e0a118d	0.13483258
96	0x3ca130cc	0.019676588
97	0x3e2052b4	0.15656549
98	0xbe45984b	-0.19296376
99	0xbe60d204	-0.21955115
100	0x3ddce393	0.10785594
101	0xbd99d03d	-0.075104214
102	0xbe25584a	-0.16146961
103	0xbdb49713	-0.088178776
104	0xbe2bb834	-0.16769487
105	0xbe78c9e3	-0.24295764
106	0xbe6c897b	-0.2309932
107	0x3ddb6d9a	0.10714264
108	0xbd745453	-0.05965073
109	0xbd6dca5b	-0.05805431
110	0xbe32f1bb	-0.17475025
111	0x388f9bb7	6.8477755e-05
112	0x3ca6205d	0.020279104
113	0x3d933a11	0.0718881
114	0xbdc7b320	-0.09750962
115	0xbe57f835	-0.21090777
116	0x3ca84269	0.02053948
117	0x3e5cde8b	0.21569268
118	0x3e217c99	0.15770186
119	0x3e27ef4a	0.16399875
120	0x3e331257	0.17487465
121	0x3d3a0648	0.045416147
122	0x3c818e1f	0.015814839
123	0xbdde8679	-0.108654924
124	0xbe367ecb	-0.17821805
125	0xbd980506	-0.07422833
126	0xbcc7af2f	-0.024375526
127	0xbe1b93ec	-0.15193146
128	0xbd1f5cda	-0.03890691
129	0xbcc00fda	-0.023445059
130	0x3dec64cb	0.11542662
131	0x3df3548e	0.11881362
132	0xbe3e8410	-0.18605065
133	0xbde002c3	-0.10938027
134	0x3e14b54e	0.14522287
135	0x3dc33d8b	0.09533223
136	0x3e24a9e7	0.16080438
137	0xbd10fb07	-0.03539565
138	0x3d493a02	0.049127586
139	0x3e29a307	0.16566096
140	0xbe1ad3a8	-0.15119803
141	0x3cd28f17	0.025702996
142	0xbe62692f	-0.22110437
143	0x3cf438d3	0.029812252
144	0x3d223430	0.03960055
145	0x3e265983	0.16245084
146	0xbdb6b5d5	-0.089214005
147	0xbdac6db7	-0.08419364
148	0x3e453dd9	0.19261874
149	0xbd3b6f03	-0.045760166
150	0x3e2435a8	0.16036093
151	0x3e5ff3f0	0.21870399
152	0xbe0278c2	-0.12741378
153	0x3e5711ba	0.21002856
154	0x3e220fb8	0.15826309
155	0x3e224e5a	0.15850201
156	0xbe6dcdc6	-0.23223028
157	0x3d5055c3	0.05086304
158	0x3e4036e3	0.18770938
159	0xbe04db1d	-0.1297421
160	0x3d23d330	0.039996326
161	0xbe05476e	-0.1301553
162	0xbdc863c8	-0.09784657
163	0x3d9fa56a	0.07795222
164	0xbe1e4eca	-0.15459743
165	0xbd11bf13	-0.035582613
166	0xbd914109	-0.070924826
167	0xbe5d9a2e	-0.21640846
168	0xbdb2f1b8	-0.087375104
169	0xbdac9bd5	-0.0842816
170	0xbdc6cd7d	-0.097071625
171	0xbe6191f5	-0.22028334
172	0x3dcfc80e	0.10145579
173	0x3b213ded	0.002460356
174	0x3df9ef99	0.12203903
175	0x3d60859c	0.05481492
176	0x3dfe1800	0.124069214
177	0x3e50c1df	0.20386456
178	0x3e324774	0.1741007
179	0xbe670ae4	-0.22562748
180	0x3d91e568	0.07123834
181	0x3decd6cc	0.11564407
182	0xbe1a4ca0	-0.15068293
183	0xbc9e1909	-0.019299047
184	0x3e524828	0.20535338
185	0x3e71938a	0.23591438
186	0x3e47ac27	0.19499265
187	0x3e4aeb72	0.19816378
188	0xbd16a01b	-0.036773782
189	0xbbe0a58e	-0.006855673
190	0x3e2a31b9	0.1662053
191	0x3e2ff116	0.1718181
192	0xbe4c06df	-0.19924496
193	0xbe4dd144	-0.2009936
194	0xbe04d242	-0.12970832
195	0x3e0ff4c8	0.1405822
196	0x3dc2e6bf	0.095166676
197	0xbd26d7e3	-0.04073323
198	0xbdb6aa86	-0.089192435
199	0x3d95b1cb	0.07309302
200	0xbcad2adc	-0.021138601
201	0x3df63c92	0.120232716
202	0xbe22371c	-0.15841335
203	0xbd88496b	-0.06654628
204	0x3dfd896a	0.12379725
205	0xbe1c3af3	-0.15256862
206	0x3d18ba5f	0.037287112
207	0x3e0817df	0.13290356
208	0xbe6aa1ba	-0.22913256
209	0xbdf44ca1	-0.11928678
210	0x3d804bd8	0.06264466
211	0xbdb330b3	-0.08749523
212	0x3e40f8ce	0.18844911
213	0x3d8f04d0	0.0698334
214	0xbca403f4	-0.020021416
215	0x3d74b82d	0.059745956
216	0xbe277b02	-0.16355518
217	0xbda8fb53	-0.08251061
218	0x3dc2396b	0.09483608
219	0x3dc4d5ae	0.09611069
220	0xbdecb876	-0.11558621
221	0x3ccfad07	0.02535106
222	0x3e62093e	0.22073838
223	0x3e7251d4	0.23664027
224	0x3d3c3f6c	0.04595892
225	0x3e25506e	0.16143963
226	0x3d21f43f	0.03953957
227	0xbc273ded	-0.010207635
228	0x3d8adb92	0.06780161
229	0xbe68cfb6	-0.22735485
230	0xbd262940	-0.040566683
231	0x3dcb8426	0.09937315
232	0xbcc541ce	-0.02407923
233	0xbe0deaf6	-0.13859162
234	0xbde2df85	-0.11077789
235	0x3e559d6d	0.20860834
236	0x3d0f724e	0.03502112
237	0xbceee96b	-0.029164037
238	0xbe1137a8	-0.14181387
239	0xbe07512e	-0.13214561
240	0xbe38b84b	-0.18039052
241	0x3e495f19	0.19665183
242	0x3e29443f	0.1652994
243	0x3d0d7af5	0.03454109
244	0x3e6a1c52	0.22862366
245	0xbc8e244e	-0.017351296
246	0xbd80fbb3	-0.06298008
247	0xbe50bf6f	-0.20385526
248	0x3dfe27a6	0.12409906
249	0xbe396039	-0.18103112
250	0xbc4b69c9	-0.012415358
251	0x3d443553	0.047902416
252	0xbe4729fc	-0.1944961
253	0x3dd3bf5b	0.103392325
254	0x3c832a65	0.016011426
255	0x3e7e33a7	0.24824391

model.0.bias f4 [256]
0	0x3ca258aa	0.019817669
1	0x3e44da19	0.19223823
2	0x3e504ed0	0.20342565
3	0xbdfa8d47	-0.12233978
4	0xbe2af0e5	-0.16693456
5	0xbda13d4d	-0.0787302
6	0xbdfa3e38	-0.122188985
7	0x3d65dd60	0.056119323
8	0x3d506412	0.050876684
9	0x3d3a7c4e	0.045528702
10	0xbe0ca8f7	-0.1373633
11	0xbe57214a	-0.21008793
12	0xbd887a43	-0.066639446
13	0xbdb8b4e4	-0.09018877
14	0x3cbca0fe	0.023025986
15	0xbd638b8a	-0.055552997
16	0x3d8f2467	0.06989365
17	0x3e30195d	0.17197175
18	0x3e4017a4	0.18759018
19	0x3c1b9239	0.009495311
20	0xbd4882e0	-0.048952937
21	0x3dd790f8	0.105256975
22	0x3e4d2355	0.2003301
23	0xbe08babf	-0.13352488
24	0x3d4537ad	0.0481488
25	0xbc1d6111	-0.009605662
26	0xbe4fd4e3	-0.20296054
27	0x3dfac9a2	0.1224549
28	0x3e442066	0.19152984
29	0xbe41e6cc	-0.18935698
30	0xbdf97edd	-0.121824004
31	0x3cd45c42	0.025922898
32	0xbc7bbe4b	-0.015365194
33	0x3dd3011a	0.103029445
34	0xbd1c133f	-0.038104292
35	0xbe27ef07	-0.16399775
36	0x3d146099	0.036224935
37	0xbd1673d4	-0.036731556
38	0x3dabb671	0.08384407
39	0x3ce27947	0.02764572
40	0xbdc206a8	-0.09473926
41	0x3cd125f3	0.02553079
42	0xbd9b45d7	-0.0758168
43	0xbcd700f0	-0.026245564
44	0x3cc71671	0.024302693
45	0xbe076ee5	-0.13225897
46	0x3e52b52e	0.20576927
47	0xbe444df7	-0.19170366
48	0xbe52df63	-0.20593028
49	0xba662b13	-0.0008780222
50	0x3df22813	0.1182405
51	0x3e1012ee	0.14069721
52	0xbe2a5e48	-0.16637528
53	0xbdd3f599	-0.103495784
54	0xbdaca639	-0.08430142
55	0x3cbbf577	0.022944195
56	0xbe320f31	-0.17388608
57	0x3e619521	0.22029544
58	0x3e4494d4	0.19197398
59	0xbe020a6a	-0.12699285
60	0x3e12f3f4	0.14350873
61	0x3dcd66fa	0.10029407
62	0x3dc9a7ce	0.09846459
63	0xbcff03d8	-0.031129763
64	0x3e625993	0.22104482
65	0xbd8595d3	-0.06522717
66	0x3e39517d	0.18097492
67	0xbe1af14c	-0.1513111
68	0xbd676da9	-0.056501064
69	0xbdc05221	-0.09390665
70	0x3d99b683	0.075055145
71	0xbcd3e520	-0.025866091
72	0x3d162305	0.03665449
73	0xbc8efe02	-0.017455105
74	0xbe24e995	-0.1610473
75	0xbe0eae54	-0.13933688
76	0xbdf8115a	-0.121126845
77	0xbd9e8584	-0.0774031
78	0x3b1ba153	0.002374728
79	0x3e00f1a2	0.12592176
80	0xbdb55fa4	-0.088561326
81	0x3ca31203	0.01990605
82	0x3e2336c3	0.15938859
83	0x3d4713ba	0.048602797
84	0x3d7e69de	0.06211268
85	0x3ca75cbd	0.020429963
86	0xbdbd39e8	-0.0923956
87	0x3e463b9c	0.19358677
88	0xbdc79164	-0.09744528
89	0x3e08943d	0.13337798
90	0xbdf45e27	-0.11932021
91	0x3e378214	0.17920715
92	0xbe5dcb82	-0.21659663
93	0xbe0ab11e	-0.13544127
94	0xbdbf3be4	-0.09337595
95	0x3e476930	0.1947372
96	0x3d330966	0.043710135
97	0xbe52ace2	-0.20573762
98	0xbe226a79	-0.15860929
99	0xbe412797	-0.18862759
100	0xbe06f5e2	-0.13179734
101	0x3dead1b8	0.11465782
102	0x3d133921	0.035943154
103	0x3dc60393	0.096686505
104	0x3d89ae64	0.067227155
105	0xbd9013bc	-0.07035014
106	0xbd7e59d3	-0.06209738
107	0xbd0f78ff	-0.0350275
108	0xbd8879a0	-0.06663823
109	0xbd68d521	-0.05684388
110	0x39068c62	0.00012831533
111	0xbe59ca4c	-0.21268576
112	0x3dcfeac8	0.10152203
113	0xbe5b6842	-0.2142649
114	0xbdd3c059	-0.10339422
115	0xbdb3a06c	-0.087708324
116	0xbe5a97d4	-0.2134698
117	0xbd96f2d6	-0.07370536
118	0xbe52a3b3	-0.20570259
119	0xbc7ed153	-0.0155528365
120	0x3e1fa06a	0.15588537
121	0x3dab000c	0.08349618
122	0x3e1a284c	0.15054435
123	0x3d4d1c7e	0.050076
124	0xbda08860	-0.078385115
125	0xbd8f8c5a	-0.07009192
126	0xbe035c86	-0.12828264
127	0xbdc506d3	-0.09620442
128	0xbe313628	-0.17305815
129	0xbe2bac68	-0.16764987
130	0x3e64b30d	0.22333927
131	0xbc2519ea	-0.010076979
132	0xbe3a5dbd	-0.18199821
133	0x3e2b518e	0.1673033
134	0x3dd9ffd3	0.10644498
135	0x3dc671eb	0.09689697
136	0x3d8270a7	0.06369143
137	0x3e1221c1	0.14270689
138	0xbda11f59	-0.07867307
139	0x3d0e060f	0.034673747
140	0xbd06a2b7	-0.03287002
141	0xbd1d83f4	-0.03845592
142	0x3dc68955	0.09694163
143	0xbd9e21b4	-0.07721272
144	0x3d9e7566	0.07737236
145	0xbde2d50a	-0.1107579
146	0xbe3c226d	-0.18372507
147	0xbe4678f7	-0.19382082
148	0x3cc740f5	0.024322966
149	0xbe4be8fe	-0.19913098
150	0xbe07f5dd	-0.13277383
151	0xbd99fc9e	-0.07518886
152	0xbde099a8	-0.109668076
153	0xbd95e07c	-0.073182076
154	0xbdbb615b	-0.091494285
155	0xbe131574	-0.14363652
156	0xbd983718	-0.07432383
157	0xbe612d83	-0.21990018
158	0xbe3221ed	-0.17395754
159	0x3e2c20fc	0.16809458
160	0x3de63419	0.112404056
161	0xbe11e6db	-0.1424822
162	0xbcb889d1	-0.022526653
163	0xbe45669b	-0.19277422
164	0xbe5555a6	-0.20833454
165	0xbe1d6731	-0.15371396
166	0x3e22dd45	0.1590472
167	0x3e25d4c7	0.1619445
168	0xbe497379	-0.19672956
169	0x3b2f8268	0.002678061
170	0xbd9a70ca	-0.07541044
171	0x3cfb91a3	0.030709093
172	0xbe628002	-0.22119144
173	0x3e3986d5	0.1811784
174	0xbe20eb80	-0.15714836
175	0xbd34f0b9	-0.044174884
176	0x3de3b388	0.11118227
177	0xbd916d7e	-0.07100962
178	0xbdac6b0a	-0.084188536
179	0xbe0cd059	-0.13751353
180	0x3d9e7c9e	0.077386126
181	0x3de2ec67	0.110802464
182	0xbdbe58d7	-0.092942886
183	0xbdfdda21	-0.123951204
184	0x3d024ca0	0.031811357
185	0xbdee429b	-0.11633798
186	0xbd881fdc	-0.06646702
187	0xbe041517	-0.1289867
188	0xbe237a63	-0.15964656
189	0xbd36c5b7	-0.04462215
190	0x3e009f4e	0.1256077
191	0x3e104119	0.14087333
192	0xbc28b237	-0.010296396
193	0xbe42e881	-0.19034006
194	0x3e6156d0	0.22005773
195	0x3db608ee	0.08888422
196	0x3e0150f9	0.12628545
197	0xbd3f8827	-0.046760704
198	0x3e641ede	0.222774
199	0x3bee41c1	0.007271022
200	0xbe0cc773	-0.13747959
201	0x3e4b07e0	0.19827223
202	0x3dcf3c0e	0.101188764
203	0x3cdd0a8a	0.026982564
204	0x3d684bad	0.056712795
205	0xbd598dcf	-0.053113755
206	0xbdc384f1	-0.09546841
207	0xbe592d34	-0.2120865
208	0x3dcb648c	0.09931287
209	0x3d63239d	0.055453885
210	0xbd8cacaa	-0.068688706
211	0x3e4b681a	0.1986393
212	0x3e5aea73	0.21378498
213	0x3dfed992	0.12443842
214	0x3df4f667	0.1196106
215	0x3d1bd246	0.03804233
216	0x3e50c9e8	0.20389521
217	0xbdffd512	-0.12491812
218	0x3cb8e487	0.022569908
219	0xbe2e4987	-0.17020236
220	0xbc52b205	-0.012859826
221	0xbe0395e4	-0.12850147
222	0xbe1b9efd	-0.15197368
223	0xbe1842e7	-0.14869271
224	0xbe624c25	-0.2209936
225	0x3e20c1d4	0.1569894
226	0x3e38d355	0.18049367
227	0xbccd3904	-0.025051601
228	0xbe4892e3	-0.19587283
229	0xbe545937	-0.20737158
230	0x3e21e586	0.15810212
231	0x3e260925	0.16214426
232	0xbe224dcb	-0.15849988
233	0x3e452725	0.19253214
234	0xbd358b2f	-0.04432219
235	0x3e52c50c	0.2058298
236	0x3e3c2e77	0.183771
237	0xbe26d986	-0.16293916
238	0x3e1a23cb	0.15052716
239	0xbe118954	-0.14212543
240	0x3d5c53c1	0.05379081
241	0x3e23b103	0.15985493
242	0x3da74980	0.08168316
243	0xbdea20af	-0.11432015
244	0x3e19999c	0.15000004
245	0xbc745c79	-0.014914625
246	0xbd70aede	-0.058760516
247	0x3dc8fa0e	0.09813319
248	0x3d7f7dd6	0.062375866
249	0x3e15b872	0.14621142
250	0xbe02e1f2	-0.12781504
251	0x3dfe0496	0.124032184
252	0xbd154bf0	-0.036449373
253	0xbc1102ca	-0.008850763
254	0xbde5fd83	-0.11229994
255	0x3e2dd763	0.16976695

model.1.weight f4 [256]
0	0x3f84931c	1.0357394
1	0x3f83e142	1.0303118
2	0x3f85e734	1.0461183
3	0x3f83cbf1	1.0296613
4	0x3f84d1fd	1.0376583
5	0x3f8628f8	1.0481253
6	0x3f84c8aa	1.0373738
7	0x3f850495	1.0392023
8	0x3f856e02	1.0424197
9	0x3f8571ad	1.0425316
10	0x3f8458f9	1.0339652
11	0x3f83fcc9	1.0311519
12	0x3f83af5f	1.0287894
13	0x3f841cfc	1.0321345
14	0x3f8739f5	1.0564562
15	0x3f8387c2	1.0275805
16	0x3f844233	1.0332702
17	0x3f83daf7	1.0301198
18	0x3f8442d1	1.0332891
19	0x3f842e6c	1.0326667
20	0x3f84cc7f	1.0374907
21	0x3f82ce41	1.0219194
22	0x3f860f2c	1.047338
23	0x3f87025d	1.0547596
24	0x3f81ea9c	1.0149722
25	0x3f86110a	1.047395
26	0x3f848c44	1.0355306
27	0x3f844e48	1.033639
28	0x3f84e369	1.03819
29	0x3f8583e9	1.0430881
30	0x3f85129b	1.0396303
31	0x3f863b80	1.0486908
32	0x3f839f2e	1.0282953
33	0x3f84ae27	1.0365647
34	0x3f8511d3	1.0396065
35	0x3f833aa9	1.0252277
36	0x3f84e340	1.0381851
37	0x3f84e314	1.0381799
38	0x3f85feac	1.0468345
39	0x3f846482	1.0343173
40	0x3f84dcd4	1.0379891
41	0x3f867b9b	1.0506471
42	0x3f83d740	1.0300064
43	0x3f84aab4	1.0364594
44	0x3f865e70	1.049757
45	0x3f848032	1.0351622
46	0x3f84da31	1.0379087
47	0x3f85420e	1.0410783
48	0x3f85022e	1.039129
49	0x3f835431	1.0260068
50	0x3f84acc9	1.036523
51	0x3f8617a5	1.0475966
52	0x3f84df47	1.0380639
53	0x3f8629ef	1.0481547
54	0x3f84367b	1.0329126
55	0x3f860a35	1.0471865
56	0x3f8413dc	1.0318561
57	0x3f84aba3	1.0364879
58	0x3f866f48	1.050271
59	0x3f852a79	1.0403587
60	0x3f847cd3	1.0350593
61	0x3f8576cb	1.0426878
62	0x3f83f3ab	1.0308737
63	0x3f866207	1.0498666
64	0x3f85e6ec	1.0461097
65	0x3f838458	1.0274763
66	0x3f84670a	1.0343945
67	0x3f83f91f	1.0310401
68	0x3f83d6d5	1.0299937
69	0x3f849d1f	1.036045
70	0x3f859fa4	1.0439343
71	0x3f84f463	1.0387081
72	0x3f82d99c	1.0222659
73	0x3f85a0a7	1.0439652
74	0x3f8428c1	1.0324937
75	0x3f85fccb	1.0467771
76	0x3f84a51c	1.0362887
77	0x3f86cab3	1.0530609
78	0x3f84c619	1.0372955
79	0x3f85e189	1.0459453
80	0x3f84e27c	1.0381618
81	0x3f862893	1.0481132
82	0x3f840290	1.0313282
83	0x3f8508d0	1.0393314
84	0x3f84c8fd	1.0373837
85	0x3f8516e1	1.0397607
86	0x3f865d32	1.0497191
87	0x3f8433dd	1.0328327
88	0x3f843e31	1.0331479
89	0x3f85777e	1.0427091
90	0x3f85122c	1.0396171
91	0x3f84ed7b	1.0384973
92	0x3f835b5c	1.0262256
93	0x3f83fdd8	1.0311842
94	0x3f859e73	1.043898
95	0x3f83adff	1.0287474
96	0x3f81bbef	1.0135478
97	0x3f84b56c	1.0367866
98	0x3f8429a2	1.0325205
99	0x3f8419d1	1.0320379
100	0x3f8555ad	1.0416771
101	0x3f84d56d	1.0377632
102	0x3f857ec7	1.0429314
103	0x3f8470f2	1.0346968
104	0x3f838af8	1.0276785
105	0x3f8518a6	1.0398147
106	0x3f82e2c2	1.0225451
107	0x3f84b936	1.0369022
108	0x3f8467f6	1.0344226
109	0x3f85bc10	1.0448017
110	0x3f8529c6	1.0403373
111	0x3f84edde	1.0385091
112	0x3f8407c3	1.0314869
113	0x3f84a9a4	1.036427
114	0x3f8446db	1.0334123
115	0x3f84a09b	1.0361513
116	0x3f862df5	1.0482775
117	0x3f860f93	1.0473503
118	0x3f839bba	1.0281899
119	0x3f83d7cd	1.0300232
120	0x3f82b19d	1.0210453
121	0x3f847fdb	1.0351518
122	0x3f841a2e	1.032049
123	0x3f846ede	1.0346334
124	0x3f84645c	1.0343127
125	0x3f827f0c	1.0195022
126	0x3f8499d3	1.0359443
127	0x3f84ca2d	1.0374199
128	0x3f828bb6	1.0198886
129	0x3f842a0e	1.0325334
130	0x3f835589	1.0260478
131	0x3f8379fd	1.0271603
132	0x3f848058	1.0351667
133	0x3f84e93a	1.0383675
134	0x3f837ecf	1.0273074
135	0x3f8552a7	1.0415848
136	0x3f859c89	1.0438396
137	0x3f84185d	1.0319935
138	0x3f83966b	1.0280279
139	0x3f8510fe	1.0395811
140	0x3f8578d3	1.0427498
141	0x3f8522ff	1.0401305
142	0x3f8446dd	1.0334126
143	0x3f85dbc2	1.045769
144	0x3f86066b	1.0470709
145	0x3f856feb	1.042478
146	0x3f837e15	1.0272852
147	0x3f84fb91	1.0389272
148	0x3f844aaa	1.0335286
149	0x3f858f52	1.0434363
150	0x3f85d9b1	1.0457059
151	0x3f850897	1.0393246
152	0x3f84a339	1.0362312
153	0x3f851fdb	1.0400347
154	0x3f84f041	1.038582
155	0x3f84cf72	1.0375807
156	0x3f852578	1.040206
157	0x3f842085	1.0322424
158	0x3f85036f	1.0391673
159	0x3f852774	1.0402665
160	0x3f8404fc	1.0314021
161	0x3f832281	1.0244905
162	0x3f83c2ba	1.0293801
163	0x3f84e459	1.0382186
164	0x3f866c0f	1.0501727
165	0x3f840e68	1.0316896
166	0x3f83ae9e	1.0287664
167	0x3f85e79f	1.046131
168	0x3f825929	1.018346
169	0x3f842f39	1.0326911
170	0x3f8603b3	1.0469879
171	0x3f85f488	1.046525
172	0x3f84578d	1.0339218
173	0x3f859add	1.0437886
174	0x3f843c11	1.0330831
175	0x3f84da4a	1.0379117
176	0x3f84da49	1.0379115
177	0x3f8606b8	1.04708
178	0x3f84872b	1.035375
179	0x3f853a8d	1.0408493
180	0x3f836d2c	1.0267692
181	0x3f857a54	1.0427957
182	0x3f8577dd	1.0427204
183	0x3f83d44a	1.029916
184	0x3f829241	1.0200883
185	0x3f83de17	1.0302151
186	0x3f85a4ff	1.0440978
187	0x3f851a8c	1.0398726
188	0x3f847404	1.0347905
189	0x3f84cc4a	1.0374844
190	0x3f833e2f	1.0253352
191	0x3f84bd86	1.0370338
192	0x3f844a88	1.0335245
193	0x3f84452d	1.0333611
194	0x3f830bf6	1.0238025
195	0x3f82c825	1.0217329
196	0x3f82e115	1.022494
197	0x3f83f470	1.0308971
198	0x3f84af05	1.0365912
199	0x3f8378e1	1.0271264
200	0x3f83eca9	1.0306598
201	0x3f8547d6	1.0412548
202	0x3f858438	1.0430975
203	0x3f84011a	1.0312836
204	0x3f869766	1.0514953
205	0x3f831c32	1.024298
206	0x3f853c98	1.0409117
207	0x3f853066	1.0405395
208	0x3f85d25c	1.0454822
209	0x3f847015	1.0346705
210	0x3f832d08	1.0248117
211	0x3f8465af	1.0343531
212	0x3f823adc	1.0174212
213	0x3f84eb82	1.0384371
214	0x3f847bcf	1.0350283
215	0x3f84593d	1.0339733
216	0x3f837b5e	1.0272024
217	0x3f85918f	1.0435046
218	0x3f82e16f	1.0225047
219	0x3f8516c4	1.0397573
220	0x3f84c6ff	1.0373229
221	0x3f8415e7	1.0319184
222	0x3f84bbfd	1.036987
223	0x3f841be7	1.0321015
224	0x3f855922	1.0417826
225	0x3f8479f0	1.0349712
226	0x3f83bc9d	1.0291935
227	0x3f85529b	1.0415834
228	0x3f85597d	1.0417935
229	0x3f85cbd3	1.0452827
230	0x3f82a695	1.0207087
231	0x3f85be23	1.044865
232	0x3f855511	1.0416585
233	0x3f84fc51	1.0389501
234	0x3f846171	1.0342237
235	0x3f8470a7	1.0346879
236	0x3f84a6ff	1.0363463
237	0x3f880c14	1.0628686
238	0x3f822c3d	1.016975
239	0x3f847995	1.0349604
240	0x3f8532f7	1.0406178
241	0x3f83d5f5	1.029967
242	0x3f84d4a9	1.0377399
243	0x3f8369cd	1.0266663
244	0x3f8408b3	1.0315155
245	0x3f82d668	1.0221682
246	0x3f848d1f	1.0355567
247	0x3f83c038	1.0293036
248	0x3f83f1e5	1.0308195
249	0x3f839233	1.0278991
250	0x3f858020	1.0429726
251	0x3f838573	1.02751
252	0x3f84f3ef	1.0386943
253	0x3f840b65	1.0315977
254	0x3f849346	1.0357444
255	0x3f8557ab	1.0417379

model.1.bias f4 [256]
0	0x3d231adb	0.039820533
1	0x3ccfe5f2	0.025378201
2	0x3d24039a	0.040042497
3	0x3c9bdb2b	0.019025406
4	0x3cdb7f78	0.02679418
5	0x3cea8cd3	0.028631603
6	0x3d1593bd	0.036517847
7	0x3d07de2f	0.033170875
8	0x3cb7a8d9	0.02241938
9	0x3d0badc0	0.034101248
10	0x3c82ef88	0.015983358
11	0x3cb11527	0.021616532
12	0x3ce1994b	0.027538916
13	0x3c634cf4	0.0138733275
14	0x3cf02912	0.029316459
15	0x3caf2237	0.02137862
16	0x3cf23a34	0.029568769
17	0x3cfa33d1	0.030542286
18	0x3d0a0a40	0.03370118
19	0x3ce01a3f	0.027356265
20	0x3cf51f47	0.02992214
21	0x3cdab691	0.026698383
22	0x3d0a1dcc	0.033719823
23	0x3d1bdc33	0.038051795
24	0x3cd5b25a	0.026086021
25	0x3d3eaf9a	0.046554185
26	0x3d09c55e	0.03363549
27	0x3d024fa7	0.031814244
28	0x3ce3a4ca	0.027788538
29	0x3c46bde7	0.012130237
30	0x3ce65595	0.02811698
31	0x3c7b7988	0.0153487995
32	0x3ce643e7	0.02810855
33	0x3c92fde4	0.01794333
34	0x3d19f6de	0.037588947
35	0x3c0ccf24	0.008594308
36	0x3d324971	0.04352707
37	0x3cd15c64	0.02555675
38	0x3d2f4af9	0.04279611
39	0x3cec0a1b	0.028813412
40	0x3cefb0e6	0.029259156
41	0x3cf55cf2	0.029951546
42	0x3c88424a	0.016633172
43	0x3d10583c	0.035240397
44	0x3d33ea20	0.04392445
45	0x3ce2b579	0.027674424
46	0x3cfbdcb6	0.030744892
47	0x3cb7998e	0.022412088
48	0x3d0db9b2	0.03460092
49	0x3d31d446	0.04341533
50	0x3cad5efe	0.02116346
51	0x3d17a508	0.03702262
52	0x3d3e77f9	0.046501134
53	0x3d347622	0.044057973
54	0x3cf7e075	0.030258397
55	0x3d357a1e	0.044305913
56	0x3cf5602e	0.029953089
57	0x3ce4e06e	0.027939048
58	0x3d2937a4	0.04131283
59	0x3ce149ac	0.02750095
60	0x3cb85602	0.02250195
61	0x3d2d85f7	0.042364087
62	0x3cf41390	0.029794484
63	0x3d1a7e6b	0.037718218
64	0x3d166227	0.0367147
65	0x3d17511b	0.036942583
66	0x3cf80ffc	0.03028106
67	0x3cc8af77	0.02449773
68	0x3d0346af	0.03204983
69	0x3cedf29b	0.029046347
70	0x3cee5052	0.029091034
71	0x3d0c145d	0.034199107
72	0x3b83d78d	0.0040234984
73	0x3d27cef1	0.04096884
74	0x3cf96cf9	0.03044747
75	0x3d3e1872	0.04641003
76	0x3cb38508	0.02191402
77	0x3d0491f9	0.032365773
78	0x3d2900ad	0.04126041
79	0x3d2f9a58	0.042871803
80	0x3d0fadc4	0.035077825
81	0x3cb505bd	0.022097463
82	0x3c93dc84	0.018049486
83	0x3d36692c	0.044533893
84	0x3ce43bd0	0.027860552
85	0x3d0fe6eb	0.03513233
86	0x3d0d5d93	0.034513067
87	0x3c93a2c1	0.018021943
88	0x3d271d25	0.04079928
89	0x3cd38d8e	0.025824334
90	0x3cd05b4d	0.02543416
91	0x3d0dbf7d	0.034606446
92	0x3cdcd451	0.02695671
93	0x3d0628f5	0.032753903
94	0x3ccf9b84	0.02534271
95	0x3cf3c986	0.02975918
96	0x3c1f8fb5	0.009738852
97	0x3ce10164	0.027466483
98	0x3d11c769	0.035590563
99	0x3d086b65	0.033305544
100	0x3d06fadb	0.03295408
101	0x3d1e26be	0.038611166
102	0x3d128e1f	0.03578007
103	0x3cb9deac	0.022689186
104	0x3cfd62f3	0.030930972
105	0x3cffa4a9	0.031206446
106	0x3cc25450	0.023721844
107	0x3d301e90	0.042997897
108	0x3cce2ef3	0.025168872
109	0x3d202ae1	0.039103393
110	0x3cf5aa09	0.029988306
111	0x3cee858d	0.029116416
112	0x3cf6dbef	0.03013417
113	0x3d11de41	0.03561235
114	0x3cf40388	0.02978684
115	0x3c45f179	0.012081497
116	0x3d2bccd5	0.04194339
117	0x3d293ca8	0.041317612
118	0x3cf7e518	0.030260608
119	0x3cb9114e	0.02259126
120	0x3cd67d68	0.026182845
121	0x3d0a22fe	0.033724777
122	0x3d0f7750	0.035025895
123	0x3d1f5331	0.038897697
124	0x3cfadb8e	0.03062227
125	0x3bd9bc3d	0.006644754
126	0x3cfdd0e0	0.030983388
127	0x3d1738de	0.036919467
128	0x3c85ba18	0.016324088
129	0x3c9fa982	0.019490007
130	0x3c979bac	0.018506847
131	0x3d0618cc	0.032738492
132	0x3ce2b898	0.027675912
133	0x3ce59e29	0.028029518
134	0x3d026f88	0.031844646
135	0x3c8b183d	0.016979331
136	0x3ca25c70	0.019819468
137	0x3d05290c	0.03250985
138	0x3cf61f1c	0.030044131
139	0x3ce0d9d8	0.027447626
140	0x3ce88097	0.028381629
141	0x3d157e85	0.03649761
142	0x3d08d825	0.033409256
143	0x3d25a76a	0.04044286
144	0x3d2ce4cc	0.042210385
145	0x3ca744b8	0.02041851
146	0x3cf85b3f	0.030316947
147	0x3ca68755	0.020328203
148	0x3c87bbee	0.016569104
149	0x3d157679	0.036489937
150	0x3cf748e2	0.03018612
151	0x3d2402dc	0.04004179
152	0x3d404091	0.046936575
153	0x3cc17214	0.023613967
154	0x3d0d78f0	0.034539163
155	0x3d027b6a	0.031855978
156	0x3d22d73f	0.039756056
157	0x3cd418f8	0.025890812
158	0x3ce3e63f	0.02781975
159	0x3cab02fd	0.020875448
160	0x3d06a448	0.032871515
161	0x3cf3f8e7	0.029781772
162	0x3cf2088f	0.029545097
163	0x3d0f6167	0.035005
164	0x3d48d9f5	0.049035985
165	0x3d2451c4	0.04011704
166	0x3cc61f66	0.024184894
167	0x3d2d1c03	0.042263042
168	0x3cc97024	0.024589606
169	0x3c6c36f5	0.0144174
170	0x3d4f4743	0.05060507
171	0x3d1acf15	0.037795145
172	0x3d0cc51b	0.034367662
173	0x3ceede73	0.029158806
174	0x3ccb4321	0.024812283
175	0x3cf65265	0.030068586
176	0x3d278d12	0.04090602
177	0x3d1e1616	0.03859528
178	0x3cf38082	0.029724363
179	0x3d190f37	0.037368026
180	0x3d05f56b	0.032704752
181	0x3d22641d	0.039646257
182	0x3cf69042	0.030098084
183	0x3cfcf0f4	0.030876614
184	0x3cf98c05	0.030462274
185	0x3cc400cb	0.02392616
186	0x3d33aee3	0.043867957
187	0x3cc40778	0.023929343
188	0x3cb69188	0.022286192
189	0x3cf2ba91	0.029629977
190	0x3cf158bd	0.029461259
191	0x3c48d7de	0.012258498
192	0x3cb0a358	0.021562263
193	0x3ca983c5	0.020692715
194	0x3c309f6a	0.010780195
195	0x3d18d18c	0.037309214
196	0x3cda4e78	0.026648745
197	0x3d0bbd58	0.03411612
198	0x3d0daf38	0.03459093
199	0x3cf62fce	0.030052092
200	0x3d03cfb4	0.032180503
201	0x3cf3ee3f	0.02977669
202	0x3cee9b7f	0.02912688
203	0x3cd5bcd9	0.026091026
204	0x3cbf01f0	0.023316354
205	0x3ceaf17c	0.028679602
206	0x3ce65d5c	0.02812069
207	0x3d1883fc	0.037235245
208	0x3d2e6e0a	0.04258541
209	0x3d38514b	0.044999402
210	0x3d2ca3a0	0.042148232
211	0x3ca5f686	0.020259153
212	0x3cd7a818	0.02632527
213	0x3cdad96e	0.026715007
214	0x3d101b3c	0.035182223
215	0x3cc8070c	0.024417423
216	0x3d063932	0.03276939
217	0x3d0f682d	0.03501146
218	0x3d12f5af	0.035878833
219	0x3cbe0e2c	0.023200117
220	0x3d0c8d61	0.034314517
221	0x3c990ec8	0.018683806
222	0x3d1014ef	0.035176214
223	0x3d13d14a	0.036088265
224	0x3cd46fe0	0.025932252
225	0x3cf164ee	0.029467072
226	0x3cbdab25	0.023152897
227	0x3d2a8abe	0.04163622
228	0x3d006d15	0.03135403
229	0x3d3960dd	0.04525839
230	0x3ccc72e0	0.02495712
231	0x3c89e57b	0.016833058
232	0x3c40dfe6	0.011772132
233	0x3d0f7cb2	0.035031028
234	0x3d1d1010	0.038345397
235	0x3c8fddae	0.01756176
236	0x3c560d10	0.013064638
237	0x3d0cb100	0.034348488
238	0x3cc40ca6	0.023931812
239	0x3ca6518f	0.020302562
240	0x3cd59f65	0.026076982
241	0x3d0cca1f	0.034372445
242	0x3d1cb816	0.038261496
243	0x3cf04572	0.02932999
244	0x3cefa1d7	0.029251976
245	0x3cb5791c	0.022152476
246	0x3d1a2006	0.037628196
247	0x3c9e9d22	0.019362036
248	0x3cfedc67	0.031110955
249	0x3cc0ab8c	0.0235193
250	0x3cf0c3de	0.029390272
251	0x3ce353a5	0.027749846
252	0x3cd90722	0.026492659
253	0x3ce17b59	0.027524637
254	0x3cdbbc64	0.02682323
255	0x3d1990f7	0.037491765

model.1.running_mean f4 [256]
0	0xbf16faed	-0.5897663
1	0x3e43100d	0.19049092
2	0xbeb02a15	-0.34407106
3	0xbeb88a29	-0.36042908
4	0xbf0d116c	-0.5510471
5	0xbec44fa0	-0.38342
6	0x3c8fc211	0.017548593
7	0x3e96cbb1	0.2945228
8	0xbe87ce3a	-0.26524526
9	0x3ef1eaa5	0.47249332
10	0xbe7a0e23	-0.24419455
11	0xbe3e5360	-0.18586493
12	0xbdfa736b	-0.122290455
13	0xbeae6940	-0.34064674
14	0xbe39d19f	-0.1814637
15	0xbe09ad71	-0.13445069
16	0xbe846611	-0.2585912
17	0x3ef64e1b	0.48106465
18	0xbd78c2e9	-0.060732756
19	0xbe701909	-0.2344705
20	0x3c8774e1	0.016535224
21	0xbd39869d	-0.045294393
22	0x3d1a860a	0.037725486
23	0x3e3a3d30	0.18187404
24	0xbc455d37	-0.01204615
25	0x3dc749d9	0.09730882
26	0xbf0062e5	-0.501509
27	0x3ec450d5	0.3834292
28	0x3e434363	0.19068675
29	0xbf07ce8e	-0.5304955
30	0x3f0361cf	0.5132112
31	0x3dd78dd2	0.10525097
32	0x3da1572d	0.078779556
33	0x3e3b7100	0.18304825
34	0xbdd1a2d1	-0.10236133
35	0x3d8db0c3	0.0691848
36	0x3f03c579	0.51473194
37	0xbdada7f0	-0.08479297
38	0xbe0c8447	-0.13722335
39	0xbe093ccf	-0.13402103
40	0x3edd02e9	0.43166283
41	0x3df50655	0.11964098
42	0xbe91db09	-0.28487423
43	0xbe64103a	-0.22271815
44	0xbd3be667	-0.045874026
45	0xbe7e17ee	-0.24813816
46	0x3e370861	0.1787429
47	0xbf061ddb	-0.52389306
48	0xbef1e38b	-0.47243914
49	0x3ed1213f	0.40845677
50	0xbed742b3	-0.42043075
51	0x3e5f4f37	0.21807562
52	0x3dd85878	0.10563749
53	0xbea0b1a4	-0.3138553
54	0x3e440811	0.19143702
55	0xbf02c289	-0.5107809
56	0xbec1c59a	-0.3784607
57	0x3f35be7f	0.709938
58	0xbda8ad1c	-0.08236143
59	0xbf031274	-0.5120003
60	0x3e034af0	0.12821555
61	0x3eacb035	0.33728185
62	0xbedcfdf0	-0.4316249
63	0x3e4685db	0.19387
64	0x3f6cb93c	0.92470145
65	0xbe0cb091	-0.1373923
66	0x3e94cf96	0.29064626
67	0x3e5a461a	0.21315804
68	0xbeb325e3	-0.34989843
69	0x3f28b3a6	0.6589912
70	0x3e63883b	0.22219937
71	0x3e9a881d	0.3018197
72	0xbdec2f8d	-0.11532507
73	0x3e318561	0.17336036
74	0xbe979671	-0.29606965
75	0x3df8010e	0.12109576
76	0x3e402fe6	0.18768272
77	0xbcf10933	-0.029423332
78	0xbdf83778	-0.12119955
79	0x3e338c50	0.17533994
80	0xbe1c2906	-0.15250024
81	0xbeb787d2	-0.3584581
82	0x3d9896d3	0.074506424
83	0x3ef7141a	0.48257524
84	0x3ee94697	0.45561668
85	0xbf6009ba	-0.8751484
86	0xbe8150af	-0.2525687
87	0x3ea2a8f5	0.3176953
88	0xbca4569c	-0.02006083
89	0xbe858dab	-0.26084647
90	0xbdd00c3a	-0.10158582
91	0x3eceb84d	0.40374985
92	0xbe3caeb3	-0.18426017
93	0x3d8552f6	0.06509964
94	0x3f43bf06	0.76463354
95	0xbe28c226	-0.16480312
96	0xbe17cfbf	-0.14825343
97	0xbf5e1557	-0.8675131
98	0xbeec4696	-0.46147603
99	0xbd7adbaa	-0.061244644
100	0xbea8ba44	-0.3295461
101	0xbd8c6e4d	-0.06856976
102	0x3f4827ea	0.78185904
103	0x3f2433af	0.6414136
104	0x3db67f89	0.08911044
105	0xbe205b84	-0.1565991
106	0x3dd3fc07	0.10350805
107	0xbd44eb45	-0.048075933
108	0xbe489cab	-0.19591014
109	0xbf54c960	-0.83119774
110	0x3d073b83	0.03301574
111	0xbf52f2d6	-0.8240179
112	0xbeb2608c	-0.34839284
113	0xbea1c049	-0.31592014
114	0xbeb974ac	-0.36221826
115	0xbf28c87b	-0.6593091
116	0xbef1368f	-0.47111937
117	0xbe4cc070	-0.19995284
118	0xbf39f4fe	-0.72639453
119	0x3e776ef7	0.24163423
120	0x3f0aa74d	0.5416153
121	0xbe805e3d	-0.25071898
122	0x3e79a2f0	0.24378562
123	0xbedb9d3f	-0.42893407
124	0x3c88545d	0.01664179
125	0xbe6d68e4	-0.23184544
126	0xbd886b82	-0.066611305
127	0x3e036d63	0.12834696
128	0xbe9ee0bb	-0.3103083
129	0xbe56d6ce	-0.20980379
130	0x3e6587c9	0.22415079
131	0xbe78bf97	-0.24291836
132	0xbe9356bc	-0.2877711
133	0x3d4d3742	0.050101526
134	0x3f04d127	0.5188164
135	0x3f0b558b	0.54427403
136	0x3d804444	0.06263021
137	0x3eb805f5	0.35942045
138	0x3d551682	0.05202342
139	0x3ddc0a6d	0.10744176
140	0xbefaf06c	-0.49011552
141	0x3ec00b6a	0.37508708
142	0xbea72f40	-0.32653236
143	0x3d29b8c3	0.041435968
144	0x3ef2a2d5	0.47389856
145	0xbf1f9e87	-0.6235127
146	0x3ecf01bb	0.40431008
147	0xbe60d6b9	-0.2195691
148	0xbe2118af	-0.15732072
149	0x3dfb492e	0.12269817
150	0x3e2488f2	0.16067865
151	0xbee80631	-0.45317224
152	0x3e20ad1e	0.15691039
153	0xbe87e4ee	-0.26541847
154	0x3dfb1e20	0.12261605
155	0xbeb038e5	-0.34418407
156	0xbe675ef5	-0.22594817
157	0xbe6470ae	-0.22308609
158	0x3d2b6c8e	0.041851573
159	0x3da26aaf	0.079305045
160	0x3e648915	0.22317918
161	0x3d429071	0.04750103
162	0xbe207bb4	-0.15672189
163	0xbeb0276c	-0.34405077
164	0xbdc47959	-0.09593458
165	0xbec56a89	-0.38557842
166	0x3eb1080d	0.34576455
167	0xbd2de5da	-0.04245553
168	0xbf494ad8	-0.7862983
169	0x3f44e77d	0.76915723
170	0x3e26078d	0.16213818
171	0xbd6e8220	-0.058229566
172	0x3e9e414a	0.30909187
173	0x3e8fed87	0.28110906
174	0xbed08947	-0.40729734
175	0x3d213ca1	0.03936446
176	0xbd4608f3	-0.04834838
177	0x3ed7082c	0.41998422
178	0xbc6f5990	-0.014608756
179	0xbf521758	-0.8206687
180	0x3d65a515	0.056065638
181	0xbe7682ab	-0.24073283
182	0x3c0e0aa0	0.008669525
183	0xbd9b9120	-0.0759604
184	0x3c58a43d	0.013222751
185	0xbe1a450a	-0.15065399
186	0xb9c731ed	-0.00037993435
187	0x3cc81881	0.024425747
188	0xbe6aa25e	-0.229135
189	0x3e196728	0.14980757
190	0x3f2df0a0	0.6794529
191	0x3e898fd0	0.26867533
192	0xbda44457	-0.08020847
193	0xbed5d194	-0.41761458
194	0xbdee2b9d	-0.11629412
195	0xbd7dfedf	-0.062010642
196	0x3e301450	0.17195249
197	0xbef93b9b	-0.48678288
198	0x3f56da7d	0.83927137
199	0xbe7e71ec	-0.24848145
200	0xbed8ff95	-0.42382494
201	0x3e18cb2d	0.14921255
202	0x3e94fe14	0.29100096
203	0xbdfa94f0	-0.12235439
204	0x3d767a79	0.060175393
205	0xbe14c940	-0.14529896
206	0x3ebdeebe	0.37096208
207	0xbf39d655	-0.7259267
208	0x3f2b2f61	0.6686917
209	0x3e45c597	0.19313656
210	0xbea2c5d9	-0.3179157
211	0x3f03a0bf	0.51417154
212	0x3f095cc5	0.5365718
213	0xbef8c709	-0.48589352
214	0x3f71e484	0.9448931
215	0xbd1391ad	-0.0360276
216	0x3f2e377e	0.68053424
217	0xbe128509	-0.14308561
218	0xbe11cddc	-0.14238685
219	0xbf0c56c7	-0.5481991
220	0xbf1da2f4	-0.6157677
221	0xbe57e451	-0.2108319
222	0x3ddf59d3	0.109058045
223	0xbe2fa423	-0.17152457
224	0xbf20f234	-0.6286957
225	0xbe7dc788	-0.24783146
226	0x3e207f81	0.15673639
227	0xbeedee6f	-0.46470973
228	0x3e88cdc9	0.26719502
229	0xbee4f024	-0.44714463
230	0x3dc2c5cd	0.09510384
231	0x3e97e62a	0.2966779
232	0xbe596171	-0.21228577
233	0xbe296b77	-0.16544901
234	0xbf0bdc90	-0.54633427
235	0x3ededae9	0.4352639
236	0xbd6778b7	-0.056511607
237	0xbdb65c9d	-0.08904383
238	0xbd9f9da7	-0.07793742
239	0xbe7d9259	-0.24762858
240	0x3edbb7a8	0.42913556
241	0xbeb702da	-0.35744363
242	0x3ee73808	0.45159936
243	0xbdeb95e9	-0.115032025
244	0x3e295b7c	0.16538805
245	0xbed5f219	-0.41786268
246	0x3ee995f8	0.4562223
247	0x3ed0e660	0.40800762
248	0x3e9ed85c	0.31024444
249	0xbea6d48d	-0.32584038
250	0xbf180741	-0.5938607
251	0xbe08488c	-0.13308924
252	0x3e0ecb4e	0.13944742
253	0xbe5b93c3	-0.21443085
254	0xbf35af05	-0.70970184
255	0x3ebfe2b1	0.3747764

model.1.running_var f4 [256]
0	0x3c97a150	0.018509537
1	0x3bd3735a	0.00645296
2	0x3c32b74f	0.010907962
3	0x3bc7509b	0.006082607
4	0x3be2fc0b	0.0069270185
5	0x3c407431	0.011746452
6	0x3bfb6c8c	0.007672852
7	0x3bd36996	0.006451796
8	0x3be486d4	0.0069740806
9	0x3bc5dd70	0.0060383603
10	0x3c40ebb6	0.011774948
11	0x3bf54c07	0.00748587
12	0x3c56bba9	0.013106265
13	0x3c1aeca2	0.009455832
14	0x3bac7822	0.0052633444
15	0x3c61c40f	0.013779654
16	0x3c025538	0.007954888
17	0x3c1ed138	0.009693436
18	0x3c88965b	0.016673258
19	0x3c35afea	0.011089304
20	0x3be583d5	0.007004241
21	0x3c9b3cd6	0.018949907
22	0x3b7761ad	0.0037747428
23	0x3bdc0059	0.0067139086
24	0x3b4d84bd	0.0031359636
25	0x3c11b977	0.008894316
26	0x3bd0b03f	0.0063686664
27	0x3c9b569d	0.018962199
28	0x3bd020a0	0.0063515455
29	0x3bcebfee	0.006309501
30	0x3c7bb3ce	0.015362693
31	0x3c2890bb	0.010288413
32	0x3c3afa67	0.01141224
33	0x3c75b81f	0.014997511
34	0x3be05068	0.0068455227
35	0x3ba66475	0.0050778934
36	0x3be5ff49	0.0070189578
37	0x3c7dda84	0.015493993
38	0x3b9777ab	0.00462242
39	0x3c6cfd41	0.014464677
40	0x3c3adbc0	0.011404932
41	0x3be3ac08	0.006947998
42	0x3c2c5817	0.010519049
43	0x3c12d2ca	0.008961389
44	0x3beec1a9	0.0072862697
45	0x3bf48e56	0.007463257
46	0x3c0686d3	0.008210856
47	0x3c30d686	0.010793334
48	0x3bffa5ff	0.0078017707
49	0x3b364ded	0.0027817443
50	0x3ba95507	0.0051676068
51	0x3c2f03fd	0.010682103
52	0x3c00cd8a	0.007861504
53	0x3c16317d	0.009167072
54	0x3bf897f9	0.007586476
55	0x3c5cc63f	0.013475
56	0x3c453143	0.012035671
57	0x3c407da0	0.011748701
58	0x3c128806	0.008943563
59	0x3c60e2ce	0.013725949
60	0x3bedf0e4	0.0072613824
61	0x3bc04ab8	0.005868282
62	0x3beeb11a	0.0072842957
63	0x3c1646d5	0.009172161
64	0x3c652026	0.013984716
65	0x3bcf2fb9	0.0063228277
66	0x3bfde467	0.007748175
67	0x3c1a1165	0.009403561
68	0x3bd699ab	0.0065490804
69	0x3c3c3ff4	0.011489857
70	0x3be7f3b7	0.0070786136
71	0x3c4d044c	0.0125132315
72	0x3c5d3221	0.013500721
73	0x3c184ca3	0.009295615
74	0x3c83b184	0.016075857
75	0x3c10fa25	0.008848702
76	0x3cec7f0b	0.028869173
77	0x3bb219bb	0.005435196
78	0x3c0a4f94	0.0084418245
79	0x3be53e12	0.0069959247
80	0x3bca9e89	0.0061834496
81	0x3bbc27fa	0.0057420703
82	0x3c2d846e	0.010590656
83	0x3c134830	0.008989379
84	0x3bf0e99f	0.0073520686
85	0x3c57c171	0.013168679
86	0x3bddbd19	0.006766927
87	0x3c4c0bad	0.012453956
88	0x3bf8a625	0.0075881653
89	0x3c73a2c9	0.014870354
90	0x3c174080	0.009231687
91	0x3bfc927c	0.007707892
92	0x3c47a1d4	0.012184579
93	0x3c0a0b09	0.008425483
94	0x3c4e23c7	0.012581772
95	0x3c66e017	0.014091513
96	0x3bf39230	0.0074331984
97	0x3c907614	0.017634429
98	0x3c451cf6	0.012030831
99	0x3c99a8a3	0.01875717
100	0x3bc3949e	0.0059686443
101	0x3c41b801	0.011823655
102	0x3c352d24	0.011058126
103	0x3c0edf6d	0.008720261
104	0x3c501909	0.012701281
105	0x3be39630	0.006945394
106	0x3b99c6a6	0.00469287
107	0x3bfcaa0c	0.007710701
108	0x3c5698b3	0.01309793
109	0x3c97630f	0.018479852
110	0x3c137b64	0.009001587
111	0x3cd7a102	0.026321892
112	0x3bf39655	0.0074336925
113	0x3bfdbe9c	0.0077436697
114	0x3c4e84db	0.012604917
115	0x3c1f04e9	0.0097057605
116	0x3c1f0bdc	0.009707417
117	0x3c10e05c	0.008842554
118	0x3bff53e7	0.0077919844
119	0x3bd65a67	0.0065415385
120	0x3c1671ce	0.009182407
121	0x3c3ed53b	0.011647518
122	0x3c51f3b4	0.012814451
123	0x3c1ee10e	0.009697212
124	0x3c0a624c	0.008446287
125	0x3c19f6f7	0.00939726
126	0x3c21a286	0.009865409
127	0x3c69d492	0.014271872
128	0x3c365d70	0.011130676
129	0x3c32fe02	0.010924818
130	0x3c5f6fef	0.013637527
131	0x3b95c0df	0.004570111
132	0x3c35eb27	0.011103428
133	0x3c0b3b5a	0.008498037
134	0x3beddb95	0.0072588422
135	0x3c7738fe	0.015089272
136	0x3c94ec73	0.018179154
137	0x3c43fff7	0.011962882
138	0x3c96b675	0.01839755
139	0x3c3ce1f1	0.011528478
140	0x3c0c92ea	0.008579949
141	0x3c46ff39	0.012145811
142	0x3bf7f79d	0.0075673596
143	0x3c217e13	0.009856719
144	0x3be93eba	0.0071180733
145	0x3c00726f	0.007839783
146	0x3c3811f6	0.011234751
147	0x3bffba1e	0.0078041693
148	0x3c933d08	0.017973438
149	0x3bc1e1ab	0.0059167943
150	0x3c8da527	0.017290665
151	0x3c2e9f4a	0.010658095
152	0x3c2a537a	0.010395879
153	0x3cc0ddae	0.023543205
154	0x3c0bea30	0.008539721
155	0x3ba9b396	0.005178879
156	0x3bdbc94c	0.006707346
157	0x3c1c9826	0.009557759
158	0x3c1f049a	0.009705687
159	0x3c46ec9e	0.012141375
160	0x3bced3b2	0.006311857
161	0x3bc0f782	0.00588888
162	0x3cbaa4ae	0.022783604
163	0x3c7b08d0	0.015321925
164	0x3be72ea0	0.0070551187
165	0x3c35f596	0.0111059155
166	0x3c1c5507	0.0095417565
167	0x3c641ccb	0.01392288
168	0x3bcea71f	0.0063065435
169	0x3c194ce6	0.009356713
170	0x3bd58565	0.006516146
171	0x3bc06997	0.0058719623
172	0x3c1a0d41	0.009402574
173	0x3bdfcd9e	0.0068299314
174	0x3c445752	0.011983709
175	0x3c2795a7	0.010228551
176	0x3be653ca	0.0070290314
177	0x3c18f3d8	0.009335481
178	0x3c6e1179	0.014530533
179	0x3c06cf74	0.008228172
180	0x3c19f652	0.009397106
181	0x3cab81f9	0.020936
182	0x3c842cf6	0.01613472
183	0x3bb5d515	0.005549083
184	0x3be69bcc	0.0070376154
185	0x3c630cf4	0.013858069
186	0x3b9704cb	0.0046087257
187	0x3bc30625	0.00595166
188	0x3c125157	0.008930526
189	0x3bb66d54	0.005567232
190	0x3c35288c	0.01105703
191	0x3c066971	0.00820385
192	0x3ca11e07	0.019667638
193	0x3ba20901	0.004944921
194	0x3c256baf	0.010096475
195	0x3c19f892	0.009397643
196	0x3c893c10	0.016752273
197	0x3c3ccdf6	0.011523714
198	0x3c7dbc39	0.01548677
199	0x3c45a125	0.012062346
200	0x3c8adafa	0.01695012
201	0x3cfb64ac	0.030687653
202	0x3c132c18	0.008982681
203	0x3c3b3d97	0.011428258
204	0x3c36e3dd	0.011162725
205	0x3bd635af	0.0065371613
206	0x3c79c113	0.015243786
207	0x3bd36104	0.006450774
208	0x3c6b6fcb	0.014369915
209	0x3bf88f16	0.0075854165
210	0x3b72fac4	0.0037075737
211	0x3c39cfa1	0.0113410065
212	0x3bcfa1c3	0.006336422
213	0x3c05b1da	0.008160079
214	0x3c9653bf	0.01835048
215	0x3b950b52	0.0045484686
216	0x3c344344	0.0110023655
217	0x3c072036	0.008247426
218	0x3bd6ab10	0.006551154
219	0x3c9d6c80	0.019216776
220	0x3bfa442b	0.007637521
221	0x3bb1223d	0.005405693
222	0x3c673ff2	0.014114367
223	0x3c4ff4c1	0.012692631
224	0x3cc10bd5	0.023565212
225	0x3c1753d6	0.009236297
226	0x3c1ba5af	0.009499951
227	0x3c3e033e	0.011597453
228	0x3c34db8a	0.01103867
229	0x3c09ea61	0.008417697
230	0x3c21f0a2	0.0098840315
231	0x3bd78b1a	0.0065778615
232	0x3bcbe4ca	0.006222342
233	0x3c483fc9	0.012222239
234	0x3c2b401d	0.0104522975
235	0x3bfe41cd	0.007759309
236	0x3c4c143d	0.012455997
237	0x3b509873	0.0031829148
238	0x3c00ad7b	0.007853861
239	0x3c8d9fbb	0.01728808
240	0x3bbc34fe	0.005743622
241	0x3c1268ad	0.008936089
242	0x3c50ec12	0.012751596
243	0x3c732e24	0.014842544
244	0x3c6db3ca	0.014508197
245	0x3c09d58d	0.008412731
246	0x3c0b5dd7	0.00850626
247	0x3bb5b54e	0.005545295
248	0x3c5288da	0.012850011
249	0x3c1e5db6	0.009665897
250	0x3bc58a77	0.006028469
251	0x3c0720af	0.0082475385
252	0x3c398763	0.011323783
253	0x3c95f763	0.01830644
254	0x3c83c74a	0.01608624
255	0x3c02c807	0.007982261

model.3.weight f4 [128, 256]
0	0x3d72690c	0.05918221
1	0x3d331ad2	0.04372675
2	0xbdacbea4	-0.08434799
3	0x3d546df0	0.051862657
4	0x3d848fa9	0.064727135
5	0xbca78686	-0.020449888
6	0xbcbad617	-0.022807164
7	0x3ced7703	0.028987413
8	0x3c7add1d	0.015311507
9	0xbd146fa3	-0.036239278
10	0x3bfa66f2	0.0076416666
11	0x3cbfa515	0.023394147
12	0xbd21fbcf	-0.039546784
13	0xbd8c15e0	-0.0684011
14	0x3d6bfe74	0.057615712
15	0xbc9fd1c2	-0.0195092
16	0xbda0a934	-0.07844773
17	0x3b82c2be	0.0039905002
18	0xbd8d1d15	-0.068903126
19	0xbac413d0	-0.0014959518
20	0x3ca76585	0.02043415
21	0x3d694f08	0.056960136
22	0xbb1e5f62	-0.002416574
23	0xbdcf7b84	-0.101309806
24	0xbd5afc49	-0.053463254
25	0xbd8610a9	-0.065461464
26	0x3caf24d5	0.021379868
27	0xbd868367	-0.06568032
28	0x3c99ffd0	0.018798739
29	0x3d08c503	0.03339101
30	0xbdaf0ebe	-0.08547734
31	0xbcc8979f	-0.024486361
32	0x3bf7263f	0.007542401
33	0x3c1d7873	0.009611237
34	0xbd371927	-0.04470172
35	0x3d7a285d	0.06107365
36	0x3d0d2a8b	0.0344644
37	0xbd54f1af	-0.0519883
38	0x3cc49bab	0.02400001
39	0xbc1e3f03	-0.009658578
40	0xbd57ee0c	-0.052717254
41	0x3cf5da0c	0.0300112
42	0xbd196d0e	-0.03745752
43	0xbd922c46	-0.07137351
44	0x3c6138d1	0.013746456
45	0xbc2ab5f2	-0.010419356
46	0x3d5fbfe6	0.054626368
47	0x3da3d460	0.07999492
48	0xbd48446c	-0.048893377
49	0x3c64d75b	0.01396736
50	0x3c8bc28b	0.017060539
51	0xbd2f8b97	-0.042857733
52	0xbd3f3373	-0.046679925
53	0x3c8d9958	0.017285034
54	0x3d033eea	0.03204242
55	0xbdbca3c1	-0.09210921
56	0xbd49b0e0	-0.049240947
57	0xbd122c81	-0.035686973
58	0xbd7aa7c5	-0.061195154
59	0x3d0519e4	0.032495394
60	0xbd66fd71	-0.056394044
61	0x3ad84652	0.0016500449
62	0x3cd50bec	0.026006661
63	0xbca4f796	-0.02013759
64	0xbd82fc99	-0.063958354
65	0x3cd3f550	0.02587381
66	0xbca6394e	-0.020290997
67	0x3d4565db	0.04819284
68	0x3d02db78	0.031947583
69	0x3d3e79de	0.04650294
70	0x3bb52e43	0.0055291965
71	0x3d79a885	0.06095173
72	0x3d099edb	0.033598762
73	0xbdb39328	-0.08768302
74	0x3d6f939e	0.058490388
75	0xbd109025	-0.035293717
76	0x3d2b909c	0.041885957
77	0xbb226059	-0.0024776666
78	0xbd01b010	-0.031662047
79	0xbcb856fa	-0.022502411
80	0x3cf112a4	0.029427834
81	0x3d27176c	0.04079382
82	0xbd4f4a82	-0.050608166
83	0xbda132ad	-0.07870994
84	0xbd84d87c	-0.064866036
85	0x3c37945c	0.011204805
86	0x3d5f2f1a	0.05448828
87	0xbd5d68a1	-0.05405486
88	0xbd9402a9	-0.0722707
89	0x3d407879	0.04698989
90	0x3d2d8439	0.042362425
91	0xbd1d4d4c	-0.038403794
92	0x3d219841	0.03945184
93	0x3cf22efc	0.02956342
94	0xbd4707e1	-0.0485915
95	0xbd96596d	-0.07341275
96	0x3bdb33a0	0.006689504
97	0xbd833839	-0.06407208
98	0x3c3782a2	0.011200579
99	0x3d084ee9	0.03327838
100	0x3cbdc1b2	0.02316365
101	0xbd917a7f	-0.071034424
102	0xbc4d9504	-0.012547735
103	0x3d2fc0fb	0.04290865
104	0xbd4cc9ed	-0.04999726
105	0x3d4cc3d7	0.049991455
106	0xbd8ba096	-0.06817739
107	0xbd0cea17	-0.034402933
108	0x3b8508fd	0.0040599094
109	0xbc8dd1bd	-0.017311925
110	0xbd727e84	-0.059202686
111	0xbbdb485d	-0.006691976
112	0xbd74658f	-0.059667166
113	0xbd8e4625	-0.06946973
114	0x3cba176d	0.022716248
115	0xbd19bcb9	-0.037533496
116	0x3b766d00	0.003760159
117	0xbd5911c1	-0.052995447
118	0x3cf9e641	0.030505301
119	0x3d0b327b	0.03398369
120	0x3d0f1ad0	0.03493768
121	0xbd765f11	-0.060149256
122	0xbd83a91b	-0.06428739
123	0x3d4e0f30	0.050307453
124	0xbc97d349	-0.018533366
125	0x3ca2128d	0.019784236
126	0xbd4f2121	-0.050568704
127	0xbd82e034	-0.063904196
128	0xbcfd3937	-0.030911071
129	0x3c3dfc44	0.011595789
130	0xbcbc4b02	-0.022984985
131	0xbd5a9098	-0.05336055
132	0xbcd65463	-0.026163286
133	0x3d61d40a	0.055133857
134	0x3d62753f	0.055287596
135	0xbd0c5142	-0.03425718
136	0x3c80886f	0.015690057
137	0xbd96c241	-0.0736127
138	0xbd27d65f	-0.040975925
139	0x3cd2b82b	0.025722584
140	0x3d80e0d5	0.06292883
141	0x3cea9ebb	0.028640142
142	0xbcc4d5d0	-0.024027735
143	0xbceb702e	-0.028740015
144	0x3d8399ca	0.06425817
145	0x3c1a8d55	0.00943311
146	0xbd2e39d6	-0.042535625
147	0xbcdadeee	-0.02671763
148	0xbd3b8ce7	-0.04578867
149	0xbc46c8bf	-0.012132823
150	0xbcc9ebac	-0.02464851
151	0xbccd11cf	-0.025032906
152	0xbd7f3058	-0.062301964
153	0xbd44a526	-0.04800906
154	0xbd4fbce4	-0.05071725
155	0x3c1cc171	0.009567604
156	0x3d1fcc12	0.039012976
157	0xbbcfa6c0	-0.006337017
158	0x3d36f390	0.044665873
159	0xbd536b78	-0.051616162
160	0x3ccf1488	0.025278345
161	0x3d2ae399	0.04172096
162	0xbd526efb	-0.05137537
163	0xbd5e706f	-0.054306444
164	0xbc64f4f1	-0.013974414
165	0xbbdea6d7	-0.006794791
166	0x3cb831de	0.022484716
167	0x3cf5c9a0	0.030003369
168	0x3d6a27e7	0.05716696
169	0x3c27f28a	0.010250697
170	0x3d65d4f3	0.056111287
171	0x3bb8dd6e	0.005641631
172	0x3bd87fcd	0.006607032
173	0xbd18d59e	-0.037313096
174	0xbbd48906	-0.006486061
175	0xbc9d17e1	-0.019176425
176	0xbce9660d	-0.028491044
177	0xbda515ac	-0.08060774
178	0xbd4c0226	-0.049806736
179	0x3d52eebc	0.051497206
180	0xbd540b87	-0.051768806
181	0x3d1c353f	0.038136717
182	0xbd2d6e76	-0.042341672
183	0x3a83af57	0.0010046762
184	0x3c9a3e7a	0.01882862
185	0x3c233797	0.009961984
186	0x3d246287	0.040133025
187	0x3cc61005	0.02417756
188	0xbbb6fe8c	-0.0055845436
189	0x3d410c2e	0.047130756
190	0x3d823bef	0.06359088
191	0xbca015a2	-0.019541565
192	0x3d27f077	0.04100081
193	0x3d51545b	0.05110584
194	0x3c6e0be0	0.014529198
195	0x3c83bcb5	0.016081193
196	0xbd07499a	-0.033029176
197	0xbd26dfb6	-0.04074069
198	0xbb8044fa	-0.0039144726
199	0x3d3e6683	0.04648448
200	0xbd81ea42	-0.06343509
201	0xbd13e3f4	-0.036106065
202	0xbd22c791	-0.039741103
203	0xbd3badfc	-0.04582022
204	0xbcde146b	-0.027109345
205	0x3cf3f175	0.029778222
206	0xbd9d3735	-0.076765455
207	0x3d7ac5f4	0.06122394
208	0xbd279f33	-0.04092331
209	0x3c6e3245	0.014538352
210	0xbccd3e6e	-0.025054183
211	0xbd7fef7d	-0.062484253
212	0x3c7a18c9	0.015264698
213	0x3c0445ac	0.008073252
214	0xbbb13e03	-0.0054090037
215	0x3d29da6e	0.041468076
216	0xbdb3c0c2	-0.08777
217	0xbbc7a890	-0.0060930923
218	0xbd471218	-0.04860124
219	0xbd8964d1	-0.06708682
220	0x3d3a7fcc	0.045532033
221	0xbd4905ea	-0.049077906
222	0xbd244ff4	-0.04011531
223	0xbc58649a	-0.013207579
224	0xbd134b70	-0.035960615
225	0xbbdaa79a	-0.0066728117
226	0xbd8d47d1	-0.068984635
227	0xbd2a7916	-0.041619383
228	0x3c43e9e7	0.011957622
229	0x3d63b095	0.055588324
230	0x3d8532f5	0.0650386
231	0xbc9b374d	-0.018947268
232	0x3cd29c38	0.025709257
233	0xbd758f20	-0.059950948
234	0xbc555597	-0.0130208945
235	0xbc0a2633	-0.008431959
236	0xbd5b1376	-0.053485356
237	0x3ce30cfe	0.027716156
238	0x3cd54e1f	0.026038228
239	0x3b3bb716	0.0028643063
240	0x3d6b2cdf	0.05741584
241	0x3be6810b	0.007034426
242	0x3d005b09	0.031336818
243	0xbd5eac0a	-0.054363288
244	0x3ccad7e8	0.024761155
245	0x3c01c492	0.007920401
246	0x3c0b42ef	0.008499845
247	0x3d988061	0.07446361
248	0xbcf20a1c	-0.029545836
249	0xbd2decb7	-0.042462077
250	0x3d0a0d79	0.033704255
251	0x3d238256	0.03991922
252	0x3cfe464f	0.031039385
253	0xbd9a6733	-0.07539215
254	0x3c51eb3f	0.012812435
255	0x3db461a4	0.08807686
