models/models_trained/Q235B-Z/stove2#0x0.pth (torch, 166767 bytes, 14 tensors)

model.0.weight f4 [256, 20]
0	0x3e59b774	0.21261388
1	0xbe24de13	-0.1610034
2	0x3debabd2	0.115073815
3	0x3e18b205	0.14911659
4	0xbe326be7	-0.17423974
5	0xbe066079	-0.13122739
6	0xbd892ed7	-0.06698387
7	0xbdc4f489	-0.09616954
8	0x3e4b6228	0.19861662
9	0x3d883c1e	0.066520914
10	0xbdebc977	-0.11513036
11	0x3db7cd86	0.08974747
12	0xbe3a52cf	-0.18195651
13	0x3c0916f2	0.008367287
14	0xbe45b995	-0.19309075
15	0x3e08f024	0.13372856
16	0x3cae0a16	0.021245044
17	0xbe775d81	-0.24156763
18	0xbe5158e4	-0.20444065
19	0x3d27968d	0.04091506
20	0xbe459c75	-0.19297965
21	0x3e36a9d5	0.17838223
22	0xbda06923	-0.07832553
23	0x3d90a703	0.07063105
24	0xbdd20c5c	-0.102562636
25	0x3cd8c638	0.026461706
26	0xbd99cb95	-0.07509533
27	0xbe10b7c0	-0.14132595
28	0x3e6dc7b6	0.23220715
29	0xbae01294	-0.001709538
30	0x3e08437b	0.13306992
31	0x3e4b79d6	0.19870695
32	0x3d8810b0	0.06643808
33	0xbdc74a3a	-0.097309545
34	0x3dd2db51	0.102957375
35	0x3e039d72	0.1285303
36	0xbdd343d4	-0.103156716
37	0xbd315ed0	-0.04330331
38	0xbbda4019	-0.006660473
39	0x3d83efd9	0.06442232
40	0x3d43eed0	0.04783517
41	0xbdbb8ae7	-0.09157353
42	0xbe402d95	-0.18767388
43	0xbbb08301	-0.0053867106
44	0xbe57922c	-0.21051854
45	0xbda8c4e7	-0.08240681
46	0x3e6e7997	0.2328857
47	0xbc6e887e	-0.014558909
48	0x3defb92f	0.11705243
49	0x3e1ae363	0.15125804
50	0x3e476e75	0.1947573
51	0xbe029ab8	-0.12754333
52	0xba07a470	-0.00051743444
53	0xbe722abf	-0.23649119
54	0xbc4be709	-0.01244522
55	0x3d2d45e5	0.042302985
56	0x3cc300a3	0.023804015
57	0x3e1a3c37	0.15062033
58	0x3d92cf65	0.071684636
59	0xbe482dac	-0.19548672
60	0x3e32039a	0.17384186
61	0xbc0c8be1	-0.008578272
62	0x3dea34ec	0.11435875
63	0x3dfeb0fd	0.124361016
64	0x3e128960	0.14310217
65	0xbd988637	-0.074474744
66	0x3c9d33a1	0.019189658
67	0xbe09b923	-0.1344953
68	0x3e6b3b5d	0.22971864
69	0x3de37b20	0.111074686
70	0xbe1d5a6a	-0.15366521
71	0xbe0ee0bc	-0.13952917
72	0x3d78d995	0.060754377
73	0x3e1bdbfe	0.15220639
74	0xbe4e95fb	-0.201744
75	0x3e5c286f	0.21499799
76	0x3df7a963	0.12092855
77	0xbe76062b	-0.2402579
78	0xbe12377d	-0.1427898
79	0xbe25c920	-0.16190004
80	0xbe31b762	-0.17355111
81	0x3e704a46	0.23465833
82	0x3e23aefe	0.15984723
83	0x3e1135bd	0.14180656
84	0xbe6e07c7	-0.23245154
85	0x3a323cb1	0.0006799205
86	0x3de27a34	0.11058465
87	0xbe089e42	-0.1334162
88	0xbe2c0fe5	-0.16802938
89	0x3dc6dfe4	0.097106725
90	0xbc49f25f	-0.012325852
91	0x3e2a8a97	0.1665443
92	0x3d776602	0.060400017
93	0x3e2690f1	0.16266228
94	0x3dfb783a	0.12278791
95	0x3db505fa	0.088390306
96	0xbdc5aa89	-0.096516676
97	0xbd62883b	-0.0553057
98	0xbe2f55dc	-0.17122597
99	0xbe1061e7	-0.14099847
100	0xbd5afbc5	-0.053462762
101	0x3e19a3ac	0.15003842
102	0x3d1756a9	0.03694788
103	0xbded3e87	-0.11584192
104	0x3dd9a881	0.10627843
105	0x3dfc38de	0.12315534
106	0x3d0bae4a	0.034101762
107	0x3e67b5aa	0.22627893
108	0xbe6ea227	-0.23304044
109	0xbd3675c6	-0.04454591
110	0x3e163dde	0.14672038
111	0xbd7e95c9	-0.062154565
112	0xbd888a96	-0.06667058
113	0xbe11e720	-0.14248323
114	0xbe70ba3d	-0.23508544
115	0xbc838e78	-0.016059145
116	0x3e43d6ce	0.1912491
117	0xbd926d20	-0.0714972
118	0xbd6f026e	-0.058351927
119	0x3e00b3b2	0.12568548
120	0xbe589558	-0.2115072
121	0x3e18da9c	0.14927143
122	0xbe4bf4b5	-0.19917567
123	0x3d9e8d3e	0.077417836
124	0x3dcc6be9	0.0998152
125	0xbe794bff	-0.24345396
126	0xbe3b04d0	-0.18263555
127	0xbdba7ae6	-0.09105472
128	0xbe1cb58e	-0.15303633
129	0x39a0318b	0.0003055449
130	0xbdedaa19	-0.11604709
131	0x3b4673cf	0.003028143
132	0x3e090c88	0.13383687
133	0xbc705a6b	-0.014669995
134	0x3e3b3b34	0.18284303
135	0x3deb7ff8	0.114990175
136	0xbd392285	-0.045198936
137	0xbdd0862f	-0.101818435
138	0x3dbb7df8	0.09154886
139	0xbd518dd4	-0.05116065
140	0xbdbfa249	-0.09357125
141	0xbe38e54b	-0.18056218
142	0xbcd6f397	-0.0262392
143	0x3e199722	0.14999059
144	0x3e16fc58	0.14744699
145	0x3e63c037	0.22241293
146	0x3d2a0606	0.04150965
147	0xbde5f1b7	-0.11227744
148	0x3e59bf8e	0.21264479
149	0xbe36a38b	-0.17835824
150	0xbe14c675	-0.1452883
151	0x3e131559	0.14363612
152	0xbda73c50	-0.081658006
153	0xbe1479ae	-0.14499542
154	0xbbdf2e13	-0.0068109124
155	0x3e54582c	0.2073676
156	0xbe58ce11	-0.21172358
157	0x3e30cf3f	0.17266558
158	0x3e6f99e5	0.2339855
159	0x3dc6b77f	0.09702968
160	0x3da66187	0.081240706
161	0xbe2045fc	-0.15651697
162	0x3ab8bc6d	0.0014094241
163	0x3e24ae94	0.16082221
164	0x3d276f18	0.04087743
165	0xbd3e2965	-0.046426196
166	0xbe367dac	-0.17821378
167	0xbe3503e6	-0.17677268
168	0x3e4e8970	0.20169616
169	0x3e3e4ffa	0.18585196
170	0xbd6e9e22	-0.058256276
171	0xbde3918d	-0.11111746
172	0x3ddb6ec6	0.10714488
173	0xbe54aea9	-0.20769753
174	0xbe3d0b7a	-0.18461409
175	0xbcfad8df	-0.03062099
176	0xbe5dabb1	-0.21647526
177	0xbd9d52a7	-0.0768178
178	0x3d8afa30	0.06786001
179	0xbdfc31c2	-0.12314178
180	0xbe1a6145	-0.15076168
181	0x3db5440e	0.08850871
182	0x3e144961	0.14481117
183	0x3e6953a0	0.22785807
184	0xbe107307	-0.1410638
185	0xbe13057d	-0.14357562
186	0x3e5f6cc6	0.21818838
187	0x3b34beaf	0.0027579477
188	0x3d76f841	0.060295347
189	0xbd7c8af1	-0.061655942
190	0xbe025752	-0.12728623
191	0x3b644aef	0.0034834703
192	0xbe34be32	-0.17650679
193	0xbc38d32e	-0.011280818
194	0xbc92afa2	-0.017906014
195	0xbdf990bf	-0.12185811
196	0x3e116951	0.14200331
197	0x3d685469	0.056721125
198	0xbe043f05	-0.12914665
199	0x3dc8a354	0.09796777
200	0x3e279927	0.16367017
201	0x3e33f387	0.17573367
202	0xbcfdffaf	-0.031005709
203	0xbde55142	-0.11197139
204	0x3d63db63	0.055629145
205	0x3cae3e69	0.021269994
206	0x3d9d77c0	0.07688856
207	0xbdec4e50	-0.115383744
208	0x3c966ec3	0.018363362
209	0xbe4c332d	-0.19941397
210	0x3c9848a3	0.018589323
211	0x3e0ed8c9	0.13949884
212	0x3c944297	0.018098159
213	0xbd78d0ab	-0.060745876
214	0x3dc02197	0.09381407
215	0xbd5ffa24	-0.054681912
216	0xbc792732	-0.015207099
217	0x3df78cb2	0.120873824
218	0x3d24440c	0.040103957
219	0x3e663c71	0.22483994
220	0xbdd88749	-0.105726786
221	0x3df43b04	0.11925319
222	0xbe2fe3c6	-0.17176732
223	0xbe163dda	-0.14672032
224	0x3be28f4c	0.006914055
225	0xbdf908ae	-0.12159859
226	0x3e12adc0	0.14324093
227	0x3e2a3ff4	0.16625959
228	0xbe449fdc	-0.19201607
229	0xbdb37f40	-0.087645054
230	0x3c29b9b8	0.01035922
231	0x3e222cb8	0.15837371
232	0x3e6df5e7	0.23238336
233	0xbd8fcb25	-0.070211686
234	0xbdd4435a	-0.10364409
235	0xbb679ff1	-0.0035343135
236	0xbe60e786	-0.21963319
237	0xbe196a21	-0.14981891
238	0xbe0563af	-0.13026308
239	0xbe2dfc7c	-0.16990846
240	0x3d7389af	0.059457477
241	0xbd82ab14	-0.06380287
242	0xbddedf1d	-0.10882399
243	0xbe35669b	-0.17714922
244	0xbe218616	-0.15773806
245	0xbe1fe15d	-0.15613313
246	0xbe35b1bc	-0.17743582
247	0x3e09f082	0.13470653
248	0xbe0e682f	-0.1390693
249	0xbe2c10b9	-0.16803254
250	0x3e1c79b5	0.15280803
251	0xbcf0f244	-0.029412396
252	0x3e3c3bbd	0.18382163
253	0xbe147d8f	-0.14501022
254	0xbc38390d	-0.011244071
255	0xbbf61455	-0.007509748

model.0.bias f4 [256]
0	0x3e020eab	0.12700908
1	0xbe385683	-0.18001752
2	0xbdfcbde1	-0.12340904
3	0x3c3b19be	0.011419712
4	0xbc4912b8	-0.012272529
5	0x3dabd232	0.08389701
6	0xbe413d75	-0.188711
7	0x3c54c3de	0.0129861515
8	0xbd4e111f	-0.050309297
9	0x3dee7d24	0.116449624
10	0x3e232222	0.1593099
11	0x3dd0fbfb	0.102043115
12	0x3d82dee5	0.0639017
13	0xbe3d3670	-0.18477798
14	0xbdd54e94	-0.10415378
15	0x3d2db5df	0.042409774
16	0x3d557d6e	0.052121572
17	0xbd82accf	-0.06380617
18	0xbe0e48e6	-0.13894996
19	0x3e62b1a7	0.22138081
20	0xbdfe8915	-0.1242849
21	0x3e1b8ee7	0.15191232
22	0xbe014f67	-0.12627946
23	0xbdf3e189	-0.11908252
24	0xbda8b530	-0.08237684
25	0x3e2f24d4	0.17103893
26	0xbe27b02a	-0.16375795
27	0x3bafdb79	0.0053667394
28	0x3e3d8af9	0.18510045
29	0x3e356082	0.17712596
30	0x3e2f1565	0.17098005
31	0x3e11c7d7	0.14236389
32	0x3ad32405	0.0016108757
33	0xbe1dfa4c	-0.15427512
34	0x3e0ae870	0.1356523
35	0x3e3b6316	0.18299517
36	0x3e29fd29	0.16600479
37	0x3e4b2558	0.19838464
38	0xbe3464b1	-0.17616536
39	0xbe242784	-0.16030699
40	0x3da9fc39	0.08300061
41	0xbe35cc55	-0.17753728
42	0xbe366c0c	-0.17814654
43	0xbdfcca8c	-0.1234332
44	0xbcf21222	-0.029549662
45	0xbd14a7c2	-0.0362928
46	0xbe372d7b	-0.17888443
47	0x3db46830	0.08808935
48	0x3e4bc097	0.19897686
49	0xbe5bebd6	-0.21476683
50	0x3db358c0	0.08757162
51	0x3e23e0ed	0.16003771
52	0xbe365e57	-0.17809425
53	0xbe35e385	-0.17762573
54	0xbe11d07c	-0.14239687
55	0xbe078249	-0.13233294
56	0xbd9641bd	-0.07336757
57	0xbdf120c5	-0.117738284
58	0x3e60c02c	0.21948308
59	0xbe503f1e	-0.20336577
60	0xbcd3462d	-0.025790298
61	0x3ddbcdcc	0.10732612
62	0xbe05eb9b	-0.13078158
63	0xbe5c4e72	-0.215143
64	0x3e03e96f	0.12882017
65	0xbd2f2189	-0.04275659
66	0xbe03fd07	-0.12889491
67	0x3d6d9599	0.058003996
68	0xbc2a3f93	-0.010391134
69	0xbd602505	-0.054722805
70	0xbe3dc0ed	-0.18530627
71	0xbd2dfc96	-0.042477213
72	0x3e08ceeb	0.13360183
73	0x3c3ca0e3	0.011512968
74	0x3d7a81d1	0.06115896
75	0xbe2857e1	-0.16439773
76	0xbe409737	-0.18807684
77	0xbe340dcb	-0.17583387
78	0xbce01b95	-0.027356902
79	0x3d7712d3	0.060320687
80	0xbe30371a	-0.1720852
81	0xbe06a367	-0.1314827
82	0x3e255dd6	0.16149077
83	0x3e22b85c	0.1589064
84	0xbe4d8d9c	-0.20073551
85	0xbcc081e9	-0.023499446
86	0xbe4556ed	-0.19271441
87	0xbddce8d6	-0.107865974
88	0xbd8e752c	-0.069559425
89	0x3e4bd38e	0.1990492
90	0xbe648030	-0.22314525
91	0x3dc00b00	0.09377098
92	0xbe12f9a6	-0.14353046
93	0xbc7fcb7f	-0.015612482
94	0xbd5617fb	-0.052268963
95	0x3e38fb14	0.18064529
96	0xbe4efeb4	-0.20214349
97	0x3e295984	0.16538054
98	0x3e2229e6	0.15836295
99	0xbd0bcd54	-0.034131363
100	0x3e371de2	0.17882493
101	0xbdad0c28	-0.08449584
102	0x3e306c06	0.17228708
103	0x3ca91bc8	0.02064313
104	0xbe00b6af	-0.12569688
105	0x3e05d822	0.1307073
106	0x3e1cfd38	0.1533097
107	0x3ccbd7c0	0.024883151
108	0xbc897f4e	-0.016784336
109	0x3d227f76	0.039672337
110	0x3d154645	0.036443967
111	0xbe396800	-0.18106079
112	0x3dbee080	0.09320164
113	0xbda1913d	-0.0788903
114	0xbe20c521	-0.15700199
115	0x3d5e9294	0.054339007
116	0x3e02483c	0.12722868
117	0x3dc2f4eb	0.09519371
118	0x3e0c8071	0.13720872
119	0xbd9970d8	-0.07492226
120	0xbe3efa24	-0.18650109
121	0xbdc44348	-0.095831454
122	0xbe36f9b3	-0.1786869
123	0xbd63e1ee	-0.055635385
124	0x3e2056e3	0.15658145
125	0xbe5689aa	-0.20950952
126	0x3e350b41	0.17680074
127	0x3d1a30da	0.037644245
128	0xbe5e92c3	-0.21735673
129	0x3e223fda	0.1584467
130	0xbd585102	-0.05281163
131	0x3e118da9	0.14214195
132	0xbe4026f7	-0.18764864
133	0xbdc43c0e	-0.09581767
134	0x3bc7ba04	0.006095173
135	0xbdc57c46	-0.09642844
136	0x3d74afec	0.059738085
137	0x3d54d5ac	0.051961586
138	0xbd3f01cc	-0.046632573
139	0x3e50deac	0.20397443
140	0x3de2051e	0.11036132
141	0x3e49f1f7	0.19721209
142	0xbe21faef	-0.1581838
143	0xbe4608e0	-0.19339323
144	0x3e359b1d	0.17734952
145	0x3de43c13	0.11144271
146	0x3ca20c1b	0.019781163
147	0x3e2a219f	0.16614388
148	0x3e3a1085	0.18170364
149	0x3df5033c	0.119635075
150	0x3bd83ff0	0.006599419
151	0xbe19043d	-0.14943023
152	0x3dd2c16d	0.10290799
153	0xbdabb36c	-0.083838314
154	0xbe4c3dd8	-0.19945467
155	0x3e5afef9	0.21386327
156	0x3e516327	0.2044798
157	0xbe615e0c	-0.22008532
158	0x3e08b302	0.13349536
159	0x3d9c5c53	0.07634797
160	0x3e37a923	0.17935614
161	0xbd7059d4	-0.058679417
162	0x3e4b8327	0.1987425
163	0xbd166260	-0.03671491
164	0x3d81e008	0.06341559
165	0x3da7724c	0.08176097
166	0xbe014eb0	-0.12627673
167	0xbdd46e9f	-0.10372662
168	0x3cf8bb40	0.030362725
169	0x3d0f5b6a	0.03499929
170	0x3de19332	0.110144034
171	0x3e1e714a	0.15472904
172	0x3e5b506a	0.21417394
173	0xbe3cb281	-0.18427469
174	0x3e2db495	0.16963418
175	0xbe1d201b	-0.15344279
176	0xbdb1879f	-0.08668446
177	0xbe235638	-0.15950859
178	0xbe2502a5	-0.1611429
179	0xbdfa4298	-0.12219733
180	0xbdf1d36c	-0.11807904
181	0xbd6c9fc1	-0.05776954
182	0xbd8053d1	-0.06265987
183	0xbc409375	-0.0117539065
184	0xbbe3d2c8	-0.0069526173
185	0x3d40416e	0.0469374
186	0x3d6a5615	0.057211
187	0x3c6890b6	0.014194658
188	0x3df52687	0.11970239
189	0xbdbf76a5	-0.093488015
190	0xbdf7be00	-0.120967865
191	0x399d32a2	0.00029983098
192	0xbded008e	-0.115723714
193	0x3e13aeb1	0.14422108
194	0x3e1320b0	0.14367938
195	0x3d055be7	0.032558348
196	0x3e520c93	0.20512609
197	0xbdee54a0	-0.11637235
198	0x3e4f82ed	0.20264788
199	0x3de98b53	0.11403527
200	0x3d5dceea	0.054152407
201	0xbe631b21	-0.22178318
202	0x3db868bc	0.090043515
203	0x3e2d8292	0.1694434
204	0xbd1c6995	-0.03818663
205	0x3e11ba59	0.14231242
206	0x3e27d997	0.16391598
207	0x3e24537a	0.16047469
208	0x3e4e88d7	0.20169388
209	0x3d8c4faa	0.06851132
210	0xbe0065d1	-0.1253884
211	0x3e47bde4	0.19506031
212	0x3d116ee3	0.03550614
213	0x3e18608d	0.14880581
214	0x3e34b936	0.17648777
215	0xbe2d912c	-0.1694991
216	0xbe3a3bae	-0.18186828
217	0xbc366483	-0.011132362
218	0x3d1ae60a	0.03781704
219	0xbd9e40ec	-0.077272266
220	0x3e378e87	0.17925464
221	0x3cf55de2	0.029951993
222	0x3bb45756	0.0055035753
223	0x3de01bcc	0.10942802
224	0x3dc14833	0.09437599
225	0xbe5de20f	-0.21668266
226	0xbe1db21e	-0.15399978
227	0x3cfd69e4	0.030934282
228	0xbdcd99aa	-0.10039075
229	0x3e1a7cf4	0.15086728
230	0x3d13c4dd	0.036076415
231	0x3de63752	0.1124102
232	0x3e57800f	0.21044944
233	0x3ddb23ad	0.10700164
234	0xbd38c56d	-0.045110155
235	0xbe61b00b	-0.22039811
236	0xbdb6c3e6	-0.089240834
237	0x3e32c884	0.17459303
238	0xbe58494c	-0.2112171
239	0x3e0b46d9	0.13601245
240	0x3e261e17	0.16222416
241	0x3cb8c799	0.022556113
242	0xbe3d9689	-0.18514456
243	0xbbb66335	-0.0055660256
244	0xbdd78872	-0.10524072
245	0x3d86be96	0.0657932
246	0x3e60ede8	0.21965754
247	0xbe646a85	-0.22306259
248	0x3e37f23f	0.17963503
249	0x3cf88fee	0.030342069
250	0x3d20077d	0.03906964
251	0x3e148a12	0.14505795
252	0xbd9988aa	-0.0749677
253	0x3de9fbac	0.11424956
254	0xbe1e15bc	-0.15437979
255	0x3cfd20f5	0.030899504

model.1.weight f4 [256]
0	0x3f849c20	1.0360146
1	0x3f837815	1.0271021
2	0x3f81e1f6	1.0147083
3	0x3f8425d7	1.0324048
4	0x3f84e8bd	1.0383526
5	0x3f84d43f	1.0377272
6	0x3f849fb2	1.0361235
7	0x3f838d62	1.0277522
8	0x3f829491	1.0201589
9	0x3f8457b1	1.0339261
10	0x3f834e0d	1.0258194
11	0x3f83a4c8	1.0284662
12	0x3f82ebeb	1.0228246
13	0x3f83331f	1.0249976
14	0x3f8386d7	1.0275525
15	0x3f8458f0	1.0339642
16	0x3f8299f6	1.0203235
17	0x3f86c78c	1.0529647
18	0x3f827a7f	1.0193633
19	0x3f83425f	1.025463
20	0x3f83cafe	1.0296323
21	0x3f84e38f	1.0381945
22	0x3f83aa1e	1.0286291
23	0x3f83badd	1.0291401
24	0x3f84410b	1.033235
25	0x3f837acc	1.027185
26	0x3f84d37b	1.0377039
27	0x3f83b34f	1.0289096
28	0x3f849991	1.0359365
29	0x3f82ea97	1.0227841
30	0x3f844e2e	1.0336359
31	0x3f8541a2	1.0410655
32	0x3f835561	1.026043
33	0x3f83466b	1.0255865
34	0x3f84b972	1.0369093
35	0x3f864bf9	1.0491935
36	0x3f834d53	1.0257972
37	0x3f851f19	1.0400115
38	0x3f82163a	1.0163033
39	0x3f84b20d	1.0366837
40	0x3f8616fb	1.0475763
41	0x3f852f99	1.0405151
42	0x3f81e3e0	1.0147667
43	0x3f8424dd	1.032375
44	0x3f840395	1.0313593
45	0x3f841a67	1.0320557
46	0x3f83e520	1.0304298
47	0x3f84ddd7	1.03802
48	0x3f83f227	1.0308274
49	0x3f856d5a	1.0423996
50	0x3f83e0d6	1.030299
51	0x3f8362ea	1.0264561
52	0x3f841254	1.0318093
53	0x3f847ae1	1.035
54	0x3f83f61d	1.0309483
55	0x3f84081a	1.0314972
56	0x3f857b0c	1.0428176
57	0x3f852a5e	1.0403554
58	0x3f82e4c9	1.022607
59	0x3f84d98a	1.0378888
60	0x3f84a4df	1.0362815
61	0x3f843e30	1.0331478
62	0x3f85d968	1.0456972
63	0x3f84b316	1.0367153
64	0x3f84b115	1.0366541
65	0x3f85d9ef	1.0457133
66	0x3f83e3fd	1.0303952
67	0x3f8339a9	1.0251971
68	0x3f81d746	1.0143821
69	0x3f8459c4	1.0339894
70	0x3f838efd	1.0278012
71	0x3f844155	1.0332438
72	0x3f8639ba	1.0486367
73	0x3f848e7c	1.0355983
74	0x3f848cd9	1.0355483
75	0x3f84c08f	1.0371264
76	0x3f82f132	1.0229857
77	0x3f84ba05	1.0369269
78	0x3f83d59a	1.0299561
79	0x3f85192d	1.0398308
80	0x3f853933	1.0408081
81	0x3f835df3	1.0263046
82	0x3f837e3b	1.0272897
83	0x3f81265c	1.0089831
84	0x3f8356ca	1.0260861
85	0x3f84023b	1.0313181
86	0x3f84506c	1.0337043
87	0x3f836333	1.0264648
88	0x3f8329c3	1.024712
89	0x3f84a6c0	1.0363388
90	0x3f84f6d3	1.0387825
91	0x3f8436e4	1.0329251
92	0x3f83e197	1.030322
93	0x3f8379aa	1.0271504
94	0x3f82603b	1.0185617
95	0x3f84fe8c	1.0390182
96	0x3f84dcc1	1.0379869
97	0x3f823efa	1.0175469
98	0x3f8553e9	1.0416232
99	0x3f852c26	1.0404098
100	0x3f83fcd8	1.0311537
101	0x3f83b500	1.0289612
102	0x3f82da14	1.0222802
103	0x3f83a3df	1.0284384
104	0x3f84f49b	1.0387148
105	0x3f83d8d2	1.0300543
106	0x3f843f76	1.0331867
107	0x3f857927	1.0427598
108	0x3f8452ad	1.0337731
109	0x3f833462	1.0250361
110	0x3f84ed42	1.0384905
111	0x3f8417e0	1.0319786
112	0x3f84f845	1.0388266
113	0x3f81cdd3	1.0140938
114	0x3f84d551	1.0377599
115	0x3f82df92	1.0224478
116	0x3f84836a	1.0352604
117	0x3f83abe8	1.0286837
118	0x3f83c1b5	1.029349
119	0x3f83790a	1.0271313
120	0x3f856ef4	1.0424485
121	0x3f843988	1.0330057
122	0x3f839552	1.0279944
123	0x3f843348	1.032815
124	0x3f81c51e	1.013828
125	0x3f846fc0	1.0346603
126	0x3f83427e	1.0254667
127	0x3f85ecee	1.046293
128	0x3f857ee0	1.0429344
129	0x3f87a9c0	1.0598679
130	0x3f83ae9a	1.0287659
131	0x3f8347d4	1.0256295
132	0x3f8290df	1.0200461
133	0x3f84921c	1.0357089
134	0x3f832845	1.0246664
135	0x3f84a34f	1.0362338
136	0x3f84497d	1.0334927
137	0x3f844b48	1.0335474
138	0x3f85f824	1.0466352
139	0x3f84c530	1.0372677
140	0x3f82e6c3	1.0226673
141	0x3f8459cf	1.0339907
142	0x3f84c30c	1.0372024
143	0x3f84406d	1.0332161
144	0x3f858514	1.0431237
145	0x3f83fda9	1.0311786
146	0x3f83bf5b	1.0292772
147	0x3f8599e3	1.0437587
148	0x3f84831d	1.0352513
149	0x3f82f5ba	1.023124
150	0x3f82242a	1.0167286
151	0x3f80f907	1.0075997
152	0x3f832031	1.0244199
153	0x3f84d83d	1.0378491
154	0x3f86fee5	1.0546538
155	0x3f83d8cd	1.0300537
156	0x3f83a7fc	1.028564
157	0x3f83f9ca	1.0310605
158	0x3f8590f5	1.0434862
159	0x3f83609f	1.0263861
160	0x3f82994c	1.0203032
161	0x3f862ee0	1.0483055
162	0x3f843368	1.0328188
163	0x3f82deae	1.0224206
164	0x3f85019d	1.0391117
165	0x3f822a1c	1.0169101
166	0x3f83938a	1.02794
167	0x3f82bcbd	1.0213848
168	0x3f843fcb	1.0331968
169	0x3f84561e	1.0338781
170	0x3f841f17	1.0321988
171	0x3f852a3d	1.0403515
172	0x3f8346f1	1.0256025
173	0x3f841ec7	1.0321892
174	0x3f80c06c	1.0058722
175	0x3f8447bf	1.0334395
176	0x3f850484	1.0392003
177	0x3f83abf0	1.0286846
178	0x3f860702	1.0470889
179	0x3f85f9ed	1.0466896
180	0x3f83b373	1.0289139
181	0x3f83456a	1.0255558
182	0x3f83d3e7	1.0299042
183	0x3f838320	1.0274391
184	0x3f847247	1.0347375
185	0x3f825891	1.0183278
186	0x3f855690	1.0417042
187	0x3f82621b	1.018619
188	0x3f84013a	1.0312874
189	0x3f841659	1.031932
190	0x3f855546	1.0416648
191	0x3f85a648	1.044137
192	0x3f826d7f	1.0189666
193	0x3f84d389	1.0377055
194	0x3f83d3f4	1.0299058
195	0x3f838bdd	1.0277058
196	0x3f8566fe	1.0422056
197	0x3f85dc81	1.0457917
198	0x3f83f532	1.0309203
199	0x3f8612db	1.0474504
200	0x3f83fae8	1.0310946
201	0x3f840737	1.0314702
202	0x3f845f93	1.0341667
203	0x3f84f863	1.0388302
204	0x3f84b754	1.0368447
205	0x3f847c7a	1.0350487
206	0x3f837cd4	1.027247
207	0x3f8546fe	1.041229
208	0x3f8572f1	1.0425702
209	0x3f835f87	1.0263528
210	0x3f87dce3	1.0614284
211	0x3f84969b	1.0358461
212	0x3f845edb	1.0341448
213	0x3f85621e	1.0420568
214	0x3f852b7d	1.0403897
215	0x3f839aab	1.0281576
216	0x3f81b4ef	1.0133342
217	0x3f842761	1.0324517
218	0x3f840a25	1.0315596
219	0x3f85604f	1.0420016
220	0x3f834e70	1.0258312
221	0x3f862276	1.0479267
222	0x3f84546d	1.0338265
223	0x3f84cd22	1.0375102
224	0x3f8365f7	1.0265492
225	0x3f84a0c3	1.036156
226	0x3f83621a	1.0264313
227	0x3f85051d	1.0392185
228	0x3f849e14	1.0360742
229	0x3f839778	1.02806
230	0x3f85129b	1.0396303
231	0x3f84ccce	1.0375001
232	0x3f844f04	1.0336614
233	0x3f83df1f	1.0302466
234	0x3f84fee1	1.0390283
235	0x3f84e653	1.0382789
236	0x3f82cf47	1.0219506
237	0x3f843767	1.0329407
238	0x3f8172f1	1.0113202
239	0x3f857584	1.0426488
240	0x3f852c0f	1.0404071
241	0x3f840c4b	1.0316252
242	0x3f838018	1.0273466
243	0x3f833413	1.0250267
244	0x3f83aebf	1.0287703
245	0x3f83e87f	1.0305327
246	0x3f82fcce	1.02334
247	0x3f835595	1.0260493
248	0x3f82aa21	1.0208169
249	0x3f8479c6	1.0349662
250	0x3f84ac02	1.0364993
251	0x3f83fa74	1.0310807
252	0x3f85cfaf	1.0454005
253	0x3f83605c	1.0263782
254	0x3f83e367	1.0303773
255	0x3f847d31	1.0350705

model.1.bias f4 [256]
0	0x3d12eb61	0.035869006
1	0x3cad163f	0.021128772
2	0x3c885de0	0.016646326
3	0x3cef84cf	0.029238133
4	0x3d28e225	0.041231293
5	0x3c84e75b	0.0162236
6	0x3cf4eaa1	0.029897036
7	0x3ce560a3	0.028000182
8	0x3cdc8be6	0.026922178
9	0x3c620a27	0.013796366
10	0x3c5a5742	0.013326468
11	0x3cf92755	0.030414263
12	0x3ce00cae	0.027349796
13	0x3cf29d7b	0.029616108
14	0x3cbef126	0.023308348
15	0x3cc08ffa	0.023506153
16	0x3ca3205c	0.019912891
17	0x3d090316	0.03345021
18	0x3b964eae	0.004587016
19	0x3cd18483	0.025575882
20	0x3cccc3f6	0.024995785
21	0x3d0649f0	0.032785356
22	0x3c8a51e8	0.016884759
23	0x3cb41f07	0.021987451
24	0x3cea698d	0.028614784
25	0x3c66b959	0.014082276
26	0x3d146c9a	0.036236383
27	0x3ceaddf6	0.028670292
28	0x3d136254	0.035982445
29	0x3d0039d9	0.031305168
30	0x3cf49e97	0.029860778
31	0x3ce0f414	0.027460136
32	0x3cd7c386	0.02633835
33	0x3ce3cce1	0.027807655
34	0x3c735a5d	0.014853087
35	0x3d12139c	0.035663232
36	0x3cceddc7	0.025252236
37	0x3cd18920	0.025578082
38	0x3c9cc7a3	0.019138163
39	0x3ca52019	0.020156907
40	0x3d036e0f	0.032087382
41	0x3d0df000	0.03465271
42	0x3cee44a9	0.029085474
43	0x3c835fed	0.016036952
44	0x3cea7b91	0.028623374
45	0x3cc14ec8	0.023597136
46	0x3c73eb55	0.0148876505
47	0x3ce98db4	0.028509952
48	0x3cbfcd61	0.023413362
49	0x3d0dec4c	0.03464918
50	0x3cf90f6a	0.030402858
51	0x3cf57768	0.029964164
52	0x3d08ea8c	0.033426806
53	0x3c6d4c44	0.014483515
54	0x3d001e94	0.03127916
55	0x3cd32cf8	0.025778279
56	0x3cfeb097	0.031090064
57	0x3cd98c3f	0.026556132
58	0x3cbbb801	0.022914888
59	0x3d016172	0.03158707
60	0x3ce198f2	0.02753875
61	0x3cadd4ec	0.021219693
62	0x3d4ca51d	0.04996215
63	0x3d03d994	0.03218992
64	0x3c9f1f54	0.019424118
65	0x3d0213e3	0.031757247
66	0x3cbe110e	0.023201492
67	0x3d02805b	0.03186069
68	0x3caf5398	0.021402165
69	0x3c90d872	0.017681334
70	0x3ccd445c	0.02505701
71	0x3d0c5d75	0.034268815
72	0x3d2b9e0c	0.041898772
73	0x3ca2754f	0.019831328
74	0x3d1cdb62	0.038295157
75	0x3c5919fd	0.013250825
76	0x3cdb4bcb	0.02676954
77	0x3cf618dd	0.030041153
78	0x3cf882a5	0.030335734
79	0x3c853f06	0.016265403
80	0x3cf70a99	0.03015642
81	0x3cd78bfa	0.026311863
82	0x3c296900	0.010339975
83	0xbb33364a	-0.0027345591
84	0x3cfde00e	0.030990627
85	0x3cb12c1e	0.021627482
86	0x3c504459	0.012711608
87	0x3ceacb2a	0.02866133
88	0x3ca35a6d	0.01994058
89	0x3d10a536	0.035313807
90	0x3cc8028d	0.024415279
91	0x3ceb1b80	0.028699636
92	0x3c4d9048	0.012546606
93	0x3c7f461b	0.015580679
94	0x3cf12556	0.029436748
95	0x3ced35d5	0.028956333
96	0x3cbbed86	0.022940408
97	0xbbc5dd82	-0.0060383687
98	0x3bc0709b	0.0058727986
99	0x3ca3dfad	0.020004118
100	0x3cdbac80	0.026815653
101	0x3c48532c	0.012226861
102	0x3cc1b7b7	0.023647172
103	0x3cd20cb2	0.02564082
104	0x3ca4b27b	0.020104637
105	0x3cd1e0d9	0.025619911
106	0x3d38cf53	0.045119595
107	0x3d1d8cd1	0.03846437
108	0x3ca76911	0.020435842
109	0x3c9a3e55	0.01882855
110	0x3cb27105	0.021782408
111	0x3c419958	0.011816345
112	0x3c845497	0.016153617
113	0x3cb69829	0.022289352
114	0x3cc96ad6	0.024587076
115	0x3cfe87e9	0.031070666
116	0x3d1072b9	0.035265658
117	0x3cb6ec0c	0.022329353
118	0x3cc160de	0.02360576
119	0x3d1ff159	0.039048526
120	0x3d1b5e71	0.037931863
121	0x3cc0b5e5	0.023524234
122	0x3cba759a	0.022761155
123	0x3d170d83	0.03687812
124	0x3c6c5d92	0.014426606
125	0x3d1a510b	0.037674945
126	0x3d026615	0.031835634
127	0x3d305f12	0.043059416
128	0x3cb224e9	0.021746116
129	0x3d2a2f8a	0.041549243
130	0x3cd266d4	0.025683798
131	0x3ce6628b	0.02812316
132	0x3cd51e2c	0.026015364
133	0x3cd4cf9d	0.025977904
134	0x3cda9ce7	0.026686145
135	0x3cd0c8ca	0.025486369
136	0x3c9de3b2	0.019273613
137	0x3cca0465	0.024660299
138	0x3d0fede8	0.035138994
139	0x3c915205	0.017739305
140	0x3c2981c4	0.01034588
141	0x3d043d2b	0.032284897
142	0x3c13aa34	0.009012748
143	0x3ca87a8f	0.020566253
144	0x3d17a5d6	0.037023388
145	0x3c8beeee	0.017081704
146	0x3ce421d3	0.02784816
147	0x3ce256fc	0.027629368
148	0x3d0b3486	0.033985637
149	0x3cd6d015	0.026222268
150	0x3ceb9b06	0.028760444
151	0x3bd5f89d	0.006529881
152	0x3cd20de9	0.025641399
153	0x3ce6ba37	0.028164966
154	0x3ce5ca47	0.028050555
155	0x3cbde9a3	0.023182696
156	0x3cbcc6a2	0.023043934
157	0x3cd74938	0.02628003
158	0x3ce3fa37	0.027829273
159	0x3ccf80cc	0.02532997
160	0x3cbb8766	0.022891711
161	0x3d0aa468	0.033848196
162	0x3cfc5c25	0.030805657
163	0x3cf9e23d	0.030503387
164	0x3cc475b1	0.0239819
165	0x3cb6c196	0.022309106
166	0x3d2ab7f6	0.041679345
167	0x3cfcc4f2	0.03085563
168	0x3d172ba4	0.036906853
169	0x3cc8f97e	0.02453303
170	0x3ce248a3	0.027622527
171	0x3d05338c	0.032519862
172	0x3ce2ff6e	0.027709689
173	0x3c9eed59	0.019400286
174	0x3b1cbdbb	0.00239168
175	0x3d161a24	0.036646023
176	0x3cfc1035	0.030769447
177	0x3ce90983	0.028446918
178	0x3c9f8c98	0.01947622
179	0x3d0a3871	0.033745233
180	0x3ce31104	0.027718075
181	0x3cf19e54	0.029494442
182	0x3ccaed11	0.024771245
183	0x3d032232	0.032015033
184	0x3d019667	0.031637575
185	0x3c8b5b87	0.017011417
186	0x3ce31288	0.027718797
187	0x3c52bd78	0.012862556
188	0x3c7857bb	0.015157635
189	0x3d01a872	0.031654783
190	0x3cc747af	0.024326174
191	0x3d12b254	0.0358146
192	0x3cd65da6	0.026167702
193	0x3d48ef6b	0.04905645
194	0x3d05792f	0.032586273
195	0x3cdfb1b9	0.027306424
196	0x3d0eee91	0.034895483
197	0x3c6bdfca	0.014396617
198	0x3ce15ab2	0.027509067
199	0x3d19ba04	0.037530914
200	0x3d0119f5	0.031518895
201	0x3cb36c9f	0.02190238
202	0x3ccfd129	0.02536829
203	0x3ccdd62f	0.025126545
204	0x3ce16b9c	0.027517132
205	0x3cd8f7a3	0.02648527
206	0x3d0505e6	0.03247633
207	0x3d06ced6	0.032912098
208	0x3c9eb5eb	0.019373855
209	0x3caeaec8	0.021323577
210	0x3d1f4e2d	0.038892914
211	0x3cd8861b	0.026431134
212	0x3ce03198	0.027367398
213	0x3d08f40b	0.033435863
214	0x3cda5c63	0.026655382
215	0x3cc55221	0.024087014
216	0xbb155be4	-0.0022790367
217	0x3cfa081c	0.030521445
218	0x3c86ba53	0.016446268
219	0x3d22eedf	0.039778586
220	0x3b98d8fa	0.0046645375
221	0x3d13c8ec	0.036080286
222	0x3d1fac0c	0.038982436
223	0x3cb8467e	0.02249455
224	0x3d1e2e17	0.038618173
225	0x3cc27ca9	0.023741083
226	0x3d29a735	0.041419227
227	0x3cf37e6a	0.029723365
228	0x3d270597	0.040776815
229	0x3d1896c6	0.037253164
230	0x3d0c34d2	0.03423006
231	0x3caf38cf	0.021389393
232	0x3cc1c4aa	0.023653347
233	0x3c87e918	0.01659064
234	0x3d16efa4	0.036849633
235	0x3c037606	0.008023744
236	0x3ce103f0	0.027467698
237	0x3ce1f934	0.02758465
238	0x3c823afd	0.015897268
239	0x3d008d0a	0.031384505
240	0x3d0874f3	0.033314656
241	0x3cd5ef3f	0.026115058
242	0x3c9d5be0	0.019208848
243	0x3c8d7ea0	0.017272294
244	0x3a1d0f15	0.0005991322
245	0x3cdcc475	0.026949147
246	0x3c3a3499	0.011365079
247	0x3ce8b731	0.028407665
248	0x3ceea81c	0.029132895
249	0x3cfd6f74	0.030936934
250	0x3d0c6d85	0.034284133
251	0x3d10a585	0.0353141
252	0x3d064422	0.03277982
253	0x3cc71636	0.024302583
254	0x3cdc2d9c	0.026877217
255	0x3cc6b5c3	0.024256593

model.1.running_mean f4 [256]
0	0xbd94e381	-0.072699554
1	0x3d042560	0.032262206
2	0xbe05fb55	-0.13084157
3	0x3d913400	0.07089996
4	0x3d42c6c3	0.047552835
5	0x3d8d227c	0.06891343
6	0xbf0b23d9	-0.54351574
7	0x3ea846a5	0.32866398
8	0xbe8ee1e9	-0.2790673
9	0x3d7be409	0.06149677
10	0x3ede1976	0.433788
11	0xbe6c3663	-0.23067622
12	0xbe322ed7	-0.1740068
13	0xbf054178	-0.5205302
14	0x3e057cc3	0.13035874
15	0xbeb3dd5b	-0.35129818
16	0xbe37a0a4	-0.17932373
17	0xbf3b39e9	-0.7313524
18	0xbd82a06a	-0.06378253
19	0x3ed2aa02	0.4114533
20	0xbea9cd62	-0.33164507
21	0xbe0ddac6	-0.13852987
22	0xbe25fc26	-0.16209468
23	0x3dcb7667	0.09934693
24	0xbdab583a	-0.08366437
25	0xbeb12303	-0.34597024
26	0xbd2593b3	-0.04042406
27	0x3e5f676b	0.21816795
28	0xbe29eb03	-0.16593556
29	0xbca3c09e	-0.019989308
30	0xbe604ae0	-0.21903563
31	0x3dbbb341	0.09165049
32	0x3d916cc5	0.07100824
33	0xbd84fd5e	-0.064936385
34	0x3c7a8840	0.015291274
35	0xbd6c7879	-0.05773208
36	0xbe307e2d	-0.17235632
37	0xbdbb3c67	-0.0914238
38	0xbd97aa35	-0.07405511
39	0xbf241198	-0.64089346
40	0x3e015d90	0.12633348
41	0xbe21906a	-0.15777746
42	0xbde4c831	-0.11170996
43	0xbf38cd43	-0.72188205
44	0x3ccff497	0.025385184
45	0xbd7fa731	-0.062415306
46	0xbecc45a9	-0.39896896
47	0xbee22a18	-0.4417274
48	0x3ef2b8c6	0.47406596
49	0xbda55e03	-0.08074572
50	0x3da3de66	0.080014035
51	0x3e0afaf5	0.13572295
52	0xbf494d3b	-0.7863347
53	0xbee97232	-0.45594937
54	0x3eb3f5df	0.35148522
55	0xbea8be07	-0.3295748
56	0x3e8ad989	0.2711909
57	0x3ea04ca1	0.31308463
58	0x3ea07196	0.3133666
59	0xbe976770	-0.29571104
60	0x3cf1500c	0.029457115
61	0x3e7e1069	0.24810947
62	0xbeed22cd	-0.46315613
63	0xbf36344f	-0.71173567
64	0x3d57c80f	0.052681025
65	0xbeb35c43	-0.35031328
66	0xbe6e282f	-0.23257516
67	0x3e0a1051	0.13482787
68	0xbf2e9d1c	-0.6820848
69	0xbd538117	-0.05163678
70	0xbabedc5b	-0.0014561521
71	0xbede31a9	-0.43397263
72	0x3e5598a8	0.20859015
73	0xbe240e58	-0.16021097
74	0xbe293c83	-0.1652699
75	0xbf3532b3	-0.70780486
76	0xbf1b81a5	-0.60744697
77	0x3e235afc	0.15952677
78	0xbedbde06	-0.42942828
79	0xbe128130	-0.14307094
80	0x3e1ffeda	0.15624562
81	0x3d92a177	0.07159703
82	0x3df90510	0.12159169
83	0x3e88e6f0	0.2673869
84	0x3b298a83	0.0025869913
85	0xbe7f2ba9	-0.24918999
86	0xbed17f97	-0.40917656
87	0x3eb46a6e	0.3523745
88	0xbe952e54	-0.29136908
89	0x3f245ab6	0.64200914
90	0xbf1cd6b9	-0.6126514
91	0xbdf54155	-0.11975352
92	0xbf10331c	-0.56327987
93	0x3e3fdb1d	0.18735929
94	0xbdcd0d8b	-0.10012349
95	0xbd063245	-0.032762785
96	0xbe2c983f	-0.16854952
97	0x3c578337	0.013153843
98	0xbe5f7af8	-0.21824253
99	0xbdc48d4b	-0.09597262
100	0xbe0e8a13	-0.13919859
101	0x3e01c9df	0.12674664
102	0x3b180bfb	0.00232005
103	0x3cd62ca1	0.026144328
104	0xbca9babc	-0.020718925
105	0x3ef21946	0.47284907
106	0xbd67b0e6	-0.056565188
107	0x3d8bc4d8	0.06824654
108	0xbea1a4d6	-0.31571072
109	0x3dd893e1	0.10575081
110	0x3e3a3e3d	0.18187805
111	0xbf36b443	-0.7136881
112	0x3ea86b9d	0.32894602
113	0xbccce2ff	-0.025010584
114	0x3d5818bb	0.05275796
115	0xbe61a937	-0.22037207
116	0xbe736ca6	-0.23771915
117	0x3dd7830a	0.105230406
118	0xbe87030d	-0.26369515
119	0xbde4c533	-0.11170425
120	0xbe5a11aa	-0.21295801
121	0xbce59ee3	-0.028029865
122	0xbf15d103	-0.5852205
123	0xbdcabfff	-0.098999016
124	0xbdb0cdb4	-0.08632985
125	0x3da7ae11	0.081874974
126	0xbe24e1ea	-0.16101804
127	0x3e058a3d	0.13041015
128	0xbef6d272	-0.48207432
129	0x3e99e0f1	0.3005443
130	0xbe4e3bd2	-0.20140007
131	0xbe6d8044	-0.2319346
132	0xbe787b18	-0.24265707
133	0x3e4b3c61	0.19847251
134	0x3e2cf649	0.16890825
135	0x3e1fc087	0.15600787
136	0x3d57d6de	0.052695148
137	0x3e124e45	0.1428767
138	0xbe8d635a	-0.27614862
139	0xbe21d2f3	-0.15803127
140	0x3c1bf9ca	0.009520004
141	0x3e43deaa	0.19127908
142	0xbf01d0de	-0.5070933
143	0x3d2214fb	0.03957079
144	0x3e52ac78	0.20573604
145	0xbdb8b84c	-0.09019527
146	0x3e3299a0	0.17441416
147	0xbd7953d7	-0.06087097
148	0x3eb653c4	0.35610783
149	0xbe88fd7e	-0.267559
150	0x3e3a7329	0.18207993
151	0xbe30af31	-0.1725433
152	0xbce0a0c7	-0.027420415
153	0x3dfdf42c	0.12400088
154	0xbe2e1bd2	-0.170028
155	0x3f1d1590	0.61361027
156	0x3ed92169	0.42408302
157	0xbd1d0311	-0.038333002
158	0x3bad8c42	0.005296261
159	0xbedca2c6	-0.43092936
160	0x3e0ae893	0.13565283
161	0xbe84142e	-0.25796646
162	0x3e8b9de3	0.27268896
163	0x3de0e876	0.109818384
164	0x3ecf8c1c	0.40536582
165	0x3e309bcc	0.17246932
166	0xbe9988eb	-0.29987273
167	0x3f1c5043	0.6105997
168	0xbf13b3c8	-0.576962
169	0x3e021e02	0.1270676
170	0x3eaa671c	0.3328179
171	0x3f1dfe74	0.6171639
172	0x3e7c900f	0.24664329
173	0x3e03e69f	0.12880944
174	0xbda6f297	-0.08151739
175	0x3d12af4a	0.0358117
176	0x3b942c59	0.004521888
177	0xbe112eed	-0.14178057
178	0xbd3409ed	-0.04395478
179	0xbd56021d	-0.05224811
180	0xbd803984	-0.0626097
181	0x3e4c7d0d	0.19969578
182	0x3d6ce3a4	0.057834283
183	0x3da53152	0.08066048
184	0xbd133c66	-0.035946272
185	0x3cfa3d54	0.030546822
186	0xbcd4837e	-0.025941607
187	0x3eaeba37	0.34126446
188	0x3de1c525	0.110239305
189	0xbdcb8f79	-0.099394746
190	0xbe121ce4	-0.14268833
191	0xbf11dfc1	-0.56982046
192	0x3ea09d95	0.31370226
193	0x3e8a078a	0.26958877
194	0x3eeee24d	0.4665703
195	0xbeb346ea	-0.3501504
196	0x3eb8d819	0.3610237
197	0xbe883463	-0.26602468
198	0x3ea7f546	0.32804316
199	0x3ee75f9c	0.45190132
200	0x3f040877	0.51575416
201	0xbe92a9a8	-0.28645062
202	0x3c92c86f	0.01791784
203	0xbdc8083e	-0.09767197
204	0xbc9f08b7	-0.019413335
205	0x3f1473e1	0.5798932
206	0xbcc916aa	-0.02454694
207	0x3f3eb400	0.7449341
208	0x3b620ff0	0.0034494363
209	0xbe9759d9	-0.29560736
210	0x3d972b1f	0.073812716
211	0x3ef4682c	0.47735727
212	0x3eaf7af6	0.342735
213	0xbf0584a0	-0.52155495
214	0x3e2f6e29	0.17131867
215	0x3f011ecd	0.50437623
216	0xbeaad4db	-0.3336552
217	0xbe146709	-0.1449243
218	0x3e38ff05	0.18066032
219	0xbbd8cd3e	-0.0066162637
220	0x3ec567cd	0.38555756
221	0x3e65f6e2	0.2245746
222	0x3cdc5435	0.026895622
223	0xbdf33d41	-0.11876918
224	0xbadfcb21	-0.0017074087
225	0xbe061262	-0.1309295
226	0x3e3146c9	0.17312159
227	0x3dd6e419	0.10492725
228	0x3c544f70	0.0129583925
229	0xbf086d39	-0.5329166
230	0xbea4f367	-0.3221695
231	0x3ece8178	0.40333152
232	0x3eb2079d	0.34771433
233	0xbe6e8ebc	-0.23296636
234	0xbe75f2aa	-0.2401835
235	0xbdf2b1e3	-0.118503354
236	0xbe24296c	-0.16031426
237	0x3e12a527	0.14320813
238	0xbef10b89	-0.47079113
239	0x3f039862	0.5140439
240	0x3ef1019b	0.47071537
241	0xbe8aa7f6	-0.2708127
242	0xbf4bc44e	-0.7959641
243	0x3cf40ff9	0.029792773
244	0x3d478d72	0.048718877
245	0xbee08d7e	-0.4385795
246	0x3cc74094	0.024322785
247	0xbee610d8	-0.44934726
248	0x3e8e76d0	0.27825022
249	0x3efc0d95	0.49229112
250	0x3e8ed3ca	0.27895957
251	0xbda292bf	-0.07938146
252	0x3cac01c1	0.02099693
253	0xbe8b3908	-0.2719195
254	0xbe42eb3b	-0.19035046
255	0x3e28114c	0.16412848

model.1.running_var f4 [256]
0	0x3c816e43	0.015799647
1	0x3bb5bbc9	0.0055460674
2	0x3ba7f6ef	0.0051258723
3	0x3c94c7b9	0.018161641
4	0x3bf9c695	0.00762255
5	0x3bf4e2aa	0.0074733095
6	0x3b9f038d	0.004852718
7	0x3c3d35c7	0.011548466
8	0x3c12b0f9	0.008953326
9	0x3c06756c	0.0082067065
10	0x3b86fdb1	0.004119598
11	0x3caed647	0.02134241
12	0x3c42a434	0.011879969
13	0x3c576747	0.013147182
14	0x3c90e807	0.017688764
15	0x3c1067cf	0.008813812
16	0x3c1a8f76	0.009433618
17	0x3bf56020	0.0074882656
18	0x3c063586	0.008191472
19	0x3c29c327	0.010361469
20	0x3c423dfa	0.011855597
21	0x3be1086a	0.006867458
22	0x3b8edd08	0.004359845
23	0x3cb0c138	0.021576509
24	0x3c090537	0.00836306
25	0x3c04e3cd	0.008110953
26	0x3bbb1277	0.0057089883
27	0x3c858133	0.016296959
28	0x3bb9e0e9	0.0056725633
29	0x3bb88125	0.0056306296
30	0x3c6adc5b	0.014334763
31	0x3b8fe938	0.0043918155
32	0x3bec057d	0.0072028027
33	0x3ba2a280	0.004963219
34	0x3c1594d1	0.009129719
35	0x3bcdd97b	0.006282029
36	0x3bad2732	0.0052842135
37	0x3bcf2808	0.006321911
38	0x3bea8387	0.0071567926
39	0x3caf83b1	0.0214251
40	0x3c26bb8b	0.01017655
41	0x3bd9d685	0.006647887
42	0x3b841844	0.004031213
43	0x3bee4e2c	0.0072725024
44	0x3c975db2	0.018477295
45	0x3ba9f68a	0.0051868604
46	0x3c10b19b	0.008831407
47	0x3bc960b6	0.006145562
48	0x3c1420b2	0.009040998
49	0x3bf5b86d	0.007498792
50	0x3c32a848	0.010904379
51	0x3ca4b83c	0.020107381
52	0x3bcb2e4d	0.006200588
53	0x3bb87b21	0.0056299125
54	0x3bfcb5a5	0.0077120834
55	0x3c062987	0.008188612
56	0x3c30d3c8	0.01079268
57	0x3c1be573	0.009515154
58	0x3b9dd842	0.0048170397
59	0x3c2199ec	0.009863358
60	0x3c10cba4	0.008837614
61	0x3c0ff388	0.00878609
62	0x3c0b4cfe	0.008502243
63	0x3c0e868d	0.008699072
64	0x3c2055c1	0.00978607
65	0x3b8a76bc	0.00422558
66	0x3c5bd466	0.013417339
67	0x3c84f40c	0.016229652
68	0x3c2279d6	0.009916743
69	0x3b63e7ff	0.0034775732
70	0x3c8e20a5	0.01734955
71	0x3c3c08d6	0.011476716
72	0x3be6b13c	0.007040171
73	0x3cbb3f45	0.022857318
74	0x3ba0e207	0.004909757
75	0x3c0d108a	0.0086099
76	0x3c31e1bc	0.010857042
77	0x3b922fc4	0.0044612605
78	0x3bd96ee9	0.006635536
79	0x3c5f9e6f	0.013648613
80	0x3bdad47c	0.006678162
81	0x3c054e66	0.008136367
82	0x3c3d9597	0.0115713095
83	0x3b9fd1db	0.0048773116
84	0x3cbe8afc	0.023259632
85	0x3b9eaa4b	0.004842078
86	0x3c3c97b8	0.011510782
87	0x3c26de2f	0.010184809
88	0x3c1be7d7	0.009515724
89	0x3c0195c4	0.007909242
90	0x3cca7d6d	0.02471801
91	0x3cb53595	0.022120276
92	0x3b7d16b0	0.003861826
93	0x3c51ff10	0.012817159
94	0x3bde9672	0.006792837
95	0x3bd68478	0.006546553
96	0x3cd1921f	0.025582371
97	0x3ba3637f	0.004986226
98	0x3b494a0a	0.0030714297
99	0x3c236c4a	0.009974549
100	0x3cd2123a	0.025643457
101	0x3bae3c7b	0.0053172684
102	0x3c0da4d1	0.008645252
103	0x3c2f3f29	0.010696211
104	0x3beb6174	0.007183248
105	0x3c1cac0d	0.0095625045
106	0x3b6a05d8	0.003570905
107	0x3bc075b3	0.005873406
108	0x3cc2bf59	0.023772882
109	0x3ca77f1f	0.020446358
110	0x3c6274f4	0.013821829
111	0x3ba3b79e	0.004996254
112	0x3c36c790	0.011155978
113	0x3bc3afa8	0.0059718676
114	0x3bbede2a	0.005824824
115	0x3bbcf66c	0.0057666805
116	0x3c25f14e	0.010128332
117	0x3bef2417	0.0072980034
118	0x3c6b9de5	0.014380907
119	0x3bfa0871	0.007630401
120	0x3c1fb3a9	0.009747424
121	0x3b94367d	0.004523097
122	0x3bb6d265	0.00557928
123	0x3c5eda38	0.013601832
124	0x3bf2c16f	0.007408313
125	0x3c21a054	0.009864885
126	0x3c20d442	0.009816231
127	0x3b97018c	0.0046083387
128	0x3c4f987c	0.012670632
129	0x3bb4fb4b	0.0055231205
130	0x3c7b6faa	0.015346447
131	0x3c120b00	0.008913755
132	0x3c83d931	0.016094776
133	0x3cbdb0cf	0.023155598
134	0x3c8ff007	0.017570509
135	0x3c5b9ab3	0.013403582
136	0x3cc20aa9	0.023686724
137	0x3cb27ff7	0.021789534
138	0x3c3abf16	0.0113980975
139	0x3c03ed2b	0.008052151
140	0x3ba8da18	0.005152952
141	0x3bc696af	0.0060604434
142	0x3c3e1075	0.011600603
143	0x3c184c77	0.009295574
144	0x3bf1097e	0.007355868
145	0x3c7fbcc5	0.015608971
146	0x3c784a5c	0.015154447
147	0x3bdc0b20	0.0067151934
148	0x3be419c3	0.006961079
149	0x3bc6fbb7	0.006072487
150	0x3c0ef07e	0.00872433
151	0x3be6bf23	0.0070418282
152	0x3c0f13ae	0.008732719
153	0x3b99f1c7	0.0046980116
154	0x3ba91869	0.0051603806
155	0x3c12d421	0.008961708
156	0x3c778ca5	0.015109216
157	0x3bea2505	0.0071455264
158	0x3c0cf592	0.00860347
159	0x3c0d78c4	0.00863475
160	0x3bb245e2	0.0054404596
161	0x3bdac4b4	0.006676281
162	0x3cbabdd5	0.022795597
163	0x3c960a10	0.018315345
164	0x3c2cb611	0.010541455
165	0x3be1956b	0.006884267
166	0x3bfaae50	0.007650174
167	0x3c448df8	0.011996739
168	0x3bf7955e	0.0075556478
169	0x3c7f6253	0.015587407
170	0x3c492e61	0.012279124
171	0x3c636295	0.013878484
172	0x3cbf2c22	0.023336474
173	0x3c79aedf	0.015239446
174	0x3c20838c	0.009796988
175	0x3c1ba089	0.009498724
176	0x3bb6e5e5	0.005581605
177	0x3bd66721	0.0065430556
178	0x3c19661d	0.009362725
179	0x3bd2e5d1	0.0064360877
180	0x3bce2be6	0.006291854
181	0x3c162539	0.009164148
182	0x3c15069b	0.009095813
183	0x3c1ec9b1	0.009691642
184	0x3bb45068	0.0055027492
185	0x3c213456	0.009839138
186	0x3bd4d640	0.006495267
187	0x3bdf0038	0.006805446
188	0x3c3e540d	0.011616719
189	0x3bd33508	0.006445531
190	0x3c248ab6	0.010042837
191	0x3c2af6d7	0.010434828
192	0x3cb8554c	0.02250161
193	0x3ba26151	0.0049554487
194	0x3c45f905	0.012083297
195	0x3bfc058d	0.0076910914
196	0x3bc68703	0.006058575
197	0x3c91f71a	0.017818023
198	0x3c02382b	0.007947962
199	0x3c5b5f82	0.01338947
200	0x3c869594	0.016428746
201	0x3c38dffe	0.011283873
202	0x3c300b63	0.010744902
203	0x3c4b6c7f	0.012416004
204	0x3bbf59e5	0.0058395737
205	0x3be224e4	0.0069013704
206	0x3bee88ab	0.0072794757
207	0x3bc121f4	0.00589394
208	0x3c109e72	0.008826839
209	0x3bc209a1	0.005921558
210	0x3be758c9	0.0070601446
211	0x3c927a55	0.017880598
212	0x3bfab709	0.007651214
213	0x3bfc98c5	0.0077086412
214	0x3beba72e	0.00719156
215	0x3c2e1d68	0.010627128
216	0x3c16aa79	0.009195917
217	0x3bd999b4	0.0066406373
218	0x3c792638	0.015206866
219	0x3bb3d8ae	0.0054884767
220	0x3c8347b9	0.016025411
221	0x3c4f6b5f	0.012659877
222	0x3c13402b	0.008987467
223	0x3c478c0d	0.012179387
224	0x3bddf4d0	0.0067735687
225	0x3c84e38f	0.01622179
226	0x3ba0a570	0.004902534
227	0x3bb1eb78	0.0054296814
228	0x3bcff610	0.0063464716
229	0x3c234f82	0.009967687
230	0x3c027c76	0.007964244
231	0x3c0082d1	0.007843689
232	0x3bf129ad	0.0073597045
233	0x3c3d7f0a	0.011565933
234	0x3b7a6408	0.0038206596
235	0x3b940bee	0.0045180237
236	0x3cb22eba	0.021750797
237	0x3c3bcf65	0.011463021
238	0x3c1ed888	0.00969518
239	0x3c7015d3	0.014653641
240	0x3c2a04c3	0.010377112
241	0x3ba41491	0.0050073345
242	0x3c1d1f70	0.009590015
243	0x3b98707f	0.0046520825
244	0x3c0ca4b1	0.008584187
245	0x3cbce07c	0.023056261
246	0x3ba1bf63	0.004936145
247	0x3c052dce	0.0081285965
248	0x3b8940f2	0.0041886503
249	0x3bd62cb7	0.006536092
250	0x3c689d09	0.014197596
251	0x3c02d970	0.007986411
252	0x3c5d5e6e	0.013511283
253	0x3be35e0f	0.006938703
254	0x3c07a7fc	0.008279797
255	0x3bc4c8c0	0.0060053766

model.3.weight f4 [128, 256]
0	0x3d3db3da	0.046314098
1	0x3ca60a3c	0.020268552
2	0x3d3a9a88	0.04555753
3	0xbcd95d9b	-0.026533892
4	0xbd5244ec	-0.05133526
5	0x3c7bdb15	0.015372057
6	0x398afa98	0.00026508118
7	0x3d33a11e	0.043854825
8	0xbd1ab336	-0.037768565
9	0x3d4ed8d8	0.050499767
10	0x3d39e455	0.04538377
11	0x3cb9b378	0.022668585
12	0xbc26a0c9	-0.01017017
13	0x3d479a34	0.048731044
14	0xbd0f1e70	-0.034941137
15	0x3d2c6301	0.042086605
16	0xbc5e01c9	-0.01355023
17	0x3d82b953	0.06383004
18	0xbc74aa25	-0.014933144
19	0xbd2e28a8	-0.04251924
20	0x3d60a8a8	0.054848343
21	0x3c9123c7	0.017717255
22	0xbd3693a4	-0.044574395
23	0x3c1e6d78	0.009669654
24	0xbd17ec49	-0.037090573
25	0x3b635720	0.0034689382
26	0x3d251dcc	0.04031162
27	0xbd7e8f1c	-0.0621482
28	0xbd083ddb	-0.033262115
29	0x3cd11602	0.02552319
30	0x3d1c9daa	0.038236298
31	0xbd228601	-0.039678577
32	0x3ca0df0b	0.019637605
33	0xbd3934fc	-0.045216545
34	0x3bdf8ddf	0.0068223323
35	0x3d39ae23	0.045332085
36	0xbc69d683	-0.014272335
37	0xbd02dea1	-0.031950597
38	0x3c542f70	0.012950763
39	0xbd44db3c	-0.04806064
40	0x3d6c03e5	0.0576209
41	0x3ccc4d82	0.024939302
42	0xbcd506b1	-0.026004167
43	0x3d83ad33	0.064295195
44	0xbbac3556	-0.0052553816
45	0x3bcc7f4e	0.006240762
46	0x3d4b7dca	0.04968051
47	0xbc1589f0	-0.009127125
48	0x3da9619b	0.0827057
49	0x3d902312	0.07037939
50	0x3cba8852	0.02277008
51	0x3db36caa	0.087609604
52	0xbd210bd7	-0.039317932
53	0xbd7646b0	-0.060126007
54	0xbd122355	-0.035678227
55	0x3ce3214f	0.027725844
56	0x3c7f695a	0.015589083
57	0x3cb743a5	0.022371123
58	0xbcd0a828	-0.025470808
59	0x3cd4ecf8	0.025991902
60	0x3d6796c3	0.056540262
61	0xbcfd21f4	-0.03089998
62	0xbca7f56b	-0.020502767
63	0xbbbf0b7a	-0.0058302255
64	0x3cf917c6	0.030406844
65	0x3cb09996	0.02155761
66	0xbd283735	-0.041068275
67	0xbccdf464	-0.025140949
68	0xbd06faaf	-0.032953914
69	0xbd09f3f6	-0.033679925
70	0x3d0401d1	0.032228295
71	0xbd52f058	-0.05149874
72	0xbb93db4b	-0.0045122257
73	0xbc6e338c	-0.014538657
74	0x3d1f6689	0.038916145
75	0xbdba3475	-0.09092037
76	0x3d5b297c	0.05350636
77	0x3c6b1106	0.01434732
78	0x3d8fb4c7	0.070169024
79	0xbd434afb	-0.04767893
80	0x3d552e04	0.052045837
81	0x3d25eeb7	0.04051086
82	0x3ceaedc2	0.028677825
83	0xbc969c7f	-0.01838517
84	0x3d15938d	0.03651767
85	0x3cd63304	0.026147373
86	0x3d676471	0.056492273
87	0x3ce29187	0.027657283
88	0xbbed123a	-0.007234839
89	0xbcc49e77	-0.024001343
90	0x3d0b6d7a	0.03403995
91	0x3d7f8442	0.06238199
92	0x3ac21814	0.0014808201
93	0xbb41560e	-0.0029500755
94	0xbd32318a	-0.043504275
95	0x3d223a09	0.039606128
96	0x3d86f372	0.06589402
97	0x3c2b2b39	0.010447317
98	0x3d4e8abd	0.05042528
99	0xb9001801	-0.00012215973
100	0x3d064cae	0.03278797
101	0xbb8359a3	-0.0040084883
102	0xbd38ca98	-0.045115083
103	0x3d3b4783	0.045722496
104	0xbc9f3982	-0.019436602
105	0xbd30b1d2	-0.043138333
106	0xbcc94cd5	-0.02457277
107	0x3d76c5f1	0.060247365
108	0xbc6ec8de	-0.014574258
109	0xbcf65b43	-0.030072814
110	0x3d69e6dd	0.057104934
111	0xbce83963	-0.028347677
112	0xbd0e4e7b	-0.034742814
113	0x3cb5606d	0.022140706
114	0x3cadd18b	0.021218082
115	0xbca923ac	-0.020646892
116	0xbc6f59da	-0.014608825
117	0x3ca8e4aa	0.020616848
118	0xbd60fb4e	-0.054927163
119	0xbd4a6613	-0.04941375
120	0x3c178a17	0.009249232
121	0x3d7434bb	0.0596206
122	0x3d0d4b86	0.034495853
123	0xbd2d35c4	-0.042287603
124	0xbd2ea035	-0.042633254
125	0x3d225065	0.03962745
126	0xba981ad2	-0.0011604673
127	0x3c47c1bb	0.012192185
128	0xbc9e8c80	-0.019354105
129	0x3d05d85b	0.032677036
130	0x3d001698	0.031271547
131	0xbcbf86d9	-0.02337973
132	0xbd100805	-0.035163898
133	0x3d16c9d2	0.036813565
134	0xbd56b837	-0.052421775
135	0xbd16ac55	-0.036785442
136	0xbc3bad5b	-0.011454905
137	0xbd3bc5df	-0.045843
138	0xbd52fbb0	-0.05150956
139	0xbc0ceb90	-0.008601084
140	0xbd8060ed	-0.06268487
141	0xbc7bf49e	-0.0153781455
142	0x3d13d99d	0.036096204
143	0x3db95e67	0.09051209
144	0xbc04ef0a	-0.008113632
145	0x3c1c72a5	0.009548818
146	0xbbf99a81	-0.0076172953
147	0xbc34d611	-0.0110373655
148	0x3d876fac	0.066130966
149	0xbd0d6102	-0.034516342
150	0xbc8f71d0	-0.017510325
151	0x3c78fab2	0.015196489
152	0xbd2606d2	-0.040533848
153	0x3d8b4701	0.06800652
154	0x3d15713d	0.036484946
155	0x3cf16088	0.029464975
156	0x3d4b8209	0.049684558
157	0xbce330d9	-0.027733253
158	0x3d628c2b	0.055309456
159	0xbd3824ce	-0.044956975
160	0xbc7777a3	-0.015104207
161	0xbd0e1735	-0.0346901
162	0x3d43c965	0.047799487
163	0xbcb36201	-0.021897318
164	0x3d2907e4	0.04126729
165	0x3cda77a0	0.02666837
166	0x3d272def	0.04081529
167	0x3cb77f4e	0.02239957
168	0x3d88b1d8	0.06674546
169	0x3cdf19af	0.027233927
170	0x3cfe4e36	0.031043153
171	0x3c6bc08e	0.01438917
172	0x3d4b39c3	0.049615633
173	0xbd71af77	-0.059005227
174	0x3cbeb961	0.023281755
175	0x3c9eca74	0.019383647
176	0xbd0a8876	-0.033821546
177	0x3d09b117	0.03361615
178	0xbd067578	-0.03282687
179	0x3d3dd36a	0.0463442
180	0xbd32baf9	-0.043635342
181	0x3d3b3d5e	0.04571282
182	0x3cb42292	0.02198914
183	0x3c9441e6	0.01809783
184	0xbd356985	-0.044290084
185	0x3d55c4d0	0.05218965
186	0x3c78d911	0.015188471
187	0x3be2bcad	0.0069194646
188	0x3c335f85	0.010948067
189	0x3d7b4972	0.06134934
190	0xbcf9e3d2	-0.030504141
191	0xbd51369b	-0.051077466
192	0x3bc7ee02	0.006101371
193	0xbd48090e	-0.04883676
194	0x3d885193	0.06656184
195	0x3d64c812	0.055854864
196	0x3cd724bf	0.02626264
197	0x3ce0f8fc	0.027462475
198	0x3c9edaa0	0.019391358
199	0xbba574fc	-0.005049346
200	0xbd0510d6	-0.03248676
201	0x3a3d2109	0.00072147005
202	0xbd51bd69	-0.051206026
203	0x3c1cf761	0.009580464
204	0x3a350e0b	0.00069066946
205	0x3c54f321	0.01299742
206	0x3c974387	0.018464817
207	0x3cd08f50	0.025458962
208	0x3d2bc6f6	0.04193779
209	0xbc27124e	-0.010197235
210	0x3c36ee2b	0.011165182
211	0x3c9fedf3	0.019522643
212	0xbd1081fb	-0.03528021
213	0x3a03ab37	0.00050227664
214	0x3ba0c9b5	0.004906858
215	0x3d645e05	0.055753727
216	0xbd1311f2	-0.035905786
217	0x3d72e498	0.059300035
218	0xbd5552f4	-0.052081063
219	0xbcf86de4	-0.030325837
220	0xbb572495	-0.00328282
221	0x3d50df4f	0.050994214
222	0x3d1efaa5	0.038813252
223	0x3cfba0ea	0.030716378
224	0xbd4a0de3	-0.04932965
225	0x3c243892	0.010023253
226	0xbcc0161f	-0.023448048
227	0xbc67ea15	-0.014154931
228	0xbd42834c	-0.047488496
229	0x3d0ba601	0.03409386
230	0x3d10cdf7	0.035352673
231	0xbcb28c5d	-0.021795446
232	0xbb59ed97	-0.0033253187
233	0xbc18dbde	-0.009329764
234	0x3cca291d	0.024677807
235	0x3d206f68	0.039168745
236	0x3d7f9897	0.06240138
237	0x3d0d04d9	0.03442845
238	0x3ba7b26b	0.0051177046
239	0xbca4dab7	-0.020123823
240	0x3c46aaf9	0.012125724
241	0x3a949222	0.0011335055
242	0x3cffa446	0.031206261
243	0xbd214f6e	-0.03938239
244	0xbd81abdc	-0.06331608
245	0xbd2a3165	-0.041551013
246	0xbc9f6189	-0.019455688
247	0x3c09c74e	0.008409334
248	0x3c44d809	0.012014397
249	0xbd39c804	-0.045356765
250	0x3d257236	0.040392123
251	0xbc21ef15	-0.009883662
252	0xbce5e76a	-0.028064448
253	0xbc3fba3f	-0.011702119
254	0x3ca68771	0.020328255
255	0x3cb7acae	0.022421207
