models/models_trained/Q235B-Z/stove1#0x0.pth (torch, 166767 bytes, 14 tensors)

model.0.weight f4 [256, 20]
00000000: ddd4 01be 3bca ce3d 1e34 5b3c f90e d23c
00000010: 2aed 39be 7169 fd3d acc1 7dbc dc92 ef3d
00000020: 8ac8 a4bd cf4b 01be 6646 92bd 15b6 9cbd
00000030: d50f 5c3e 263b 46be b96d 693a 711a 09be
00000040: c0b8 55bd 020f 07be b948 91bd 7b46 b6bd
00000050: 5f06 ea3c 7a78 64bd 0b84 8abd dc5b 35be
00000060: a334 d73d f42a c33d 7a31 473e eadc 08bd
00000070: bdbd 1a3e 54a8 803e ce8e 593d 2fda 4fbd
00000080: 0250 52bd 4283 f23d b8db 2d3e 2da9 62be
00000090: 9518 24be b8a6 353d 1e5b 87bd d4c7 d4bd
000000a0: b2be 313e 550e 4c3e 42aa 70be 1e60 ddbd
000000b0: 31d5 1fbe 7cd3 903d 9e0c 25be 864c 72bd
000000c0: 686e 43be 34bc e63b 9599 193e 5d78 173e
000000d0: 248f 1bbe efad cebd 6817 1cbe 07f0 4dbe
000000e0: ccbc a93c 80a7 1dbe 772b 9d3d 139e 483e
000000f0: 100a 9dbd 3cf9 0bbd 794a 163e ad36 103e
00000100: 4684 393e df1d 9c3a 60a7 513e fa2a ea3c
00000110: eed5 573e 04af f33d 5022 d13d f0fb e3bd
00000120: 13f3 2a3e 5cdb aabd 8d84 dbbd e428 0d3e
00000130: d5f7 6d3e 8f9f cb3c 2cb2 4f3e 8caa 163d
00000140: 1bb8 87bc 2b92 793d 4887 b6bd 5c4c 44bd
00000150: ae39 433c 5cb9 f1bd 7103 71bd 1405 72be
00000160: 04db 1ebe cc8b 293d b1cf d2bd ad54 2fbe
00000170: b6a2 503d 2c34 4ebe 71ce 63bd 53e4 043e
00000180: b748 463e 7203 473d 6bf8 44be 854c b23d
00000190: 78e3 903d a350 58be 8096 03bd 25ca 5cbd
000001a0: 9c88 eabd 1026 c13d ad7e 383e 1338 63bd
000001b0: 6c93 64bd 2f30 b5bd 5099 29be f69e e23d
000001c0: 5d82 efbd ca56 39be 35f7 e13d 8c6a 133e
000001d0: b914 6e3e 7c27 2dbe a3f8 dabd 165c 8bbd
000001e0: 230f 3ebc 98a6 31bd f621 223e 451d 423e
000001f0: 5b2c 5a3e 9623 313d 9bdf 473e 675b 52be
00000200: 64f6 4fbd 9564 e03c ad50 f93d fbb7 5bbe
00000210: ea0e 973d 2148 e03c 544f 91bd 6234 273d
00000220: 4070 94bc bdee c63d 91f4 6a3e 860a 39bd
00000230: aed3 d03d 6184 2a3e fce6 54be 2f70 72be
00000240: bf10 51be 01bd 01bb ff35 a83d 1d0f 4c3e
00000250: c95e 1bbe ddf2 42be 5859 203e 2b55 513e
00000260: fc10 b8bd 24a0 823e e9fd 9b3d 9d08 ba3d
00000270: 4774 ed3c f788 c63d 069d fcbd 6af9 443e
00000280: c9e6 1a3e d605 333e 9183 58be 240a 0ebe
00000290: 9baa 163e f2fa 17be 2001 39be 65de 0abe
000002a0: 8bf4 efbd 590b debd 5ed3 21be 631a 393e
000002b0: 50da 343e ded1 c03d 7f16 b6bd c075 813d
000002c0: eddf 4dbd 7012 113e 0523 5a3e 3dc9 74be
000002d0: 8384 913d 7df3 8d3c 6458 afbd 0efd 69be
000002e0: 528c 7fbe 2197 c8bc dd78 d53d 42d6 663e
000002f0: 55ad a23d 043d fb3b 2b6f 0cbd bdaf ca3c
00000300: 649c d7bd fbd7 c0bc ced4 2c3d e90d 0e3e
00000310: 4d0b 35be 0d9a ea3a 35a3 453d 9c84 39be
00000320: 1cf3 253e 4518 e83d 4885 d0bd 0eb8 01be
00000330: 476a 0e3e db25 2dbe d49d 25be 6263 ddbc
00000340: a200 4bbe d715 533e 8314 03be 1ac2 32be
00000350: 4817 e4bd ab02 233e 0e00 17be 000a 86bd
00000360: b09a a33d 6b93 3c3e 560a dfbd 5ed8 493e
00000370: 73a8 d9bd 108a 2a3e 6ccb 063d bb10 7f3d
00000380: 9b82 0fbe 3145 5a3e 82b4 1d3e 4d57 01bd
00000390: 3132 703e c34a a73d d16c 25be 6b46 0b3e
000003a0: fe2c 213b ea78 f03b 4eb4 7a3e 8990 8b3d
000003b0: bde9 4ebd abce 703e cfa6 0abe 7570 283e
000003c0: b123 4a3e 452f 1cbc 0c9c ab3d 0080 5e3e
000003d0: d659 e23d 7275 613e 3d3d 24be dcf1 a4bd
000003e0: 52c2 5d3e 790f 2fbe 4052 b93d 3e96 73be
000003f0: fe64 56be 797f 33be e15d 2e3e 36b1 a8bd
-0.12678857 0.10097166 0.013379125 0.025641905 -0.18156877 0.12373627 -0.0154880695 0.11697933
-0.08046062 -0.12626575 -0.07142334 -0.07651917 0.21490414 -0.19358501 0.00089045946 -0.13388993
-0.052178144 -0.13189319 -0.07093949 -0.08900162 0.028567491 -0.055778958 -0.067634664 -0.17710823
0.105080865 0.09529677 0.19452468 -0.033413805 0.15111442 0.25128424 0.053114705 -0.050745185
-0.051345833 0.11841442 0.16978347 -0.22134848 -0.16025002 0.04434845 -0.06609176 -0.10389677
0.173579 0.19927342 -0.23502448 -0.108093485 -0.1560867 0.070715874 -0.16118094 -0.05915501
-0.19085085 0.0070414785 0.14999993 0.14792009 -0.15191323 -0.10091769 -0.15243304 -0.20111094
0.020719908 -0.15395927 0.07674306 0.1959155 -0.07667935 -0.034173235 0.14676847 0.14083357
0.18116865 0.0011910758 0.20474005 0.028584946 0.21077701 0.11898616 0.10211623 -0.11132038
0.16694288 -0.08342621 -0.107186414 0.1378513 0.23239072 0.024856357 0.20282811 0.03678374
-0.01656728 0.060930412 -0.089125216 -0.047924384 0.011915607 -0.118029326 -0.058841173 -0.2363475
-0.15513235 0.041393086 -0.1029352 -0.17122145 0.050936423 -0.2013709 -0.0556168 0.12977724
0.19363676 0.04858727 -0.19235389 0.08706001 0.07074636 -0.2112451 -0.03212595 -0.053903718
-0.114518374 0.09431088 0.18017073 -0.0554734 -0.055804655 -0.08847081 -0.1656239 0.11065476
-0.11694787 -0.18099514 0.11033479 0.14396113 0.23250093 -0.16909593 -0.10691955 -0.068046734
-0.011600289 -0.043371767 0.15833268 0.18956478 0.21305983 0.043246828 0.19518892 -0.2054268
-0.050772086 0.027391711 0.12173591 -0.21456902 0.073758915 0.027378144 -0.07095209 0.04082144
-0.018119931 0.097135045 0.22944857 -0.04517605 0.10196625 0.16652061 -0.20791239 -0.23675607
-0.20416544 -0.0019796493 0.08213424 0.1992764 -0.15172876 -0.19037957 0.15659082 0.20442645
-0.089876145 0.25512803 0.07616789 0.09083674 0.02898611 0.09694093 -0.12334637 0.19235769
0.151271 0.17482695 -0.21143939 -0.13871056 0.14713518 -0.14841822 -0.18066835 -0.135614
-0.11716565 -0.10842008 -0.15803286 0.18076472 0.17661405 0.09415029 -0.088910095 0.06321287
-0.05026238 0.1416719 0.21302421 -0.23904891 0.07105353 0.017328018 -0.08561781 -0.22850439
-0.24955872 -0.024486126 0.104234435 0.2254267 0.07943217 0.0076671857 -0.034285706 0.024742002
-0.10527876 -0.023540488 0.042195134 0.13872494 -0.17680092 0.0017898694 0.04825135 -0.18116993
0.1620602 0.11332754 -0.101816714 -0.12667868 0.13907729 -0.16908972 -0.16173488 -0.027024928
-0.1982446 0.206138 -0.12800793 -0.17456856 -0.11137253 0.15918986 -0.14746115 -0.06544876
0.07988489 0.1841561 -0.10890643 0.19711444 -0.10627832 0.16654229 0.032908842 0.062271815
-0.14014666 0.21315457 0.1540089 -0.031577397 0.23456647 0.081685565 -0.16154791 0.13601081
0.0024593468 0.007338633 0.24482843 0.06814677 -0.05051588 0.23516338 -0.13540195 0.16449149
0.19740178 -0.009532754 0.08379373 0.21728516 0.11052291 0.22017458 -0.16038986 -0.080539435
0.21656159 -0.17095746 0.09048891 -0.23787782 -0.20936963 -0.17529096 0.17028 -0.08236925

model.0.bias f4 [256]
00000000: 920e 01be 1ef6 0c3e 6148 233e 6e27 9bbd
00000010: 52fd 58bd 0a82 9e3c bc6c b13d e154 1b3e
00000020: b3c6 18be 18d1 9a3d c3da 0fbe a1cf efbd
00000030: e9bf ec3d 32f0 39be ac1f 38bd a9c1 38bd
00000040: 5e1a 1f3e fec7 f0bd 15e6 8c3d d969 cf3d
00000050: dd91 3ebd b945 093e 4740 f7bb fe0d c0bd
00000060: db71 b53c 850c 0b3d d73c 593e de2d ac3d
00000070: bebf 30be 4579 04be f858 253e 815b 15be
00000080: 5d1f c23b 61d3 543e 754a 35bd d023 dfbd
00000090: 1a4a c6bd d684 323e 6aa9 963c 11e6 133d
000000a0: d807 253e cdc2 66bc c4ba 65bd 3e0b 2a3e
000000b0: 4eb6 ffbd 4a4b 003e 66b9 983d b65a a53d
000000c0: 3211 303e 4979 063e 57ca c03d 472d cb3d
000000d0: 03ff cfbd 9df8 98bd 6551 81bd 1c75 e5bd
000000e0: f9c9 593d d7d1 083e 96a1 62be df4b 33be
000000f0: f7bb dabd 490d 093e dcda ff3d c674 29be
00000100: d4a8 f5bd d96d 4e3e 0300 543d 9e76 413e
00000110: c3b0 8ebd 60ca debd b357 61be 626b 3b3d
00000120: 4287 a93b a35a 0c3c daac 883c cf22 abbd
00000130: 753b 51be b508 d4bd 6f91 25be 085a 47be
00000140: ea03 9dbd f5d2 2dbe d10e 55be 8204 403e
00000150: 7607 77bc 30fe 483e 25cf c03c eb63 16be
00000160: 285a 4b3e 72fe fe3b 1874 ebbd 37d5 913c
00000170: 6fa6 d73d 8f86 8dbd 3443 a9bd fade 0dbe
00000180: f153 b23d 2124 b1bd 9625 6f3d 5e9a 26be
00000190: 09e5 a2bd 35cf 46be 5330 153e c257 093d
000001a0: 134f 293e f73c 873d e798 cfbb 74ac c23d
000001b0: 90f4 59be 2472 223e 705b babc 9350 78bd
000001c0: c840 e23d 4c33 f63d db6a 43be 3249 6a3b
000001d0: 0c4f e03d 5692 d2bc 6ef2 593e 4543 5e3e
000001e0: b5be f5bd 5016 01be 5eb2 473d eb12 e53d
000001f0: f9c6 e3bd 01f9 d8bd ad03 d23d 6848 a5bd
00000200: 0db0 16be d5c1 153d 47f2 573e 8c6c 5ebe
00000210: 7be0 493d 5bce 4f3d ccf4 d83d 9ffe 623e
00000220: eb22 54bd ee96 b7bc 04e9 37be dc74 7d3d
00000230: 4509 4a3d 2fe1 78bc d4c7 f53d 883a b8bd
00000240: 6851 123e 2847 8c3c 8b67 5f3e 3cca 2fbe
00000250: 0f99 32bd 4633 07bd b630 313e ed4b 253e
00000260: fa22 01be a551 2b3e d6b1 3dbe ec4c 4f3e
00000270: ca1e 6bbd 26c3 56be 1850 283d 4af9 1dbd
00000280: 8cc1 9abd 6bc1 243d 97d2 53be 61ab 513e
00000290: 3dd4 fdbd 9880 1a3e b9e6 2abe 1189 833d
000002a0: ffad d83c a15c 593e 1193 07bc f60f 63be
000002b0: 7191 47bd f52a 493e 62d7 613e 2aa9 46be
000002c0: 8799 b33d 0c17 1a3d 8602 0a3e 5dfb 4e3d
000002d0: b3c2 fdbd 86d8 dfbd 7454 183e 4583 39bd
000002e0: 94f2 84bc 3965 d73d e50c 40be 86ef 033c
000002f0: 8748 133e 3268 fb3d cf9c 26be ab9d 353e
00000300: ac9d 6e3d fe91 b13d 69ee 05be 3996 063e
00000310: fc64 0cbe e8b4 5cbd badf 0ebe 889d 48be
00000320: 90dd 17be 67d7 4a3e c78b 4abe 097a 19be
00000330: f05f 903d 8b14 363e aad4 053b 459e 4a3e
00000340: 3b9c 5cbb df2d 92bd dbab e93d 0b04 a739
00000350: 24f8 303e d2a0 7e3c 32a7 35be cced ed3d
00000360: c19f 56be 8b25 4ebe d265 32be f2f2 55bd
00000370: 787a 49bc ff12 f6bd 9d8f 2abe ae19 9b3d
00000380: 8c53 7d3d bbd2 a63d 0b11 b3bd a2f6 963d
00000390: 3772 9fbd 1bfd 5f3c 39b7 243d 3426 80bb
000003a0: 79cf 26be 75fc 213e 2337 a3bd 9eb1 e33c
000003b0: f749 4b3e 6161 ab3d 53b3 3dbe 49b1 9a3c
000003c0: cfb9 c5bd 26e4 d43d f62e 543e 9e02 6dbc
000003d0: 04bb 8fbc b496 a13d 634f 06be d630 94bd
000003e0: e7fe 543e 0ed2 ff3c 7daf 1d3e 738c 023e
000003f0: 076e 58be 4543 963d 6776 3c3d b6ed 413e
-0.12603214 0.13765761 0.15945579 -0.0757588 -0.05297596 0.019349117 0.086633176 0.15169097
-0.14919548 0.07559413 -0.14048295 -0.11709524 0.115600415 -0.18158033 -0.04495208 -0.045106564
0.15537402 -0.117568955 0.06879822 0.10127611 -0.046525825 0.13405503 -0.0075455043 -0.09377669
0.022149017 0.033947486 0.21214615 0.08407186 -0.17260644 -0.12936886 0.1614722 -0.14585687
0.005924149 0.2078376 -0.04426046 -0.108955026 -0.096821025 0.17433485 0.01839133 0.03610808
0.16116273 -0.01408453 -0.056086317 0.16605851 -0.12485944 0.1252872 0.07457237 0.08073942
0.1719406 0.13132204 0.09413593 0.09920745 -0.101560615 -0.07469294 -0.06314353 -0.112039775
0.05317113 0.13361298 -0.22131953 -0.17509411 -0.10680383 0.13383974 0.12492916 -0.16548452
-0.11995092 0.20159091 0.051757824 0.18892905 -0.06967308 -0.10878444 -0.22006111 0.045756705
0.0051735947 0.008566531 0.016683985 -0.083562486 -0.20432837 -0.10353223 -0.1616876 -0.19467938
-0.07666762 -0.16975005 -0.20806433 0.1875172 -0.015077462 0.19628215 0.023536274 -0.14686553
0.1985861 0.007781797 -0.114967525 0.017801864 0.105297916 -0.06910431 -0.08264771 -0.1385459
0.08707417 -0.08649469 0.058385454 -0.16269824 -0.07953841 -0.1941498 0.14569215 0.033530958
0.1653407 0.06603425 -0.006335366 0.09505549 -0.212847 0.15863854 -0.022748679 -0.060623717
0.11047512 0.12021503 -0.19083731 0.0035749194 0.10952577 -0.025704544 0.21283886 0.21705349
-0.11999265 -0.12606168 0.04875409 0.11185249 -0.111219354 -0.10594369 0.10254607 -0.08070451
-0.14715596 0.036561806 0.21088515 -0.21721095 0.049286347 0.050733905 0.10593566 0.22167443
-0.051791113 -0.022410836 -0.17959982 0.061879024 0.049325246 -0.015190407 0.12001005 -0.08995539
0.14288867 0.017123774 0.21816842 -0.1716699 -0.043603 -0.033007883 0.17303738 0.16142245
-0.12610999 0.16730364 -0.1852487 0.20244187 -0.05740241 -0.2097288 0.04109201 -0.03856782
-0.075564474 0.04022352 -0.20685802 0.20475532 -0.12393997 0.15088117 -0.16689576 0.06422628
0.026450155 0.21226741 -0.008274809 -0.22174057 -0.048722688 0.19645293 0.22054818 -0.19400468
0.087695174 0.037619635 0.13477525 0.050532687 -0.123906516 -0.109299704 0.14875966 -0.045291204
-0.016228952 0.105173536 -0.18754919 0.008052712 0.14383136 0.12275733 -0.16270755 0.17735927
0.058255836 0.08670424 -0.13079228 0.13143243 -0.13710397 -0.053883463 -0.13952532 -0.19591343
-0.14830613 0.19808732 -0.19779883 -0.14987959 0.070495486 0.17781274 0.0020420947 0.19786938
-0.0033662457 -0.071376555 0.11409732 0.00031855734 0.17282158 0.015541272 -0.17739561 0.11617622
-0.20959379 -0.20131509 -0.17421654 -0.052233644 -0.012297265 -0.12015342 -0.16656347 0.075732574
0.061847255 0.081456624 -0.08743485 0.0737126 -0.07785457 0.013671185 0.040213797 -0.003910804
-0.16290082 0.15818961 -0.07969501 0.027794655 0.19852434 0.08368183 -0.18525438 0.018883364
-0.09654581 0.10395078 0.20721039 -0.014465956 -0.01754523 0.078900725 -0.13116221 -0.07235877
0.20800363 0.031228092 0.15398975 0.1274889 -0.21135722 0.073370494 0.046011355 0.18938336

model.1.weight f4 [256]
00000000: 1558 843f 22de 833f 5012 833f bb29 833f
00000010: dc9d 833f d6ed 843f e403 843f 9884 843f
00000020: 995b 833f 13ef 833f dafd 853f 2a1e 853f
00000030: 7426 843f decb 833f 7d4e 843f a5a8 853f
00000040: a4db 833f 1cac 873f 08c8 843f 8dc6 843f
00000050: 489f 843f f471 853f 9eea 843f fba5 843f
00000060: ba20 843f 20c2 843f 4c6b 843f acd4 833f
00000070: 7f9b 833f 24e8 853f 2bfc 823f 7b83 843f
00000080: 5140 843f b7db 823f d312 853f cbdc 863f
00000090: 8b6d 843f 9b91 823f 846f 823f a79e 843f
000000a0: 5ce3 843f 20d3 843f 89cc 843f 73a4 853f
000000b0: 871c 843f 42e5 813f e3b1 853f 58e7 833f
000000c0: 27ce 843f 037b 853f 6821 863f 39b1 833f
000000d0: 80b4 843f a492 843f 554c 853f 3fe7 823f
000000e0: 3269 853f 1646 843f d57d 853f 5e7e 853f
000000f0: 1d1f 863f 524e 863f 0a4b 843f 1b96 853f
00000100: b33d 863f 2441 843f e4f0 843f fe1b 853f
00000110: 19a9 863f baa0 833f c768 843f 80c7 843f
00000120: 88d5 803f 8721 843f 8a05 853f c0d8 843f
00000130: 2995 843f 137e 843f 965c 833f c0d3 843f
00000140: 31da 843f 83ab 853f 0ab8 843f 0060 853f
00000150: fdfd 853f fd05 843f 0ddf 833f c76a 843f
00000160: 519e 843f 5c32 853f fc24 823f 85d9 853f
00000170: 2ff7 833f 63d9 843f b032 843f 280c 853f
00000180: 1042 833f f0fe 833f ae75 843f 21bf 853f
00000190: 17e9 843f 727d 843f 8902 843f 9b56 833f
000001a0: c7de 843f baeb 843f 17e1 833f ff1e 863f
000001b0: b1f0 843f 0194 843f aaea 833f d403 873f
000001c0: 2d8b 833f 1fb9 843f 3c06 833f e679 843f
000001d0: 662e 843f 2883 843f c0fd 863f 5b9a 843f
000001e0: 82fc 833f eee8 843f 460e 843f 9cfc 823f
000001f0: f70c 853f 0d70 863f 9551 843f 6c7e 843f
00000200: 91b4 853f 84cc 843f 3704 843f 1e19 863f
00000210: e7f4 833f 5309 873f 438d 863f 361b 853f
00000220: 5f35 833f e62e 843f aa72 843f 0f25 873f
00000230: 0eb9 843f ffb4 853f d104 853f 57b6 863f
00000240: 7063 873f 69b9 853f d5eb 843f 1953 883f
00000250: c914 843f 1e59 833f 6ae4 853f a82a 843f
00000260: 03fa 823f b2fc 803f 60cc 823f 9188 853f
00000270: f00b 843f 1e8d 853f 9a7a 853f f7a7 853f
00000280: b6cc 843f 6a2e 843f d26b 853f 1048 823f
00000290: 75da 853f a32b 853f f67e 853f 44a2 833f
000002a0: 6d56 853f 1341 833f a270 863f 7c33 823f
000002b0: 64e0 813f 5f35 843f 33cd 843f bad4 843f
000002c0: 73ae 863f 81aa 833f e3fe 863f c071 873f
000002d0: 42db 863f 9ed0 823f 2509 853f 3bf1 843f
000002e0: c773 853f 0eb7 843f ed89 813f 0894 863f
000002f0: ebf1 803f 83f2 833f 2c08 863f ce1e 863f
00000300: d779 853f f6a5 833f f573 853f 1d91 843f
00000310: b2c7 833f ce53 833f 3824 853f 4bf3 843f
00000320: 6dcb 833f 9ab5 853f 75d3 843f d02b 863f
00000330: 6ca5 843f 9d19 853f 71ab 833f bcac 843f
00000340: b3eb 843f 37d3 853f ec3f 853f 83aa 843f
00000350: 29ea 823f 502e 883f 153b 843f 03f2 853f
00000360: ceb8 843f 4ba6 823f b441 843f f625 853f
00000370: 29dc 843f b080 843f c725 863f 987c 833f
00000380: 5b17 833f 5186 833f 710b 863f a305 843f
00000390: 09f8 853f b99e 823f 2bf4 823f d62d 853f
000003a0: f2d0 843f ed4a 853f 6c9c 833f 7dae 843f
000003b0: 4673 843f 0e1e 853f b0da 863f e8ad 843f
000003c0: 7de4 833f c218 843f 27db 833f 3c04 853f
000003d0: fd3c 843f 393c 853f 2045 853f e654 843f
000003e0: 0f25 833f 2c0c 843f 7410 843f d763 863f
000003f0: 2ba4 843f 48a0 873f 80ed 843f 5328 843f
1.033938 1.0302165 1.0239964 1.024711 1.028255 1.0385082 1.0313687 1.0352964
1.0262328 1.0307335 1.0468094 1.039983 1.0324235 1.029659 1.0336453 1.0442091
1.0301404 1.0599399 1.0373545 1.0373093 1.0361109 1.0425401 1.03841 1.0363153
1.0322487 1.0371742 1.0345244 1.0299277 1.0281829 1.0461469 1.0233206 1.0352625
1.0332128 1.0223302 1.039637 1.0536131 1.034593 1.0200685 1.0190282 1.0360917
1.0381885 1.037693 1.0374919 1.0440811 1.0321206 1.0148089 1.0444912 1.0304976
1.0375413 1.0428165 1.0478945 1.0288459 1.0367584 1.0357251 1.041392 1.0226821
1.0422728 1.0333889 1.0429026 1.0429189 1.0478245 1.0492651 1.03354 1.0436434
1.0487579 1.0332379 1.0386014 1.0399168 1.0520355 1.0283425 1.0344476 1.0373383
1.0065165 1.0322732 1.0392315 1.0378647 1.035802 1.0350975 1.026263 1.0377121
1.0379087 1.0442966 1.0368664 1.0419922 1.0468136 1.0314327 1.0302445 1.0345086
1.0360814 1.0405993 1.0167537 1.0457007 1.030981 1.0378841 1.0327969 1.0394335
1.0254536 1.0312176 1.0348413 1.0448953 1.0383633 1.0350783 1.0313274 1.0260805
1.0380486 1.0384438 1.0303067 1.0478209 1.0385953 1.0357667 1.0305989 1.0548043
1.0276848 1.0368994 1.0236278 1.03497 1.032666 1.0352526 1.0546188 1.0359606
1.0311434 1.0383584 1.0316856 1.023334 1.0394582 1.0502945 1.0337397 1.0351081
1.044573 1.0374913 1.0313786 1.0476415 1.0309113 1.054972 1.051186 1.0398929
1.0250663 1.0326812 1.0347493 1.0558184 1.0368974 1.0445861 1.0392095 1.0524396
1.0577221 1.0447208 1.038447 1.0650359 1.0318843 1.0261571 1.0460331 1.0325518
1.0232548 1.0077116 1.021862 1.0432302 1.0316143 1.043369 1.042804 1.0441884
1.0374973 1.0326664 1.0423529 1.0178242 1.0457293 1.0403942 1.042937 1.0283895
1.0417 1.0254234 1.0503123 1.0171962 1.0146604 1.0328788 1.0375122 1.0377419
1.0521988 1.0286409 1.0546535 1.0581589 1.0535662 1.0219915 1.0393416 1.0386118
1.0425957 1.0368364 1.0120217 1.0513926 1.0073828 1.0308384 1.0471244 1.0478151
1.0427808 1.0285022 1.0426012 1.0356785 1.0295317 1.025995 1.0401678 1.0386747
1.0296456 1.0446045 1.0377032 1.048212 1.0362983 1.0398442 1.0286695 1.0365214
1.038443 1.0455083 1.0410132 1.0364536 1.022771 1.0639133 1.033053 1.0464481
1.0368898 1.0206999 1.0332551 1.040221 1.0379688 1.0351772 1.0480279 1.0272398
1.0241503 1.0275365 1.0472242 1.031422 1.0466319 1.0204688 1.0230764 1.0404613
1.0376265 1.041349 1.0282111 1.036575 1.0347679 1.0399797 1.0535488 1.0365572
1.0304104 1.0320055 1.0301255 1.0391917 1.0331112 1.0409003 1.041172 1.0338409
1.0245684 1.0316215 1.0317521 1.0499219 1.03626 1.0595789 1.0384979 1.0324806

model.1.bias f4 [256]
00000000: 4a79 313d e2e9 e03c fd03 9a3c f3fb f93c
00000010: cea5 143d e9c5 1e3d 7d28 e63c aff8 b13c
00000020: 78ad 183c fb83 fa3c d12f 183d ad04 163d
00000030: 46ed e33c ea56 043d 6212 d43c 2af1 2d3d
00000040: b8c8 1c3d 42f3 ce3c 520f 0b3d d5ed 2e3d
00000050: 488b 113d 6f88 fb3c ce1e dd3c bebf b13c
00000060: 399e a63c 8a55 e83c 359a 2a3d 41d9 113d
00000070: dde7 af3c 6faf 9f3c 7b8b fe3c bc29 0b3d
00000080: b540 1d3d 7287 043c 2833 bf3c 7615 343d
00000090: e23e 3a3d afc1 053d 4f74 153d adbe ed3c
000000a0: 3789 0c3d ab5a b23c 1f3b 093d 713b 0e3d
000000b0: f18f 1b3d ff43 763c 8377 eb3c fa4e f33b
000000c0: b477 333d 5a84 1f3d 2df2 3d3d 7e07 143d
000000d0: 1265 b53c 8f41 a03c 8f46 1d3d e468 ec3c
000000e0: dcc3 0b3d d1e7 fa3c b312 003d a0d9 143d
000000f0: 87fe 283d 813e 2a3d 5093 943c 052b 293d
00000100: 763a 3a3d 472d 053d 168d a03c d13b 033d
00000110: 4bc5 173d a16b f93c 2631 bf3c ae3f 063d
00000120: 929e 2ebc 6fc1 dd3c 05de fe3c 372c 2d3d
00000130: 8241 973c 006e f23c 8cc6 003d 2308 a53c
00000140: 1584 fa3c d5c7 353d 99f0 003d ed17 1e3d
00000150: b38d 173d 0f12 023d ff44 e23c df0b 2a3d
00000160: fb80 023d 4ca8 d33c c10e b23c 2595 d23c
00000170: 900d cc3c ed51 da3c c5e5 c33c abce 073d
00000180: bf24 a03c ff03 a53c 7ec9 203d 7d53 103d
00000190: a5e0 f33c da17 0e3d 6c75 173d 9e1f 223d
000001a0: 4fb5 ea3c 5518 ef3c e673 f33c 8e4d 053d
000001b0: 676f 993c ed6b e53c 78ff 023d 5663 293d
000001c0: bc2b 553c 57a1 063d 7f1b 8b3c 88c1 063d
000001d0: a3a9 323d f3cc df3c c936 3c3d 95ed f83c
000001e0: cf18 0e3d 87a8 133d 272b 173d 6222 e73b
000001f0: e1bc 363d 79a3 063d e769 f33c b7b6 0a3d
00000200: 212d d63c dccb 103d 723a b83c 1d78 ea3c
00000210: 5b18 1f3d 0be7 053d 6c10 143d 5c7e 153d
00000220: a02e 7a3c 4d02 e33c 4405 973c 7b90 0c3d
00000230: 84d2 db3c d66c 0b3c 4b50 0f3d 5ae1 383d
00000240: 63fd 253d 66f5 213d f581 db3c b11d e43c
00000250: 3046 e63c 4e52 0c3d 6dd9 fe3c 33a9 df3c
00000260: 600a c73c 194a a53c de6b a73c 2938 ee3c
00000270: 6066 123d 8249 c03c 3252 cb3c 2944 d53c
00000280: ba05 ec3c eeaf 073d fbb9 bc3c acf0 f33c
00000290: 3b7c 323d f59d 213d 293c ce3c 50a3 663c
000002a0: dab4 243d 6fac e93c 1d23 333d 1aee a23c
000002b0: 0ee0 a93c 7dc7 c33c dae5 ae3c 301f 0d3d
000002c0: b341 593d 03d4 fc3c 6783 253d 047f 313d
000002d0: 2504 3e3d 1273 843c 406b f43c 32a8 ab3c
000002e0: 2636 123d ad5a 2e3d fce4 ed3b 173c 3e3d
000002f0: 933b da3b 235b e43c a6ea 233d abab 4c3d
00000300: 299f 2f3d f11c fe3c a63e 153d b81c 093d
00000310: ead8 e23c 9915 0d3d b2ef fb3c 1d0e 073d
00000320: be7c c03c 4d03 173d f340 d83c ade8 1b3d
00000330: e7a1 e13c a658 273d dfb0 f73c 91dd f23c
00000340: 4f12 0b3d 160d 0c3d 85c9 ef3c 7af1 203d
00000350: 6698 c43c 246f 3d3d a8a9 bd3c c6e0 163d
00000360: 3a9f c93c 781a 513c d280 f03c 5ff2 353d
00000370: bce5 123d e7e9 013d fd77 373d 0eff f73c
00000380: ff84 433c 71b6 b03c 9ad9 2c3d 6ccf ecb9
00000390: 8eac 1a3d c932 693d 3976 963c 7cb7 033d
000003a0: 513f 173d 9b9b fe3c 7933 eb3c 9386 d63c
000003b0: bac2 193d 18a7 6c3c 4873 313d c6b7 0e3d
000003c0: a2f1 e13c c93c 963c b2ee 253d b0cf 353d
000003d0: 3276 683c 364b f43c 9e95 113d e74d 2b3d
000003e0: 29c5 d73c ad40 0c3d 4fe6 df3c 9398 0f3d
000003f0: 2bb1 163d 3035 ff3c d1b2 dc3c cc86 e73c
0.04332856 0.027455274 0.01880073 0.030515647 0.036290936 0.03876296 0.028095478 0.021725027
0.009318702 0.030580511 0.037154976 0.036625553 0.027823102 0.03230945 0.025887672 0.04246632
0.038277358 0.025262479 0.033950157 0.042707283 0.03553322 0.030704705 0.026992228 0.021697875
0.020339118 0.0283611 0.04165097 0.03560758 0.021472866 0.019492833 0.031072369 0.033975348
0.038391788 0.008088933 0.023339823 0.04396578 0.045470126 0.032655414 0.036487874 0.029021585
0.034310546 0.02177175 0.033503648 0.034724656 0.03797907 0.01503086 0.028743511 0.007425186
0.04381533 0.03894458 0.046373535 0.036139958 0.02214292 0.01956251 0.038397368 0.02885861
0.034122333 0.030628117 0.031267833 0.036340356 0.04125836 0.041563515 0.01813665 0.041300792
0.04546591 0.032513883 0.019598525 0.032039467 0.037053388 0.03044683 0.023338865 0.032775573
-0.010657923 0.027069775 0.031111727 0.042278495 0.018463854 0.029593468 0.03143935 0.020145481
0.03058056 0.044380028 0.03147945 0.038597036 0.03700037 0.031755503 0.02762079 0.041515227
0.031861287 0.025837086 0.02173555 0.025705883 0.02490881 0.026650393 0.023913274 0.03315608
0.019548772 0.020143507 0.039254658 0.03523587 0.029770205 0.034690715 0.036977217 0.039580934
0.028650908 0.029186407 0.02971835 0.032544665 0.018729879 0.028005565 0.031981915 0.0413545
0.013010915 0.03286871 0.016980885 0.03289941 0.04361881 0.027319407 0.045950685 0.030386725
0.034691628 0.036049392 0.036906388 0.0070536593 0.044613723 0.032870743 0.029713584 0.033865657
0.026144566 0.035350665 0.022488806 0.028621728 0.038841587 0.032691043 0.036148474 0.03649746
0.015269905 0.027711058 0.018435128 0.034317475 0.02683378 0.008509835 0.034988683 0.045136787
0.04052485 0.03954067 0.026795367 0.02784619 0.02810964 0.03425818 0.031109536 0.02730236
0.02429694 0.020176934 0.020437177 0.029079514 0.035742164 0.023472551 0.024819467 0.026033478
0.028811324 0.033126764 0.023037901 0.029777847 0.043575507 0.03945728 0.025175171 0.014077023
0.040211536 0.028524606 0.04373466 0.019888926 0.02073672 0.023898834 0.021349836 0.03445357
0.05304117 0.030862814 0.04040852 0.043334022 0.04639067 0.016168151 0.029836297 0.020954225
0.03569617 0.042566944 0.007259963 0.046444025 0.006659934 0.027875489 0.0400187 0.049968403
0.042876396 0.03101966 0.0364367 0.033474654 0.027691323 0.034444425 0.030753944 0.032972444
0.023496982 0.036868382 0.026398158 0.038063694 0.027543021 0.040856026 0.030235706 0.029646667
0.033953007 0.034192167 0.029270897 0.03929279 0.02399845 0.04624857 0.023152187 0.036835454
0.024612058 0.012762658 0.029358301 0.044420596 0.035863623 0.031717207 0.044792164 0.030272987
0.011933564 0.02157137 0.04219971 -0.0004516797 0.037762217 0.056933198 0.01836692 0.032157406
0.036925618 0.031080058 0.028711068 0.026187217 0.03753922 0.014444135 0.04332283 0.03484323
0.02758104 0.018339531 0.04051084 0.04438752 0.014188336 0.02982102 0.035543077 0.04182234
0.02633913 0.034241367 0.0273315 0.035057615 0.036790054 0.031153291 0.026940735 0.028262518

model.1.running_mean f4 [256]
00000000: 4fcf fbbe cef2 a33e e104 8abc c87f 203f
00000010: a740 07bf 6e81 39be 358f e23e 7824 b63e
00000020: 663f aebe b98a 30bd 014e a6be 0a18 ec3e
00000030: 593b fa3e 56bc 7bbe 8e1f e03d 01d4 a8be
00000040: e6c5 543d dbd7 4bbc 414a 98be a20b 153e
00000050: 6237 98be 297a acbd 74da b03e 9db3 c53e
00000060: 852b b53d e2ad 1a3f 6ec7 653f f8d3 13bf
00000070: 8b76 14bf b1f2 763e 0578 873e b0cb a1bd
00000080: 647d 253d ffa6 e83e 8aab 0f3f 0b10 65be
00000090: fc4b dabe 56b8 323e ee51 7b3d b939 fb3e
000000a0: 2fb0 5ebe 4454 b93c 1e72 c43e 3bae 78bf
000000b0: 030e 26bd ae25 123c 184a d2be c57f 023e
000000c0: 69dc fb3d 8f20 b83b c090 ea3e 229c 393e
000000d0: b352 0c3f 5338 3bbe 5b65 d8be 7810 19be
000000e0: dd1e 4ebf a9d7 67be 5abb 7bbd f099 b3be
000000f0: 0b0a 073e da19 2dbe 6471 413e 9d99 133f
00000100: 8843 7f3e b86f ac3e a0da 47be 0f2d c8be
00000110: 76df 99bd acbd 313e 11ed 06be c6b5 36bd
00000120: da72 93bd 4e9d 593d 22d9 0d3e 38a6 9cbe
00000130: bfc7 d43d 12b8 e9be 9a25 06bf d408 fa3d
00000140: 1e10 083e 57fd 043e 9506 a13d 23b4 773c
00000150: 8f2e d33e 4dba 9c3e 37b4 bbbe d06e 4c3e
00000160: e78a 193f 091e fa3e 5a4c f5be 60c3 5e3e
00000170: de53 833e c2b1 263e eb27 003f 0f7b 5eb9
00000180: ce2f b33d f2c7 013d 2476 aa3e d7a9 bb3e
00000190: 39e9 63be 3f99 c7bd cb13 c73e 6871 0b3e
000001a0: fc37 f13e 1f5a c2bd 7593 fa3c 1c72 4e3b
000001b0: b2c8 8e3e 829d 0c3e 9ec9 00bf 3f35 bdbd
000001c0: 5911 5b3f bd2a 573e 2794 5bbe 5f3d 503d
000001d0: b059 133f 9067 d63d 6960 44be 901f af3e
000001e0: 0d69 193c b571 c7bc b249 323f 7c4b 8b3e
000001f0: 9a6f aa3e 74b3 81be 9468 a53e f2e8 f2be
00000200: 507f 44bf a575 dfbe 7b5f 213e 5402 95be
00000210: bb04 b73e ead0 983e 6b2c a53e cbf4 3ebe
00000220: ba5c 413e fa30 1abd 7465 41bf ee47 af3e
00000230: dd92 903e 97a0 ed3d eb7d 843e ad6a 3ebd
00000240: db90 8ebe 8f4c 9cbe 0be6 dc3e 1246 e6bd
00000250: 4330 ec3e dedd 4338 905d ff3d b1bd b6be
00000260: e2f0 1c3f 06ab 873e d0fd 54be be76 263e
00000270: 6722 2c3f b8c4 6ebc fc6f 0ebe acce 273e
00000280: b73c cc3e e3c2 aa3c 3bd2 1cbe 3af3 943e
00000290: 6917 59bd 736b f63e 3212 83be 339c 563e
000002a0: e821 dbbe 2089 aa3e 3126 31be 59db 36bf
000002b0: 91ca d3be b0ef 073f b819 a4bc 2259 ecbe
000002c0: 0e21 353d 908e 12bf 8565 01be 4eb8 b23e
000002d0: c55f bfbd 8fae 1fbf bd14 083f 5ec7 db3d
000002e0: 93dc 67be 5e22 d1ba f5d1 903e a13c d7bd
000002f0: 7ed7 c63e cae1 843e 8d9e 8d3b 1285 c23e
00000300: 472b 813e 371f 0c3f 49ca fb3e 2f19 8c3d
00000310: ff91 b2be 0ce4 0ebf ef8b 243d 94a0 76be
00000320: 8885 af3e e75f 013f 1ba8 5b3e f834 fbbe
00000330: e11a 913e 8f95 ac3e 2694 3dbe 974c 96bd
00000340: fc56 28be dcee cc3e dd66 1dbe ed79 573e
00000350: c815 503e 82cf 593e 02b0 a13e daff 3c3e
00000360: 80da 9fbe 300e cf3e 1bc7 f2be 7b7a 0a3e
00000370: 98ff fbbd e217 fbbe f062 26bf a8a7 92be
00000380: 08ad 1a3f d6ad 7fbe 31a9 43bf b0bd 08be
00000390: f074 28be 174b fd3e 512c a83e f404 0fbe
000003a0: 27c0 513d 193f 1ebe a010 84be f95f 933e
000003b0: 5d5f b7be f6e2 88bd 49c9 92bd b551 f3bd
000003c0: be98 94be c222 1f3e 6a7f ba3e 79b8 803e
000003d0: cab6 a83e cce2 dd3e ae8a 50be f7cb 893e
000003e0: 73ce 923e 4831 b83d 0fcc 553e 8498 adbe
000003f0: d09f a3be f450 233e a097 833e 18bf 373d
-0.491816 0.32021183 -0.01684803 0.6269498 -0.52833027 -0.1811578 0.44249883 0.35574698
-0.34032744 -0.043101046 -0.32481387 0.4611209 0.48873404 -0.24583563 0.109435186 -0.32974246
0.051946543 -0.012441601 -0.2974415 0.14555219 -0.29729754 -0.08421738 0.34541667 0.38613597
0.08846191 0.60421574 0.8975743 -0.57745314 -0.5799338 0.24116017 0.26458755 -0.079001784
0.040402785 0.45439908 0.5612112 -0.22369401 -0.42636096 0.17453131 0.06135743 0.49067476
-0.21746896 0.022623189 0.38368315 -0.97140855 -0.040540706 0.008920116 -0.41072154 0.12744053
0.12297899 0.0056191157 0.4581356 0.18125966 0.5481369 -0.18283205 -0.42264828 -0.14947689
-0.80515844 -0.22640862 -0.06145797 -0.35078382 0.13187425 -0.16904393 0.18890911 0.5765627
0.24928105 0.33678985 -0.19516993 -0.39096877 -0.07513325 0.1735751 -0.13176371 -0.044606946
-0.071996406 0.053128533 0.13852361 -0.30595565 0.10389661 -0.45648247 -0.52401125 0.12208715
0.13287398 0.12987266 0.078625835 0.0151186315 0.4124646 0.30610886 -0.3666093 0.19964147
0.59977573 0.4885104 -0.47909814 0.21754217 0.25649923 0.16278747 0.5006091 -0.00021217413
0.087493524 0.031684823 0.3329326 0.36653015 -0.22256936 -0.09746026 0.38882288 0.1361748
0.47113025 -0.094898455 0.030587891 0.003150112 0.27887493 0.1373196 -0.50307643 -0.092386715
0.85573345 0.21012397 -0.21443234 0.050839778 0.5755873 0.10468972 -0.19177403 0.34203768
0.009363425 -0.024346212 0.696437 0.27206028 0.3328827 -0.25332224 0.3230635 -0.47443348
-0.76756763 -0.43644443 0.15759079 -0.2910334 0.35745797 0.2984689 0.3226045 -0.18648069
0.18883029 -0.037644364 -0.7554543 0.34234565 0.28237048 0.11602896 0.25877318 -0.046488453
-0.2784489 -0.3052716 0.4314426 -0.112438336 0.4613057 4.6698253e-05 0.124690175 -0.35691598
0.6130506 0.26497668 -0.20799947 0.16256234 0.67239994 -0.014573269 -0.13909906 0.16387433
0.39890072 0.020844882 -0.15314572 0.29091817 -0.05300084 0.48128852 -0.2559982 0.20958023
-0.42799306 0.33307743 -0.17299725 -0.7142845 -0.41365483 0.5310011 -0.020031795 -0.46161753
0.044220977 -0.57248783 -0.12636383 0.34906238 -0.093444385 -0.6237573 0.53156644 0.10731386
-0.22642736 -0.0015955677 0.28285185 -0.10509611 0.38836282 0.25953513 0.0043218792 0.3799215
0.2522833 0.5473513 0.4917777 0.06840741 -0.3487701 -0.5581672 0.040172514 -0.24084693
0.34281564 0.5053696 0.21450846 -0.4906385 0.2834082 0.33707854 -0.18513545 -0.07338827
-0.16439432 0.40025985 -0.1537127 0.21042605 0.20320809 0.21270564 0.31579596 0.18456975
-0.3122139 0.40440512 -0.4741753 0.13523285 -0.1230461 -0.4904166 -0.64994717 -0.28643537
0.60420275 -0.24968657 -0.7643004 -0.1335361 -0.16450858 0.49471352 0.3284631 -0.13966733
0.05120864 -0.15453757 -0.25793934 0.2878416 -0.35814944 -0.06683914 -0.07167298 -0.11880819
-0.29022783 0.15540603 0.36425334 0.2514074 0.32951957 0.43337095 -0.20365402 0.26913425
0.28673133 0.08993775 0.20878623 -0.33905423 -0.31957865 0.1594885 0.25701618 0.044859976

model.1.running_var f4 [256]
00000000: 7d78 c03b 5a0d e73b 5ff0 e33b fdad 123c
00000010: 82ab 043c 5518 513c fc8e e13b 6ca3 963c
00000020: 44f4 d93b 2bcb b53b 3910 293c 3da2 7a3c
00000030: e31d 853c 1f8b 603c 0d02 323c 8792 043b
00000040: 2a91 053c 3779 bf3b 4ec2 b73c 78ad c53b
00000050: 71a6 293c 0b60 7f3c ccf9 163c 148a 8e3c
00000060: 3dbc 463c 75e0 193c 3236 813c 7d8f 123c
00000070: 0397 233c 6427 453c c00c 9f3b c94e 093c
00000080: 5e6d e43b 4d76 143c a5b2 b73c 7883 163c
00000090: f1c5 0d3c 827e d43b 1e01 833c 8d37 1d3c
000000a0: 38ff 1c3c cf36 4f3c aab2 243c 0667 3a3c
000000b0: 1a09 0b3c 89cb fa3b d2cc 373c b01b 5c3c
000000c0: e0f6 d43b f23c a43b cb02 b63b 9c03 0a3c
000000d0: 0481 633c 021b 663c e331 673c 7167 3e3c
000000e0: d873 2f3c 28d0 b83b fc70 2e3c b19e 233c
000000f0: 1ac3 383c 608d ce3b 8986 073c e129 073c
00000100: 6106 2b3c 3c38 973b 68bb b83b 374d c23b
00000110: 4a3a bb3b 44de 423c 1b58 0a3c e93a 4c3c
00000120: 1be5 863b 19b1 763b f918 133c 097b aa3b
00000130: 652a 9e3c 9730 eb3b c94f 7d3c 6fea 8d3b
00000140: aee6 f23b 0327 cb3b 199a f03b a189 5d3b
00000150: 59d2 283c 42c1 3a3c 55ff 7a3c ecf0 0a3c
00000160: ab43 a83b 48ac bd3c b47b 0d3c 6d01 223c
00000170: 326b f43b 0a4a 7c3c a316 133c 7919 f03b
00000180: 82f4 643c 7a0a 0e3c d553 c43b ac2b 1d3c
00000190: 60cc 8d3c 50ea c93c d1f8 033c 8ad6 b13b
000001a0: 5e4b bc3b 7190 793c a526 0d3c ffc6 e43b
000001b0: 3b94 5c3c 47d3 343c a887 5b3c 809f 113c
000001c0: d19c 2d3c 5fe6 573c 0b6b df3b db49 2c3c
000001d0: 6c72 2d3c 4157 043c 2057 3b3c 0bbe 543c
000001e0: 69c5 013c bcd3 a93c fa4c 3c3c fab0 6b3c
000001f0: b4af 453c f4b3 093d 3938 233c 1c14 1b3c
00000200: fdca 4a3c d27a ab3c 2bc1 283c 7fcc a03b
00000210: bca6 323c 7683 b13b 44eb 473c 6f2a 7b3c
00000220: 787e fb3b aa51 493c 3ea3 7f3c 3350 ec3b
00000230: d3e9 023c b53a 0e3c c2e8 1f3c a20f e63b
00000240: dc0b ef3b 0eec ed3b fc6f 8e3b 442a bf3b
00000250: 3cf8 de3b a046 013c 799e e63b ce56 763c
00000260: 25cb f73b c29a ea3b 6852 1f3c 58bd f13b
00000270: 84ae 573c 57e4 823c a9d7 713b 3b6d 003c
00000280: e818 cf3b 3771 6b3c f4fe 2b3c 4e5a 533c
00000290: 4a82 863c 732c 243c 155e 073c 7598 313c
000002a0: 6c61 4c3c 3c20 4a3c f41f 093c 664c f43b
000002b0: 9056 0e3c 6503 6d3c 05bb ef3c 35a4 263c
000002c0: c43f 0f3c fdc5 0c3c 63f3 af3b 7801 b93b
000002d0: 2f7a 1f3c 6344 0a3c f5cc 073c 7a73 7e3c
000002e0: 28ef 013c bd39 503c c66c ef3b 017d 133c
000002f0: 3015 3f3c 3e8e 943c cca9 cd3b dc90 0b3c
00000300: 0ba6 773c 42db 2d3c 567d d33b 118b 103c
00000310: 6ca3 5d3c 22af f93b 7f18 bf3c 69c3 003c
00000320: a98d 553c 1092 b33c 3fcd 683c d170 993c
00000330: e7ea ec3b fa4b cd3b c448 bc3b eecd b53c
00000340: f9b6 8e3c cf29 da3b 2ab1 2b3c b3ef c43b
00000350: 3923 4a3c aa31 833b 1f7c 5f3c 0a72 183c
00000360: a17f 2b3c 5b5a 4c3c ee9c 903c d55a 193c
00000370: a95e 143c b198 ae3b 439d a03b 731c 253c
00000380: c5c2 f63b 064e 383c baaf 363c 6a98 0e3c
00000390: 7805 e13b 150c 963b aa9c fa3b e5b0 473c
000003a0: 49be 4c3c 7d7d b03c 0bf7 633c 17b7 793c
000003b0: 3469 c13c 9233 2e3c d1bf d63b b27a 383c
000003c0: 9bea 6f3c aaf1 963c ed42 da3b 8e9e ef3b
000003d0: 3f5e bc3c c8ea 293c 98d9 ed3b 52fc 013c
000003e0: 6efc 5d3c ded3 193c 0676 f83b d4f8 d53b
000003f0: 5786 783c 5be1 9a3b 92aa 433c 92be e93b
0.0058737383 0.007051152 0.0069561447 0.008952615 0.008097531 0.012762149 0.0068835 0.018388472
0.006651433 0.005547901 0.010318809 0.01529747 0.016249603 0.013705044 0.010864747 0.0020228939
0.008152286 0.0058433074 0.022431519 0.006032642 0.010354624 0.015586863 0.00921483 0.017399825
0.01212984 0.009391894 0.015772913 0.008945343 0.0099847345 0.012033317 0.004853815 0.0083806
0.0069710454 0.009061408 0.022424052 0.009186618 0.00865315 0.0064848075 0.015991744 0.009595764
0.009582333 0.012647345 0.010052362 0.011377102 0.008486057 0.007653658 0.011218267 0.013434336
0.0064991564 0.005012148 0.005554532 0.008423712 0.01388574 0.014044525 0.014111015 0.011621342
0.010708772 0.0056400485 0.010647055 0.009986565 0.011276985 0.0063034743 0.008271822 0.008249731
0.010438533 0.004614858 0.005637575 0.005929615 0.0057137357 0.011893813 0.008443858 0.012465217
0.004116667 0.003764218 0.008978122 0.005202655 0.019307325 0.007177423 0.015460917 0.004330925
0.007412753 0.006199719 0.0073425886 0.0033803957 0.010304057 0.011398615 0.015319665 0.008480292
0.00513502 0.02315344 0.00863545 0.009888035 0.0074590677 0.015398512 0.008977565 0.0073272553
0.013974311 0.00866949 0.005991439 0.009592932 0.017309368 0.024647862 0.008054928 0.0054271864
0.005746289 0.015232191 0.008615171 0.00698173 0.013463075 0.011036701 0.013399042 0.008888125
0.01059647 0.013177483 0.0068181804 0.010515655 0.010586362 0.008077444 0.011434346 0.012984763
0.007920601 0.020730846 0.011492962 0.014385456 0.012065817 0.033618882 0.009962135 0.009465244
0.012377498 0.020932589 0.010299961 0.0049071903 0.01090401 0.0054172827 0.012202088 0.015329941
0.0076749884 0.012287537 0.015602885 0.007211709 0.007990318 0.008680989 0.009760084 0.0070209065
0.007295115 0.007260806 0.0043468457 0.005833896 0.006804494 0.0078903735 0.0070379344 0.015035344
0.0075620585 0.007159562 0.009724237 0.007377308 0.013164166 0.015978022 0.0036902225 0.007838543
0.0063201077 0.014370254 0.010497797 0.012899948 0.016419549 0.010020363 0.008262177 0.010839571
0.012474399 0.012336787 0.008369435 0.0074553965 0.00868763 0.014466141 0.029263983 0.010170986
0.00874323 0.008592126 0.00536959 0.005645927 0.009733721 0.008439156 0.008288612 0.015530461
0.007930554 0.012709078 0.007306668 0.009001971 0.011662766 0.018134233 0.006276345 0.008518424
0.015115271 0.010611357 0.00645415 0.0088222185 0.013527732 0.0076197544 0.02332711 0.007859089
0.013034263 0.021920234 0.014209091 0.018730553 0.007230151 0.0062651606 0.005745979 0.022192921
0.017421233 0.006657816 0.010479251 0.0060100197 0.012337499 0.004003723 0.013640433 0.009304533
0.010467441 0.012472714 0.017652955 0.009360035 0.009055772 0.005328261 0.0049015596 0.010077584
0.0075305426 0.011249071 0.011150295 0.0087033305 0.006867107 0.004579077 0.0076480703 0.012188171
0.012496539 0.021544212 0.01391388 0.015241406 0.023609735 0.0106324125 0.006553628 0.011259722
0.014643337 0.018425781 0.00666081 0.0073126024 0.022994159 0.010370918 0.007258605 0.007933693
0.013548953 0.009388892 0.007582429 0.0065299068 0.015168748 0.0047265715 0.011942523 0.0071333135

model.3.weight f4 [128, 256]
00000000: 7b01 0dbc 9f7e 273d 031a 9cbd e6a7 e1bc
00000010: f0cb 3fbc 4c3c 50bd a810 1a39 e286 29bb
00000020: 967b 623c 4c54 e5bc 40f7 203c c09a a339
00000030: f926 89bd 51b1 4cbc b450 213c 17e7 f93c
00000040: 95ec 1dbc 78f8 92bd ba78 593b 37ff 633c
00000050: faef 44bc bcdf 99bd 656d 9a3c 8dd0 3bbd
00000060: 2520 13bd 4281 56bd e423 07bd 688f d2bc
00000070: 1dc9 c23c 1566 afbc 5524 5cbd da48 fabc
00000080: ab0a 1a3d 2e74 05ba cb0c 55bd 9761 973b
00000090: 9b10 2ebd e54f 173b 9bfd 373d e3a7 6f3c
000000a0: 6d9d 18bd 7b0d 99bd 5301 d33c fabc 843c
000000b0: 66d5 56bd f260 3ebd f3d1 67bd 0d3f 2cbd
000000c0: 4e6d c7bd 00cd 263c b51a 20bc abb7 363c
000000d0: 7722 7a3c 9954 303d cecc f03c 6c85 3e3d
000000e0: c51e 13bd 42a5 55bd c3dd 82bd 0a22 46bc
000000f0: cd65 253c 84ad 12bb f29d 5cbd c11f 1fbc
00000100: aa88 263d fc51 bd3d 0feb c0bc 51d5 98bc
00000110: 40b8 383d 88f0 60bd 4b24 113d a7c9 a13c
00000120: 26dc 81bb 8391 c63c f85a 92bc 4676 253d
00000130: ff46 cabd 2621 3fba 95fa 8dbd c54e 78bb
00000140: d66b 863d 1e0a 0d3d 02aa 61bd 7691 a4bd
00000150: 2827 71bd fcac c0bc 643b 993c a25f 893b
00000160: 11e2 02bc 8520 e3bc da7e fdbc edd4 e43c
00000170: 8956 5bbd 9023 63bd 482e d5bc 8f77 87bd
00000180: c90e bfbc ecfb 083d 063d e2bc 88ce c8bc
00000190: f62c b5bc 13f4 dfbc a463 ee3c 6bbd e63c
000001a0: be88 9abd 504a 65bd 6766 8d3d fb22 adbd
000001b0: 23ce 77bd 3806 a4bd 9a44 543d b67d 86bd
000001c0: b585 0dbd cab5 e2bc 47b7 583c 7ad0 883d
000001d0: 1c7d b43c bf9f 41bd 7ded dd3c 5620 45bd
000001e0: a0b6 68bd 1786 8dbd 08c0 fbbc ed9b 0fbd
000001f0: d60a dcbc 7a83 90bc de72 7cbd a24f 9c3d
00000200: 6c4a 0aba 619d 8bbc 8d3d 9e3d 1aa3 7dbd
00000210: 6272 a63c fe47 763d b906 d43c abd3 5e3c
00000220: e7ba 0b3d a0af 0d3d 19a0 19bb 865b 5c3d
00000230: 1f88 f53c 8617 98bd f137 90bd 09eb f1bc
00000240: 476c 243c b60b 5c3c 63db 8f3d b4ed 9d3c
00000250: e473 453d 19b5 9bbc 3cd3 6f3d 356d 26bd
00000260: 03be 4bbd 2b80 83bd 7ce9 85bd 84cf 6dbd
00000270: ee97 57bd 669a cfbc c4a3 22ba 9626 7bbd
00000280: 6cfb 5cbd 6b38 88bd 4077 5cbd 43d1 b2bc
00000290: 4f3e 09bc 50e9 a5bd c739 f4bc 29b0 1cbd
000002a0: c8c3 753d a1fe 073c 2760 063d a2ff 32bc
000002b0: dc45 633d 7ccc 1fbd 8081 acbd 1f52 c7bb
000002c0: 9619 373d c060 7c3d 1e5f 813d 9568 933c
000002d0: 6403 423c 239e 90bc 9f0b ffbc f946 df3b
000002e0: a7e7 bfbd 0534 a4bd 4cb9 093d ca64 563d
000002f0: 0730 5cbd cdbc c33b fb37 e93c 9cf5 a7bc
00000300: 37fe 22bd 4c4a 5dbb 2a5a 30bc d21e 3c3d
00000310: bcd5 c5bc 1ae3 cc3c 6a66 a8bb 88a1 793d
00000320: 9caa 37bd 93e9 4fbd f362 a2bd b050 19bd
00000330: b649 1ebd d664 99bc e783 adbd 72d8 23bd
00000340: 0a56 1abd f7bc 3cbd 3aba a9bd e651 ca3c
00000350: 73d7 dbbb 057f 78bd ccd7 b5bc 5732 be3d
00000360: d9af 023d 9bd1 35bd 0a6e 1bbc 6646 45bd
00000370: 8d70 2939 eaab 5a3d 91fb 94bd e40f 493b
00000380: b8b7 84bd e8d2 0c3c 8d34 0cbd 308a cbbb
00000390: fae2 fe3a 1dc2 643d 036b 0d3d e450 e53c
000003a0: 5394 01bd be91 23bd 91e0 643c e9f7 84bd
000003b0: 3ee8 073d 76fd a2bd ab19 8ebd cbf1 863d
000003c0: a0d4 a33c e43e 9abd 2fd9 25bb 2934 1cbd
000003d0: de7f 6fbc 4445 483c ac3c f73b 7229 13bd
000003e0: 363a d0bc 7df8 51bd bc69 86bd b012 703d
000003f0: 88ac d1bc 8315 9b39 2768 d5bb ab7e b1bc
-0.00860631 0.04089224 -0.07622149 -0.02754588 -0.011706337 -0.050838754 0.0001469279 -0.002586775
0.0138234105 -0.027994297 0.009824574 0.0003120508 -0.066968866 -0.012493447 0.009845901 0.0305057
-0.009638925 -0.07176298 0.003318353 0.013915828 -0.0120201055 -0.07513377 0.018850992 -0.045853186
-0.035919327 -0.052369364 -0.032993212 -0.025703147 0.023777539 -0.021410981 -0.053745586 -0.030552316
0.03760783 -0.00050908595 -0.052014153 0.004619788 -0.042496305 0.0023088392 0.04491959 0.01462743
-0.037259508 -0.07473274 0.025757467 0.016203392 -0.052449606 -0.046479173 -0.056596708 -0.042052317
-0.09737645 0.010180712 -0.009771992 0.011152188 0.015267006 0.04304943 0.029394533 0.04651396
-0.035918016 -0.052159555 -0.06389954 -0.0120930765 0.010095072 -0.0022381255 -0.053861566 -0.009712161
0.040657677 0.09244153 -0.023549585 -0.018656405 0.04509759 -0.05491689 0.035435002 0.019749476
-0.0039630113 0.024239307 -0.017865643 0.040395997 -0.09876823 -0.0007291011 -0.0693256 -0.0037888747
0.06563537 0.034433477 -0.055093773 -0.08035557 -0.058875233 -0.023519985 0.018705077 0.0041923085
-0.007988469 -0.027725467 -0.030944277 0.027933562 -0.053549323 -0.055453837 -0.026023045 -0.06614601
-0.02332248 0.033443376 -0.027616989 -0.024512544 -0.022116166 -0.027338063 0.029100247 0.028166493
-0.07545613 -0.055979073 0.06904297 -0.084539376 -0.06049932 -0.08008999 0.051823236 -0.06566946
-0.03455134 -0.027674574 0.0132272905 0.06680389 0.022032313 -0.047271486 0.027090782 -0.04812654
-0.05681479 -0.06910341 -0.030731216 -0.03506081 -0.026860636 -0.017640818 -0.061632983 0.07632376
-0.0005275372 -0.017042818 0.07726584 -0.061923124 0.020318214 0.06012725 0.025882112 0.01360027
0.03411379 0.034591317 -0.0023441373 0.05379822 0.029972134 -0.07426362 -0.0704192 -0.029531019
0.010035581 0.0134305265 0.070242666 0.019278385 0.048206225 -0.019007253 0.05855106 -0.04063149
-0.049741756 -0.064209305 -0.06538674 -0.05805923 -0.052635126 -0.025342178 -0.00062042126 -0.061316095
-0.053950712 -0.06651386 -0.053824663 -0.0218283 -0.008376672 -0.081011415 -0.029812707 -0.038253937
0.060001165 0.008300454 0.03280654 -0.010925205 0.055486545 -0.03901337 -0.08423138 -0.0060827876
0.044702135 0.061615705 0.0631697 0.017994205 0.011841629 -0.01765353 -0.031133471 0.0068138805
-0.09370356 -0.080177344 0.03362398 0.052342214 -0.05375674 0.0059734345 0.028469076 -0.020502858
-0.03979322 -0.0033766208 -0.010763684 0.04592783 -0.024149768 0.025010634 -0.005139162 0.060945064
-0.04484044 -0.050759863 -0.07929029 -0.037430465 -0.038644515 -0.01872484 -0.08472424 -0.04000134
-0.03767971 -0.04607865 -0.08287473 0.024697255 -0.006709033 -0.06066801 -0.022197627 0.09286945
0.031905983 -0.04438935 -0.009486685 -0.04816284 0.00016159024 0.053386606 -0.07274545 0.0030679638
-0.06480354 0.008595206 -0.034229804 -0.0062115416 0.0019446306 0.055849183 0.034525882 0.027992673
-0.031635594 -0.039933912 0.013969556 -0.064925976 0.033180468 -0.079585 -0.069384895 0.06589087
0.019998848 -0.07531527 -0.0025306453 -0.03813568 -0.014617888 0.012223545 0.0075450744 -0.035928197
-0.025418382 -0.051262368 -0.06563136 0.05861157 -0.025594965 0.0002957993 -0.00651266 -0.021666845

model.3.bias f4 [128]
00000000: 4375 b0bc fb75 0ebc 5362 62bd 3b11 923c
00000010: 6bf6 5a3d 2a70 52bd 69b8 65bd f85a 58bd
00000020: 7173 503c 56be 3dbc 672a 333d d0ab 76bd
00000030: 82e6 08bb 992e 663d 9526 583d c27d 01bd
00000040: 9258 36bd f0c5 9c3c 79e8 803d 6bcd cf3c
00000050: fd63 a23a 6499 753b 061d 5a3a 14e0 78bd
00000060: 3b4b f0bc b669 fbbc bc7c 10bd a5c2 5cbd
00000070: f62a 01bc 5698 663d a0a3 5dbc 7456 81bc
00000080: 7271 ea3c 36e2 d73a 2645 ddbc 34de 4b3b
00000090: 00b0 423d 0394 6dbc 8b31 9dbc 1029 4fbb
000000a0: 8a37 d9bc 9ffc febc 9f32 6bbd a7fa 1bbd
000000b0: d5de ff3c a169 f63c 28e1 4c3d cacf 30bd
000000c0: bc7d 4fbd 8e78 473d 036e 703d dee4 1f3c
000000d0: 7ba7 503d 0608 1f3c a9fb 6d3d 091a 1cbd
000000e0: 1d9b 7bbd 7180 00bd b0bd 7abd 1912 0a3d
000000f0: b214 59bd 0121 473d 881d 8d3c db77 c63c
00000100: acee 3bbc 3cee 043d e560 13bc 7c09 35bd
00000110: ab77 46bd 1221 313b 5cb9 40bd fa9b 72bd
00000120: 40a2 00bd 8142 11bd 5853 59bc 0fdc 613d
00000130: 2851 0d3d f970 813c c92d 1d3d 8017 00bd
00000140: 0b8f d9bb 8b68 7b3c 2d9b 2bbd 3cb9 fbbc
00000150: 7931 7f3d 56ce bfbb e644 bebc c249 5cbd
00000160: a629 aebb be64 453d 87ea 21bd ccb6 d2bc
00000170: 7738 67bc 626a 91bc 1f29 403d 8e6f 3cbd
00000180: 4516 703d 6e05 1c3d 31f8 dc3c 71b3 213d
00000190: ca1a 86bb d822 0c3b 355a 033d 0f68 cb3c
000001a0: b197 193d e94a 5a3d 363b 25bd adf2 053d
000001b0: c445 69bc a556 3bbd f269 27bd b666 013d
000001c0: f76d 4dbd 6771 6a3d 1eb5 4cbd 6c4b 4ebb
000001d0: ef81 09bd 3d18 cdbc dc45 c3bb fb17 0cbd
000001e0: 3092 ea3b 1dff 043c c964 1e3d 4b5c b53c
000001f0: 67c3 e93c 26ea 21bc c106 5fbd 1ad8 09bc
-0.02154029 -0.008695121 -0.05526955 0.017830482 0.05345766 -0.0513765 -0.05608407 -0.05282113
0.012722836 -0.011581024 0.04374161 -0.060222447 -0.0020889346 0.056196783 0.05277117 -0.031614073
-0.04451806 0.019137353 0.06294341 0.025366506 0.0012389418 0.003747546 0.0008320365 -0.060760573
-0.029332748 -0.030690055 -0.035275206 -0.053896565 -0.007883778 0.056297623 -0.013527781 -0.015788294
0.028618548 0.0016470614 -0.027010512 0.0031107785 0.047531128 -0.014500621 -0.019188663 -0.0031610169
-0.02651574 -0.031126318 -0.057421323 -0.038080838 0.031234184 0.030079665 0.050019413 -0.043166913
-0.05065702 0.048698954 0.058698665 0.009759156 0.05094097 0.009706503 0.05810133 -0.038110767
-0.061427224 -0.03137249 -0.061216056 0.033708666 -0.052998252 0.04861546 0.017225996 0.024227073
-0.011470478 0.03245376 -0.008995269 -0.044198498 -0.048453968 0.0027027768 -0.047051772 -0.059230782
-0.031404734 -0.035463814 -0.0132645 0.055141505 0.034501225 0.01580094 0.038373742 -0.03127241
-0.0066393665 0.015344749 -0.041896034 -0.030727975 0.06230304 -0.0058534546 -0.023226213 -0.05378128
-0.0053150235 0.04819178 -0.039530303 -0.02572193 -0.014112583 -0.017750923 0.046914216 -0.046004824
0.058614988 0.038091116 0.026973816 0.03947777 -0.004092549 0.0021383073 0.03206845 0.024829892
0.03749818 0.053294096 -0.04033967 0.032702137 -0.014237825 -0.045736928 -0.04087252 0.031592093
-0.0501537 0.057237055 -0.049977414 -0.003147806 -0.03357118 -0.025035972 -0.0059592556 -0.034202557
0.00715854 0.008117464 0.038670335 0.022138735 0.028535558 -0.0098824855 -0.0544498 -0.008413339

model.4.weight f4 [128]
00000000: f506 853f fd8c 853f e45b 873f 55b1 7c3f
00000010: df8c 843f 7b59 853f 6326 823f fcf4 863f
00000020: 10f4 833f 9d09 863f db7e 843f c37c 853f
00000030: 3612 843f 22e7 843f d43d 843f 3354 853f
00000040: e982 7d3f a64f 843f 359d 843f 0530 863f
00000050: 3b80 7d3f 6370 843f 48e7 7d3f 12e0 7d3f
00000060: 6bb7 843f dd3c 843f 42b9 843f 0b46 7d3f
00000070: 98e0 853f 66f8 7e3f ca1a 873f 79b8 813f
00000080: 58ed 843f 6408 843f f6d3 7d3f 4490 7e3f
00000090: 2389 853f 6819 843f 41fa 833f 6946 803f
000000a0: fe00 863f c9a2 843f c94a 863f 6410 853f
000000b0: dd7c 7f3f 4331 853f ada3 843f 574d 7e3f
000000c0: 19da 853f 761e 863f ce25 863f 1da0 813f
000000d0: 4267 823f 0605 803f 4ac2 7d3f 91a6 853f
000000e0: 708d 843f 0ee7 7f3f d5b9 7f3f 292a 7d3f
000000f0: a748 853f 4432 833f daa7 7c3f 3e83 813f
00000100: 68be 823f 428d 853f 606a 7d3f 7183 863f
00000110: 22b3 813f 7e9b 863f 7c0e 7e3f 512f 853f
00000120: 7ae1 853f 9a6a 843f a547 863f 78a8 833f
00000130: 2ea4 863f a336 7d3f 79a5 863f c8c9 853f
00000140: f6e0 853f 83d8 853f 7e78 7f3f 27db 853f
00000150: b960 843f 810d 833f 483e 843f 9ec3 853f
00000160: bdfe 7c3f ed26 853f 99b6 7d3f 5f49 853f
00000170: 5eb9 833f e7ab 7c3f a4f8 863f e223 843f
00000180: c231 7d3f d6f9 7c3f 45c0 853f b6aa 883f
00000190: f16b 7d3f b521 843f 6a30 843f 74be 833f
000001a0: 0130 7e3f 83cb 863f a36f 7d3f 88a2 813f
000001b0: cc63 7e3f 8b67 843f 9f7a 853f fc3b 7d3f
000001c0: b0ed 843f f02a 873f 1964 843f 7c0f 853f
000001d0: 99bf 823f d757 863f 7e32 873f 9f37 7c3f
000001e0: 4aa8 7f3f 6636 863f a52d 853f 4d93 803f
000001f0: 7da0 7d3f d902 853f 9fe5 803f 338b 7d3f
1.0392748 1.0433651 1.0574918 0.9870809 1.035549 1.0417932 1.0167965 1.0543513
1.0308857 1.0471684 1.0351213 1.0428699 1.0318058 1.0383036 1.0331368 1.041632
0.9902788 1.0336807 1.0360476 1.0483404 0.9902379 1.0346798 0.9918103 0.9917003
1.0368475 1.0331074 1.0369036 0.98935 1.0459166 0.99597776 1.055505 1.0134422
1.0384932 1.0315061 0.9915155 0.9943888 1.0432476 1.0320253 1.0310746 1.0021487
1.0469053 1.0362178 1.0491573 1.0395627 0.997999 1.0405658 1.036245 0.9933676
1.0457183 1.0478046 1.0480287 1.0126988 1.0187762 1.0001533 0.99124587 1.0441457
1.0355663 0.99961936 0.9989293 0.98892456 1.0412797 1.0249715 0.9869362 1.0118177
1.0214357 1.0433733 0.9899044 1.0508863 1.0132792 1.0516202 0.9924085 1.0405065
1.0459435 1.0345032 1.0490614 1.0285788 1.0518854 0.98911494 1.0519248 1.0452204
1.0459278 1.0456699 0.9979323 1.0457505 1.0342017 1.0238496 1.0331507 1.0450323
0.988262 1.0402504 0.99106747 1.0413016 1.0290945 0.986998 1.0544629 1.032345
0.9890405 0.9881872 1.0449301 1.0677097 0.9899283 1.0322787 1.0327275 1.0292497
0.99292 1.0530857 0.9899847 1.0127726 0.9937103 1.0344099 1.0428046 0.98919654
1.0385036 1.0559978 1.0343047 1.039535 1.0214721 1.0495557 1.0562284 0.9852237
0.99866164 1.0485351 1.0404555 1.0044953 0.9907301 1.0391494 1.0070075 0.99040526
