models/models_trained/Q235B-Z/stove1#0x0.pth (torch, 166767 bytes, 14 tensors)

model.0.weight f4 [256, 20]
00000000: a86e dabd df68 323d 7c0c 073e 5457 0cbe
00000010: 311c 9d3c 088e 45be 4b98 55be 08aa 65be
00000020: 24c5 083e 5c46 c5bd 2016 b6bd 1a77 5bbe
00000030: 123c 073e 3804 153e e5e2 2f3e 3c8f d63d
00000040: 4a40 3f3e 5a20 c7bd 6210 633e 57dc d5bc
00000050: 67df ce3d 2bd3 0a3c d591 17be 41e3 40be
00000060: d688 47be b19c 263e b041 463e 46c4 ddbd
00000070: 7003 293e 19d0 8e3c 48b3 283e d44b 633d
00000080: b093 0b3e e6f7 fabd c288 0b3d e873 763e
00000090: f525 c43d a3d7 e23d 7bdf fabd 3a0d 5b3e
000000a0: 3127 15be f266 0bbd 1a49 0a3e 9aaa 163e
000000b0: 2eee 273e 00af 56be 5cb5 25be 0c43 313e
000000c0: 084a b13d 2e86 0abe 9814 173d 0e65 9abd
000000d0: 762d 0fbe 727a 6f3d 1dd8 bdbd 12df fabd
000000e0: d8de cc3d 9758 333e 559f da3d 62e8 303e
000000f0: c598 243e 7ebd ea3d 2c9f 2ebd 4f1f 40be
00000100: 7933 183e fa2b 5ebc e1b4 40be 2d5f 143d
00000110: 2a96 58bd ae41 04bc 3988 563e 5961 fd3d
00000120: ce25 d03d f345 1a3e b88f a9bd 8fd7 cc3d
00000130: 3b44 433d decc f5bd 0589 473e ad2d 5fbe
00000140: c5d9 fa3d 1690 68be 804e 5bbe 213c 453d
00000150: 4062 293e 7a72 413d 2204 b8bc 5974 58bd
00000160: 9610 fc3d ab43 16be 039b dbbc 471e 3abe
00000170: 55be 0a3d ed1e e33d 9cf8 ed3d 301b 363d
00000180: cf6a 41be 41e2 43bd 7e82 443e 121e 373e
00000190: aed9 ee3c 9d1b 263e 84fe 4bbe 9df9 db3d
000001a0: eac8 81be 690e 42bd 009f 1abe 3ef2 193d
000001b0: 3dfd 8d3d 6110 213e 65af 42be 40d2 4ebe
000001c0: 649e 4b3d 776d aebd f8fa a9bc d2fa ef3c
000001d0: bf21 50be 2cd9 23be b80e 83bc a48f 343e
000001e0: 1b49 9bbd fa26 153e 3184 633e dee7 263e
000001f0: 0b1a 303e 4e28 12bc 88b5 a2bd 6ddb 1ebe
00000200: d2cc 52be 9f22 83bd d7bd 1ebd 5f10 093d
00000210: 782d 833d b104 bc39 b864 5dbe 4fc8 003d
00000220: ab49 0ebe dd3c 903e 2561 283e 2862 fb3c
00000230: 11db 573e 6d56 2abe fc2f 25be afa7 223e
00000240: 5da4 c1bc 3ff5 f33d 5e43 5b3e ce8e 3f3e
00000250: a2ed f33d 53fd e93d 12ab 743e 2031 dbbb
00000260: 2e28 c23d 4f99 05be 20a0 66bb e429 9c3d
00000270: e83d e33d b997 50be 2cf2 fcbd 63c5 83bb
00000280: 38a2 383d 1af6 283d 7cc1 c53d 47dc e2bd
00000290: f41e 55be d752 d5bc 65ba bcbb c87e db3d
000002a0: e733 723d d707 e7bc cc0e 18bc 3daa 5bbe
000002b0: d148 3cbe cd21 233d 3554 02be 04dd 373e
000002c0: 5220 063e 4cac a93d 1966 f33d ef0e 36be
000002d0: d571 c53d 6a7a 123e 3228 1e3e 1f67 4bbd
000002e0: 39aa 663e 0291 18bd 9090 a6bc 8b10 373e
000002f0: 13e6 583e 9231 dbbc de26 7ebd 1c25 203e
00000300: 3921 713e 0c3e 53be 1b5f c33c 82fe 30bd
00000310: 4f3f 8e3c 0bde 6a3d 4cce 17be 213b 19be
00000320: f75e d93c bf62 bf3d b9dc 0abd 1503 7d3e
00000330: af66 743d de2f 60be a962 3e3e 8d68 4cbe
00000340: 0d3c 0f3d 2497 fa3d bfd4 4d3c 24b9 163e
00000350: 7d8b f4bd b474 ffbd 97a3 5c3d a598 2a3e
00000360: ae01 aabd 3d72 3d3e d3b2 d03d bf5c ab3d
00000370: 5d9e fdbc 790c 84bc d620 963c be08 8e3d
00000380: 9242 9f3d b7dd 22be e54c 0cbe 6b0b fc3d
00000390: a644 0b3e 5c16 dabd 896b 5b3d 0aca 31be
000003a0: b8e4 d4bd c14e 94bd c206 86bd 0c12 163e
000003b0: 5833 39be 0ece bd3d 16f9 d03c 0eb5 5ebe
000003c0: f286 6fbe ec5e b73d 4f82 6d3d 6137 80ba
000003d0: de29 a83d 340a 463e 0f64 523d b2a7 513e
000003e0: dd11 12be 0987 7bbd 5411 81bc 4b8e e73d
000003f0: dc4f 603e a83e 64be 13a1 d4bd 6ad6 573e
-0.10665637 0.043557044 0.13188356 -0.13705188 0.019178482 -0.19292462 -0.20858876 -0.22428143
0.13356453 -0.096325606 -0.08890939 -0.21432152 0.13206509 0.1455239 0.17176397 0.104765385
0.18676868 -0.097229674 0.22174218 -0.026106043 0.10101204 0.008473198 -0.14801724 -0.1883669
-0.19485793 0.1627071 0.19360995 -0.10828452 0.16505218 0.017433213 0.1647464 0.055492237
0.13630557 -0.12254314 0.03406597 0.24067652 0.09577552 0.11076286 -0.12249657 0.21391764
-0.14565732 -0.034033723 0.13504449 0.14713517 0.16399452 -0.20965195 -0.16182464 0.17310733
0.086566985 -0.13527748 0.036884874 -0.07538806 -0.13982186 0.058466382 -0.09269736 -0.122495785
0.100034416 0.17514263 0.106749214 0.17276147 0.16073902 0.11461924 -0.042632267 -0.18761943
0.14863385 -0.0135602895 -0.18819 0.03622358 -0.052877583 -0.0080723 0.20950402 0.12372083
0.10163461 0.15065746 -0.08279365 0.10002052 0.04767249 -0.12001966 0.19485863 -0.21794768
0.122485675 -0.22711214 -0.21416664 0.048153047 0.16541386 0.047228314 -0.022462908 -0.052845333
0.12307851 -0.14674251 -0.026807314 -0.18175612 0.03387292 0.11089883 0.11619684 0.04445952
-0.188884 -0.047823194 0.19190404 0.17882565 0.029156532 0.16221471 -0.19921309 0.10740969
-0.25348598 -0.047377024 -0.15099716 0.037584536 0.06933067 0.15728904 -0.1901222 -0.20197392
0.0497116 -0.085169725 -0.020749554 0.029294405 -0.20325373 -0.16000813 -0.01599823 0.1763292
-0.07582303 0.1456565 0.22218396 0.16299388 0.17197435 -0.008920742 -0.079447806 -0.15513392
-0.20585945 -0.06403088 -0.038755264 0.03346288 0.06405157 0.0003586165 -0.21620452 0.03144103
-0.1389529 0.28171435 0.16443308 0.030686453 0.21079661 -0.16634531 -0.16131586 0.15884279
-0.023637945 0.11912011 0.21412417 0.1870682 0.11910559 0.11425271 0.23893383 -0.0066892058
0.0948032 -0.13046764 -0.0035190657 0.076251775 0.11095792 -0.20370378 -0.12350878 -0.004021333
0.04507658 0.041250326 0.09656045 -0.11077171 -0.20812589 -0.026040478 -0.0057595246 0.10717541
0.05913153 -0.02820198 -0.009280872 -0.2145166 -0.18387152 0.039827157 -0.12727435 0.17955405
0.13098267 0.08284816 0.11884708 -0.17779134 0.09640852 0.1430451 0.15445021 -0.04965889
0.22525872 -0.037247665 -0.020332605 0.17877404 0.21181516 -0.026757035 -0.062048785 0.15639156
0.2354783 -0.20629138 0.02384906 -0.043211468 0.017364172 0.057340663 -0.1482479 -0.14963962
0.02653454 0.09345006 -0.033901904 0.24708207 0.05966824 -0.2189326 0.18592323 -0.19961758
0.03496938 0.12235859 0.01256293 0.14719063 -0.11940668 -0.12473431 0.05386695 0.16659792
-0.083011016 0.1850061 0.10190358 0.08367299 -0.030959303 -0.016119229 0.018326204 0.06935261
0.07776369 -0.1590489 -0.13701208 0.12306865 0.13600406 -0.10648796 0.05356935 -0.17362228
-0.10395187 -0.072415836 -0.06544258 0.14655322 -0.18085992 0.092678174 0.025509398 -0.21748754
-0.23391321 0.08953652 0.0579856 -0.0009782129 0.082111105 0.1933983 0.051364955 0.20474127
-0.14264627 -0.061408076 -0.015755333 0.11306437 0.21905464 -0.22289526 -0.10382285 0.21077886

model.0.bias f4 [256]
00000000: 5d30 45bd 64c3 c9bd 46c0 153e 600c d8bd
00000010: 2fc7 b7bc e6d8 04be 3199 5bbd 7424 2b3d
00000020: 5580 d3bd f197 61be 9eb4 e3bd f791 89bd
00000030: c534 33be 4411 b93d f2a8 5abe 6086 35be
00000040: d05f 573e 7eeb b13d dcaf 3b3e 173e 853d
00000050: fade 95bd 6fdf 60bd 3dbc 323d 30fe 5a3e
00000060: 4d5d 283e a810 b2bd d281 453e 0d51 03bd
00000070: da38 fabd 3d6d ecbd 42e7 5e3c 4f10 963d
00000080: dfc8 fd3d 55d3 343d 85a1 f8bc e9db b13d
00000090: 61ad ca3c e4fb c3bd 38e3 053e 2f21 d23d
000000a0: 0652 55be eec2 18be 3343 53be 8884 64bd
000000b0: 93f7 163e 8858 1fbe 15de 10be 965c 14be
000000c0: 318a 48be 53ff bfbb 46ef 233c f7c6 09be
000000d0: 7892 873d 6d51 6abd b0ef 08bd f7a7 e33d
000000e0: 6267 3bbd e16b b33d 2fb8 3cbe 3779 5b3e
000000f0: af67 3c3e 1542 54be 9da6 42be b520 3d3e
00000100: f931 2f3d 0ae8 02be da52 f33d 0508 483e
00000110: 0616 78bb 9033 95bb 0635 943d 2024 19be
00000120: f7a9 54be 56ea 99bd 8e25 0d3e bddb 05be
00000130: 671a 61be 63ab 323c 0f7c e33d 1bb9 873d
00000140: 9551 f4bd 7e50 a1ba 6bbd 3fbe aa33 243c
00000150: 4946 3abe 6498 263e 9812 723d 690b 0dbd
00000160: 44a4 243e 6ced c93d a3cd 383e f1bf 873d
00000170: 839d c7bd eb36 c63d c7b9 2d3d 3a70 1ebd
00000180: fd29 02be 52a1 b5bc 751f 3cbe 7264 393d
00000190: 35f2 4f3d 6d5c 433e 313e 713c 8a17 1e3d
000001a0: a830 383e 91c7 c8bd ba0b ec3d 99c2 2b3c
000001b0: 7b00 a0bd 75d7 c3bc 1075 043e f453 023d
000001c0: 6974 51be 8218 433e 50df 43be 7bd9 8c3c
000001d0: 26eb b63d 4ba6 dfbd 550c 383e b195 0dbd
000001e0: 9097 5a3e 3352 643e af98 8e3d 166c 1f3e
000001f0: 7275 813d 2799 03be 23c4 df3c bbd6 a4bd
00000200: 0535 5dbe c850 d43d d789 18be 0514 64be
00000210: 2906 553e 1936 033e f341 06be b7dd 5cbe
00000220: 5d20 11be c9dc 07bd 1e26 a23d cb0b 94bc
00000230: 7b9a ccbd c908 d0bd 1ccb aebc 14f4 843d
00000240: b309 2f3d 7a49 243e 15b5 2dbe 601f c9bc
00000250: cbcd 893d d5c9 63be 0b43 283d cb13 5bbd
00000260: 573a 50bd 23b6 5d3e a3c9 34bd 6a3c 82bd
00000270: 9689 9bbd ce9a 0ebe 1562 d4bd 2972 5b3d
00000280: 453a eebd 3b41 5b3e 1135 9ebd c8e4 d13d
00000290: d43b c23d fb3e 39be 0167 e8bd 95ab 1e3e
000002a0: 435a 40be 9a3c 1bbe c94e 433c c368 783d
000002b0: 8cdb 29be a357 fa3d 18f6 59bd e63a 6ebc
000002c0: ab11 e2bd 51c6 c73d 05f1 debb 4e53 c13d
000002d0: e612 38be 4c42 41be f605 463e ba34 043e
000002e0: 9466 423e 965f a5bb d2a4 18be cec8 903c
000002f0: 395c 01bd cbb4 383e dbcc e53a 589e 37be
00000300: aae8 5bbe 62fa e9bb 33e0 3b3e 5d04 0ebe
00000310: b8a2 3d3e 7daa 033e aba4 44be f180 233c
00000320: ab6b b83d d2bf 5cbe f006 553e 4c46 0a3e
00000330: ab9e d03d b841 54be 873f a3bc faad 5c3d
00000340: 7d9f b33d 368c 5bbe 9689 8fbc 5fce 8dbc
00000350: 123b 1dbe e30d 853d 707e 3bbb a5bf 863d
00000360: 58fc 38bd 62da db3d 5d78 373e a99c 183e
00000370: f709 bc3d f00b e8bd 5f02 473e 0bd7 fcbd
00000380: 6b0f 733d 8d9d b83c 1323 1a3d 2e67 9f3d
00000390: caa2 34be 67bd 29bd 1e0f d83d 16c5 febd
000003a0: 476e e23d 0cee 363e 64d5 acbd 22dc d2bd
000003b0: a286 b23d 2b53 133e f537 5dbe 01d2 e9bd
000003c0: 7144 df3c 55be 4f3e b91f 9cbd 6522 0c3e
000003d0: 3efd ff3d 5ae8 80bc 9e82 c83d 34f8 23be
000003e0: 6e9e 25bd e362 1abe cb0b 44be fe0a 07bd
000003f0: 01a8 ddbd 6621 33be 05c0 0abd 9fa1 46be
-0.048141826 -0.09851721 0.14624128 -0.10549235 -0.022433845 -0.12973365 -0.05361289 0.04178281
-0.10327212 -0.22030617 -0.11118434 -0.06717294 -0.17500599 0.09036496 -0.2135351 -0.17727041
0.21032643 0.08687495 0.18328804 0.06505983 -0.0731792 -0.054900583 0.04363655 0.21386027
0.16441841 -0.08694583 0.19287804 -0.032059718 -0.12217875 -0.11544273 0.013604941 0.07327329
0.12391829 0.044146854 -0.030350456 0.08684523 0.024740877 -0.09569529 0.13074958 0.102602355
-0.2083207 -0.1491811 -0.20631103 -0.055790454 0.1474288 -0.15561116 -0.14147218 -0.14488444
-0.19583966 -0.0058592944 0.010005778 -0.13454805 0.066197336 -0.05720656 -0.03343171 0.11116021
-0.04575289 0.08760811 -0.18429635 0.21432959 0.18398927 -0.20728333 -0.1900887 0.18469508
0.042772267 -0.12783828 0.11881037 0.19534309 -0.0037854924 -0.004553266 0.07236676 -0.14955187
-0.20767961 -0.07515399 0.13783857 -0.13072105 -0.21982728 0.01090512 0.11107647 0.06627103
-0.11929623 -0.0012307314 -0.18724601 0.010022083 -0.18190874 0.1626907 0.059099764 -0.03443471
0.16078287 0.09859738 0.18047194 0.06628407 -0.0974684 0.096784435 0.0424135 -0.038681246
-0.1271133 -0.02217165 -0.18371375 0.045261808 0.050768096 0.19078226 0.0147243 0.038596667
0.17987311 -0.09803689 0.11525674 0.010483407 -0.07812592 -0.023906449 0.12935281 0.031818345
-0.20454563 0.19052318 -0.19128156 0.017193547 0.0893157 -0.1092039 0.17973454 -0.034566585
0.21346879 0.22296982 0.06962716 0.15568575 0.06321229 -0.12851392 0.027315205 -0.08048769
-0.21602257 0.1036697 -0.14896332 -0.22273262 0.20803131 0.12813605 -0.13111095 -0.21568953
-0.14172502 -0.03316954 0.079174265 -0.01807203 -0.09990402 -0.10157926 -0.021337084 0.06491867
0.04273386 0.16043654 -0.16963609 -0.024551094 0.06728705 -0.22244962 0.041079562 -0.053485673
-0.050836887 0.21651511 -0.04413761 -0.06359179 -0.07594602 -0.13926241 -0.1037027 0.05357567
-0.11632208 0.21411602 -0.07724965 0.10248715 0.094840676 -0.18090431 -0.113477714 0.15495141
-0.18784432 -0.15159836 0.011920639 0.060646784 -0.16587657 0.12223747 -0.05321321 -0.01454041
-0.11038526 0.09754623 -0.006803634 0.09439717 -0.17975959 -0.18872947 0.19338211 0.12910739
0.18984443 -0.005046795 -0.14906624 0.017673876 -0.03158209 0.18037717 0.0017532365 -0.17931497
-0.21475473 -0.0071404437 0.18347244 -0.13868852 0.18519104 0.12858005 -0.19203441 0.0099794725
0.09004911 -0.21557549 0.20803428 0.13503379 0.101865135 -0.20728195 -0.019927753 0.053876854
0.08770654 -0.21440205 -0.01752166 -0.01731032 -0.15354565 0.06496789 -0.0028609298 0.06579522
-0.04516253 0.107350126 0.17917009 0.14903511 0.09181588 -0.11330402 0.19434498 -0.12345704
0.059340876 0.022536064 0.037631106 0.07783352 -0.17640224 -0.041440394 0.105497584 -0.12439935
0.1105619 0.17864245 -0.084391385 -0.10295893 0.087170854 0.14387195 -0.21603377 -0.11417008
0.027254315 0.2028745 -0.07623238 0.13684995 0.12499474 -0.015735794 0.09790538 -0.1601265
-0.040434293 -0.15076785 -0.19145124 -0.032969467 -0.1082306 -0.17493209 -0.03387453 -0.19397591

model.1.weight f4 [256]
00000000: 1330 823f fe01 863f dbe6 843f 1144 833f
00000010: 5d0c 833f 299e 863f c5f1 853f de88 853f
00000020: 2964 803f b6f2 863f c42d 833f ea9d 813f
00000030: 8bec 833f 6b2f 813f 2edf 853f cd89 843f
00000040: 0b32 833f a01b 823f 1724 843f d40f 7f3f
00000050: 206f 833f c5f5 823f f8cf 863f bb9a 863f
00000060: 3f95 853f 1bc8 833f ce1f 893f 17ac 853f
00000070: be79 833f 2db7 823f 140d 873f 83a8 853f
00000080: ba5e 863f ecfe 843f 4cc4 833f a99d 823f
00000090: 3b86 813f 1af1 853f 1f27 823f 4e03 863f
000000a0: 0b3f 853f 2271 813f 206d 823f 0d78 813f
000000b0: e198 833f ac53 863f 6b95 863f d728 833f
000000c0: 936e 833f e1b8 833f 141d 833f 8549 833f
000000d0: 61d1 833f a636 833f 2f86 833f 03d0 893f
000000e0: b304 833f c085 823f 6502 853f 768d 843f
000000f0: b67f 853f f8b4 823f 203b 833f f57d 823f
00000100: 6a9e 833f 29ff 803f 9935 843f 1526 853f
00000110: 839f 853f b211 863f e5fb 833f 7067 843f
00000120: 4cd0 823f ad96 833f 61a2 833f d8f6 803f
00000130: a69d 843f 51f1 823f 137e 843f 984a 813f
00000140: e136 873f 5bd5 803f e186 843f ee7d 833f
00000150: 4b6b 833f 34e3 883f b330 883f 95f9 843f
00000160: c390 833f 9f40 8a3f d37e 843f d7da 813f
00000170: 2c3f 843f 909c 843f c100 843f e8ed 833f
00000180: 98fe 823f f078 803f 963f 833f c09d 843f
00000190: 6afc 823f 7eb5 813f ff99 8b3f d44a 853f
000001a0: 8b74 813f f2a5 803f 8545 823f cd15 843f
000001b0: bd47 843f 5d97 813f 2062 823f 1339 833f
000001c0: 8400 893f 746e 803f b695 823f a5df 813f
000001d0: db06 843f e5af 833f a143 863f fc9c 853f
000001e0: e094 843f 9d77 853f 6d4f 843f afa8 843f
000001f0: 90e6 833f f951 833f 97ef 863f 259d 853f
00000200: dd83 813f c588 873f a046 873f a788 833f
00000210: 0763 873f 1e53 843f a41a 863f 2cf2 823f
00000220: 1dd9 833f 5af4 813f 20e8 833f ab3e 853f
00000230: b9a6 823f 1c07 8a3f 79dd 883f e4ac 823f
00000240: 6f33 853f 0ee7 853f fcdc 823f d0e0 843f
00000250: cb95 813f 9757 813f a4f3 843f ec68 873f
00000260: a154 7f3f 9ab0 873f 59dd 833f 7d01 853f
00000270: fd4d 813f 04d0 823f a2f0 843f 8c9d 863f
00000280: ad00 843f 0451 843f b93d 823f 6643 823f
00000290: b24f 823f 3e6e 843f 2b43 843f ce21 853f
000002a0: a96c 833f b25d 853f f9ba 833f 2bc4 803f
000002b0: 8f5f 823f c3b3 823f 6574 833f 64a4 843f
000002c0: 36b0 823f c173 823f f17b 833f 2861 843f
000002d0: b96f 843f b413 833f d779 843f debb 803f
000002e0: 7914 823f c5b5 833f 2cdc 843f bcf3 853f
000002f0: 5d38 873f 212b 843f 5b9e 823f 9a89 863f
00000300: f249 853f b55d 883f dc71 833f 5b57 813f
00000310: 680d 853f 148e 823f b359 843f 504b 863f
00000320: b268 853f ec27 893f 332a 823f ac33 853f
00000330: 922a 853f 3772 7f3f 787d 853f 9ac7 873f
00000340: 356d 863f 3779 8a3f a8d4 843f 01bf 843f
00000350: 730f 833f 7b4f 843f 5a23 833f 01e7 843f
00000360: 8d88 893f 93c6 843f 4402 853f a4dc 853f
00000370: 600f 813f 0f89 803f 9fc2 823f 1243 843f
00000380: 30c9 833f 8499 853f 1807 853f 49d8 813f
00000390: 2e9f 873f b812 873f ceab 803f 845b 813f
000003a0: 3d94 823f 7aff 863f 5f64 843f 0361 833f
000003b0: 8a20 843f 3de9 823f 531d 863f 3f62 873f
000003c0: 617e 853f 0022 813f eb8a 863f 934e 823f
000003d0: 7eec 843f 8565 823f 5d12 8a3f a6f1 813f
000003e0: ecda 813f 08d3 873f bc9b 833f e7ba 863f
000003f0: 1a3a 813f aa14 863f 65f1 843f b848 843f
1.0170921 1.0469358 1.0382951 1.0255147 1.0238148 1.0517017 1.0464407 1.0432394
1.0030566 1.054282 1.0248342 1.0126317 1.0306562 1.0092596 1.0458734 1.0354553
1.0249647 1.016468 1.0323514 0.99633527 1.0268288 1.0231253 1.0532217 1.051597
1.0436171 1.0295442 1.0712831 1.0443143 1.0271528 1.0212151 1.0550866 1.0442051
1.0497658 1.0390296 1.029428 1.0204364 1.0119089 1.0464203 1.0168189 1.0469759
1.0409864 1.011265 1.0189552 1.0114762 1.028103 1.0494285 1.0514349 1.0246838
1.026812 1.0290796 1.0243249 1.0256811 1.0298272 1.0251052 1.0275325 1.0766605
1.0235809 1.0197067 1.0391356 1.035567 1.0429599 1.0211477 1.0252419 1.0194689
1.0282719 1.0077869 1.0328857 1.0402247 1.0439304 1.047415 1.0311247 1.0344067
1.0219817 1.0280358 1.0283929 1.0075331 1.036061 1.0229894 1.0350975 1.0100889
1.0563623 1.0065111 1.0353662 1.0272806 1.0267118 1.0694337 1.0639862 1.0388666
1.0278553 1.0800971 1.0351204 1.014491 1.0331779 1.0360279 1.031273 1.0306978
1.0233946 1.0036907 1.025378 1.0360641 1.0233281 1.0133512 1.0906371 1.0413461
1.0113691 1.0050642 1.0177466 1.0319153 1.0334393 1.0124317 1.0186195 1.0251793
1.0703282 1.0033708 1.0201938 1.0146376 1.0314592 1.0288054 1.0489389 1.0438533
1.0357933 1.0427128 1.0336739 1.0363978 1.0304737 1.0259391 1.0541867 1.0438582
1.0118366 1.0588614 1.0568428 1.0276078 1.0577096 1.0337865 1.047688 1.0230155
1.0300633 1.0152695 1.0305214 1.040975 1.020713 1.078342 1.0692588 1.0209012
1.0406321 1.0461137 1.0223689 1.0381107 1.0123838 1.0104855 1.0386853 1.0578895
0.9973851 1.060077 1.0301925 1.0391079 1.0101925 1.0219731 1.0385935 1.051683
1.0312706 1.0337224 1.0175086 1.0176818 1.0180571 1.0346143 1.0332998 1.0400941
1.0267535 1.0419219 1.0291435 1.0059866 1.0185412 1.0211109 1.0269896 1.0362668
1.0210025 1.0191575 1.0272199 1.034215 1.0346595 1.0240388 1.0349683 1.0057333
1.0162498 1.0289847 1.0379691 1.0465007 1.0564076 1.0325662 1.0204576 1.0510743
1.0413191 1.0653597 1.0269122 1.0104784 1.0394716 1.0199609 1.0339874 1.0491734
1.0422575 1.0715308 1.0169128 1.0406394 1.0403616 0.99783653 1.0428915 1.0607789
1.0502077 1.0818242 1.0377398 1.037079 1.023909 1.0336756 1.0245163 1.0382997
1.0744797 1.03731 1.0391316 1.0457959 1.0082817 1.0041827 1.0215644 1.0332968
1.0295773 1.0437474 1.039279 1.014413 1.0595453 1.0552588 1.0052431 1.0106053
1.0201489 1.0546715 1.0343131 1.0263981 1.032243 1.0227429 1.0477699 1.0576857
1.0429193 1.0088501 1.0511144 1.0180229 1.0384672 1.0187231 1.0786854 1.015187
1.0144935 1.0611277 1.0281901 1.0525788 1.0095856 1.0475056 1.0386168 1.0334692

model.1.bias f4 [256]
00000000: 6510 aa3c e412 683d 1b32 063d 5087 263d
00000010: ce20 803c bd6c 693d 93e5 863c b250 553d
00000020: dc3f c13b 1331 2f3c c43e 003d 86cf 453d
00000030: d8b6 203d 54fc 823c 0b5f de3c 9608 1c3d
00000040: b592 c23c bd34 483c a794 a83c 0afa 863c
00000050: 8db3 9e3c d745 b23c 5c02 093d b525 ca3c
00000060: 3e50 fc3c 8b19 173d 5ef3 d93c 858e a03c
00000070: f5e4 253d 2bd5 2f3d 9fde bf3c 87b4 453d
00000080: 614a 233d 23d3 ca3c c8d8 163d a739 293d
00000090: 5743 0c3d eab1 183d ef80 c63c a88b 253d
000000a0: f556 053d f27d 173c 43a4 8c3c b1ff d63c
000000b0: 2636 cc3c 418d bf3c 14a5 9b3c c776 213d
000000c0: f985 fe3c 2b1b 053d b3a4 3e3d d3b1 1a3d
000000d0: c4ce 323d 27ba 043d b99b fa3c 3eae 243d
000000e0: 9f28 0c3d 4860 863c 29a6 773d 82bc dc3b
000000f0: 4f12 f93c 32ff af3c 9a61 013d a727 3a3c
00000100: 771a 3e3c ed7b 093d 375d 8a3c d111 023d
00000110: 4a21 c03c b9e7 1b3d 792d 713d 5954 273d
00000120: 1991 063d b11a 2f3d 9a9a f23c c1b9 273d
00000130: d9c3 ff3c 9bb1 f53c 4692 f33c 8924 ed3c
00000140: e864 313d 63b7 063d 78f2 f53c 79aa 2a3d
00000150: 927c 2e3d a7bf 2c3d 4a16 243d 3444 073d
00000160: 9f26 073d ea2b 3d3d b3ac 483d 7748 723d
00000170: abdc 023c 2111 1c3d e21b 363d 7c40 0b3d
00000180: 85ae 2c3d 4fc2 503d 4ffa 2a3d 4c6d 973a
00000190: 7159 6b3d 9329 073c bbbc ec3c 0f3f d03c
000001a0: 10c2 143d 558b efbc 182a 923c 7483 d73c
000001b0: ca45 2b3d e3d9 143d 9a46 203d c31b 1f3d
000001c0: d5f7 5b3d 64ed 163d 7c45 dc3c 495b e03c
000001d0: 849d fc3c d63e a03c 5189 4abb b0ce bd3c
000001e0: 7e51 673c cd97 f83c 0071 1c3d 5726 9f3c
000001f0: f0fb 523d a44b 383d fb87 013d be73 4f3d
00000200: ba6b 4f3d b092 083d 2b73 213d c6dd 0a3d
00000210: b9f1 b33c 6cb9 b43b 45dd 1f3d f346 a53c
00000220: 58d3 9a3c 4969 a23c 22a9 263d 7aa7 d03c
00000230: 5d9e ea3c 4edd ce3c 09f1 3c3d 8b75 cd3c
00000240: 7dd7 ac3c d122 373d c3d5 ac3c 5fb3 d63c
00000250: b9f9 423d e02e de3c cb2b 123d 8269 ed3c
00000260: 4488 8fbc fa59 5e3d ee6c 2a3d ccee 513d
00000270: 2120 ea3c 3e45 233d 04d2 083d ed18 a03c
00000280: f7a6 323d ca58 07ba 77b6 053d 6758 463d
00000290: 8077 673d f640 ab3c a348 d93c 47f9 d13c
000002a0: d6de 0a3d bd5e 1a3d 0b0d 483d 14a1 183d
000002b0: 5a9e 0c3d 80c2 283d 602b 853c 289a 483d
000002c0: e8a9 c23c ecd3 123d c258 e43c cac6 9a3c
000002d0: 960d 49bc aebe 873c 1982 fc3c 44bb 1a3d
000002e0: 55b8 633b 3634 223c c1e3 d83c 9347 f83c
000002f0: 0ff4 293d 72b2 043d cac7 263d 356e 523d
00000300: f6f2 343d 1916 213d a5aa 0bbc 8443 b03a
00000310: 53a0 b83c 0aa0 cc3c 189e 3c3c 75cc 453d
00000320: aa93 163d 9476 633c f233 423c 1a01 b23c
00000330: b03f 1e3d 345f 9f3c 911b 843d c65e b43c
00000340: 76e6 053d 05aa 133c eb3b 073d e2be 183d
00000350: a04c 303d 9bbe 1f3d 3dab 023c 5f09 c93c
00000360: dcff 2b3d d441 593d 59ee 483d 5a8e 023d
00000370: bfc3 c93c 7671 063c 8fc0 853c 4315 4b3d
00000380: e4f6 323d d3b0 2d3d 188b 223c 58da ca3c
00000390: 7684 563b 1c69 d33c 64c6 e73c 6661 3f3d
000003a0: 3839 143d e57a 153d c4cd f13c c44a 043d
000003b0: c215 393d c043 293d a0e2 533c 57d0 ce3c
000003c0: f686 4a3d 2083 5f3d fe71 193d 46db 2b3d
000003d0: 8673 0e3d 2a10 51bc ddd6 253d c0fe 003d
000003e0: c9a4 603c 53de 063d 7a45 933c e476 493d
000003f0: 8754 d73c 909b fb3c ad1d 093d 1e3c 1b3d
0.02075977 0.05665864 0.032762628 0.040656388 0.015640642 0.056988467 0.016466891 0.05207891
0.005897505 0.010692853 0.031309858 0.048293613 0.039236873 0.01598946 0.02714493 0.038094126
0.023751596 0.012219605 0.020578695 0.01647665 0.019372726 0.021761818 0.033449516 0.024676183
0.030799981 0.036889594 0.026605304 0.019599209 0.040501554 0.042927902 0.023421584 0.048267867
0.039865855 0.024758881 0.036827832 0.041314747 0.034243908 0.037279047 0.024231402 0.04041639
0.03255363 0.009246336 0.01716817 0.02624497 0.024928164 0.023382785 0.018999614 0.039419916
0.031069743 0.032496613 0.04654379 0.037767243 0.04365422 0.03240409 0.030591832 0.040205233
0.034218427 0.016403332 0.060461197 0.006736339 0.030404238 0.021483991 0.03158722 0.011361993
0.011602989 0.03356545 0.016890151 0.031755272 0.023453373 0.038062785 0.058881257 0.040851925
0.03285322 0.042750064 0.029614735 0.040948633 0.031221317 0.029991915 0.029732835 0.028948085
0.043309122 0.032889735 0.030022845 0.04166648 0.04259927 0.04217496 0.04006032 0.033024028
0.032995816 0.046184458 0.048992824 0.05915114 0.007987182 0.038102273 0.044460185 0.033997044
0.042158622 0.050966557 0.04174262 0.0011552959 0.057458345 0.008249658 0.028898587 0.025420694
0.036317885 -0.029241243 0.017842337 0.026307799 0.041814603 0.036340605 0.03912983 0.038844835
0.053703148 0.036847487 0.026888601 0.027387278 0.030836828 0.019561213 -0.00309046 0.023169845
0.01411855 0.030345822 0.038193703 0.019427462 0.051509798 0.04499401 0.03162382 0.05064749
0.050639845 0.033343017 0.039416473 0.033902906 0.021965848 0.005515268 0.03902938 0.020175433
0.018899605 0.019825594 0.04068864 0.025470484 0.028639967 0.02525201 0.046128307 0.025080463
0.021098847 0.044710938 0.021098023 0.026208578 0.047601435 0.027121961 0.035686295 0.028980974
-0.017521031 0.054285027 0.04160779 0.051253125 0.028579773 0.039860956 0.03340341 0.019543136
0.04361626 -0.0005163072 0.032644715 0.04842415 0.05651045 0.020905 0.026523894 0.02563156
0.03390392 0.037688006 0.048840564 0.03726299 0.034330703 0.041201115 0.016256034 0.04897514
0.023762658 0.035846636 0.027874354 0.018893618 -0.012271306 0.016570415 0.030823754 0.037776247
0.0034747322 0.009900143 0.026475789 0.030307567 0.041492518 0.03239674 0.040717877 0.051374633
0.044177018 0.039327715 -0.008524572 0.0013447856 0.022537386 0.024978656 0.011512302 0.04829069
0.036761917 0.013883252 0.011853205 0.02172904 0.038634956 0.019454576 0.064505704 0.022017848
0.032690488 0.009012704 0.033016127 0.037291415 0.043041825 0.039000135 0.007975397 0.024540601
0.041992053 0.053041294 0.04905543 0.03187404 0.024629472 0.008205762 0.01632717 0.049580824
0.043692484 0.04240496 0.009920858 0.024762318 0.0032732761 0.025806956 0.028292842 0.046723746
0.03618738 0.036494154 0.029517062 0.032297865 0.045186765 0.041324377 0.01293245 0.025245829
0.049445115 0.05456841 0.037462227 0.041957162 0.03477814 -0.0127602015 0.040488113 0.03149295
0.013711163 0.03292687 0.017977465 0.04918565 0.026285423 0.030713826 0.033475567 0.03789913

model.1.running_mean f4 [256]
00000000: c98b 5bbe 46fc c33e cfa0 483e f763 a93d
00000010: be85 ae3d ce66 e0be 9bbe 523d 1531 063f
00000020: 7b0b 67be 77f1 ef3d c0a4 803e 1d55 c1be
00000030: 9331 82bc 4947 35bc 9771 cdbc 3f4f 57be
00000040: bc8c 9e3e a8eb 31bd 09ab 833e efd6 8fbe
00000050: 965c ff3e ccf4 af3e 1761 d1be 47cc 113f
00000060: db9c 443f e608 413b 2083 773e b4e1 f23e
00000070: f773 82be 153b 9fbe 9093 423e c8d3 903e
00000080: feff 973c 7732 26be f65c 833e 44b1 db3e
00000090: ec45 58be 5bf1 f0be e9a1 613e 90af 0c3e
000000a0: e6bf 6a3d 8938 f0be 12a6 3e3e 5b16 2ebf
000000b0: aed9 5a3e 9ab0 81be 17f1 163e c657 80be
000000c0: 9915 babe 727e 48be 8961 adbe d636 07bf
000000d0: 4074 493e 85b3 b03c 0d62 2b3d d99c c7bd
000000e0: d8bf 073f f447 a2bd da10 34bd e94e bcbd
000000f0: b235 d73d 0cfe 1c3d 6bb8 f7be 5cbe bc3d
00000100: 43ba 663e 9a4d 03be c68c 3cbd 7a9f f23e
00000110: f4e1 0dbf 1787 a2bc 9093 b7bd 1ae2 2fbf
00000120: c995 c5be a7c7 60bd 091c a0be c381 5e3d
00000130: 7023 05bf 9c7f bc3d ab29 dfbc 28f6 043d
00000140: 90ba ecbe 46ce 863d 9157 c4be a5e7 f23c
00000150: 2bb7 cfbe e46b 77be baad 69be ad05 c53d
00000160: ab9d c4bc 4541 fd3d 1654 c13e 8b46 12bf
00000170: a613 a7be 381f 3f3e e3c3 81bd 5cee 493e
00000180: 496c 39bf 1713 693d 775c 04bf c0c1 8dbe
00000190: f027 b33d 1a00 02be 948d 54be a289 0d3e
000001a0: 82f3 fbbd 9802 22be b0f3 c43e a5d7 053f
000001b0: 4e52 aabe 68ed dabb cad5 c83d 5424 eabd
000001c0: 7f9c 373c f051 8a3e 8767 cf3e 949a a13e
000001d0: 99b4 4a3e a577 c6bd bbf0 5bbe 04a7 343e
000001e0: 0ba7 f33b 5421 dc3e e6df 2cbd 7ca0 453f
000001f0: 0ac5 debc 507d 27be 6649 623e dd96 53be
00000200: 09b5 e9be a566 16bf 3321 e4be 317c eebb
00000210: 2863 153c 1e30 e23e 03da aa3d 5eb5 10bf
00000220: 2e69 253e 8bcc 523e a63a f23d cd92 b3be
00000230: 358f 0b3d 5cf6 67bc 08d0 22bd bc6c 703e
00000240: 008f 053f 47ed e3be 206c 9dbd 14c9 b53e
00000250: aef0 893d 1941 87be 597c 83bb 8363 513e
00000260: 65c6 aa3d cd34 b5be 99e5 0b3e c157 a7bd
00000270: 8ef9 0abf 9bfe 55bd c468 4ebe 599c 573f
00000280: e594 183d ed8d a23e 70d1 33bd bd48 01be
00000290: dfe8 d8be 737c cdbc 4510 de3d 95f2 dc3d
000002a0: b732 5abe 7853 ee3d 24fe 0b3f 63a6 74be
000002b0: 7094 21bd e311 7cbe 390d adbc e5de dbbd
000002c0: 476e b03d e44b 363e 642c 80be 81ed cb3e
000002d0: 5950 dcbe 9d4f 17bf 211a 143e 4828 6d3e
000002e0: 4a75 ef3d 0fe5 aa3d 8180 0a3d 7025 b7be
000002f0: f79c 60be 62f9 e8bc 217d 3b3e 254a c3bb
00000300: d233 9abe 33a4 a5bd 6a94 fe3d 02e6 70be
00000310: 894d 54be 912b a83e 0e7e 91be afff 303d
00000320: 94a6 353e b887 49be dc37 773e e630 9fbe
00000330: 7cd5 13bd fddf 10bf 6d93 55be eb99 093f
00000340: 2565 f0bc 6059 8fbd b8ec fc3e 7045 58be
00000350: 6aaa 1bbf ade9 37be 620b 22be 9d97 0fbe
00000360: f203 0c3f 9ff2 0c3f c00b 383d a49d bbbe
00000370: 56b9 e53e 0982 0e3d 2e3b 363d b124 4cbd
00000380: 101c 073d 7aeb 473e 056b c2be 7e78 f53e
00000390: ff0b 103e 5208 903e 2494 ca3d bd31 01be
000003a0: 81b1 963e 3a1a b73e 24d2 1dbf ce03 0fbe
000003b0: 1750 173f a95d 5e3e 1b97 e0be 080c 86be
000003c0: b08d 6fbd 2144 ed3e 87d5 de3d d9c6 503e
000003d0: 687c 29bf 1386 f83d fd8e fa3e 8cec 153e
000003e0: dd8e 42bd 3fe3 f33e 119e 98be db85 5a3e
000003f0: 9985 0b3e 38f9 ee3e 37ac 06bf ba60 61be
-0.21440043 0.38278407 0.19592594 0.0827102 0.08521603 -0.43828434 0.051451307 0.52418643
-0.22562973 0.11715978 0.25125694 -0.3776025 -0.01589278 -0.011064359 -0.025078578 -0.21026324
0.30966747 -0.04343763 0.25716427 -0.2809367 0.49875325 0.34366453 -0.40894386 0.5695233
0.7680184 0.0029454767 0.24171114 0.47437823 -0.254791 -0.31099764 0.19001603 0.28286576
0.018554684 -0.16230188 0.2565686 0.4290868 -0.21120423 -0.4705914 0.2203442 0.13738847
0.057311915 -0.46918133 0.18618038 -0.6800286 0.213721 -0.2533005 0.14740406 -0.25066966
-0.36344603 -0.19579485 -0.33863476 -0.5281805 0.19673252 0.021569977 0.041841555 -0.09746713
0.53027105 -0.0792388 -0.043961383 -0.091947384 0.105082884 0.038328215 -0.48382887 0.09215996
0.2253199 -0.12822571 -0.04603269 0.47387296 -0.554229 -0.019839806 -0.08963692 -0.6870438
-0.3859084 -0.054877903 -0.3127139 0.05432297 -0.520072 0.09204027 -0.027241549 0.032461315
-0.46236086 0.06582312 -0.38348058 0.029651472 -0.40569434 -0.24162251 -0.22820178 0.09620223
-0.024000963 0.12365965 0.37759465 -0.5713889 -0.32632178 0.18664253 -0.063361906 0.19719833
-0.72430855 0.05690297 -0.5170359 -0.27686882 0.08747852 -0.12695351 -0.20757133 0.13822034
-0.12302305 -0.15821302 0.3846717 0.5228217 -0.33265918 -0.006681133 0.09806402 -0.1143271
0.011206745 0.27015638 0.40508673 0.31563246 0.19795455 -0.09690789 -0.2147855 0.17641836
0.0074356846 0.42994177 -0.042205714 0.77198005 -0.027193565 -0.16356397 0.22098312 -0.20663019
-0.4564593 -0.58750373 -0.4455658 -0.0072779884 0.009117879 0.44177336 0.08342364 -0.56526744
0.16153404 0.2058584 0.118275926 -0.35072938 0.03407212 -0.014157858 -0.039749175 0.23478979
0.52171326 -0.44516966 -0.07686639 0.35504973 0.06735359 -0.26416853 -0.004012626 0.20448117
0.08338622 -0.35391846 0.13661803 -0.081710346 -0.5428704 -0.052244764 -0.20157152 0.8422294
0.037251372 0.31748906 -0.043900907 -0.12625404 -0.42365167 -0.025083756 0.10842947 0.10788456
-0.21308409 0.11637014 0.5468466 -0.23891596 -0.0394482 -0.24616198 -0.02112447 -0.10735873
0.08614784 0.17802387 -0.25033867 0.3982964 -0.4303005 -0.59105855 0.14463092 0.23159897
0.11692293 0.08344471 0.033813957 -0.3577075 -0.21934877 -0.028439227 0.18309452 -0.0059597665
-0.3011766 -0.08087959 0.124306515 -0.23525241 -0.20732702 0.3284574 -0.28416485 0.04321259
0.17739326 -0.19680679 0.24142402 -0.31091994 -0.036092266 -0.5659178 -0.2085702 0.53750485
-0.029345104 -0.06999469 0.49399352 -0.21120238 -0.60806906 -0.17960234 -0.15824655 -0.1402268
0.5469352 0.5505771 0.04493308 -0.36643708 0.44867963 0.03479198 0.044490032 -0.04983968
0.032985747 0.19523421 -0.37972274 0.4794349 0.14067076 0.28131348 0.09891537 -0.1261663
0.294323 0.35762197 -0.61648774 -0.13966295 0.5910658 0.21715416 -0.43865284 -0.26181054
-0.058484733 0.4634104 0.10880571 0.20388354 -0.66205454 0.12134948 0.48937216 0.14641017
-0.047499526 0.47634313 -0.29808095 0.21340124 0.13625182 0.46674514 -0.5260653 -0.22009555

model.1.running_var f4 [256]
00000000: 9b6b 643c f2ab 183c e29b 063c f45c e13b
00000010: 51a1 a23b 62ff e73b 9e39 f03b 3643 c73b
00000020: a224 e53b 313f b23b b7eb f13b c898 963b
00000030: e44f c83b a89d 463c ead6 eb3b 5726 d03b
00000040: b8b1 623c aecc ac3b 7bf1 913b 4164 923b
00000050: f189 263c 9216 ed3b 55a5 023c 2312 c33b
00000060: 2dfe 383c 8974 ec3b 7c2c 523b f85c 9f3b
00000070: 5318 453c 68da 023c 10ad 6b3b ef8f ca3b
00000080: 495d 0b3c 729e 1a3c 7fb4 143c cea1 9c3c
00000090: ab3a 8c3c 65b6 013c e7ef 3a3c 6b70 5e3b
000000a0: 50d1 023c 5135 b93b 3fef 6d3c 913b 3e3c
000000b0: 05b7 1e3c e718 193c 6421 9b3b db73 a93b
000000c0: 31b0 153c 570f f83b e8f5 bf3b bec9 4c3c
000000d0: 8eb7 823c fae9 f93b c36a 9b3b aa36 a03b
000000e0: d759 a33b 51f2 cf3b 700a cc3b dfef c43b
000000f0: fe75 233c 0222 2a3c 7b8a 4e3c 44ea a93b
00000100: 3215 cd3b 8afd 313c ae69 e13b 3ad0 d73b
00000110: a64e 273c b6c6 ad3b 4e73 f53b 9911 453c
00000120: 2e11 933c f85f 4d3c 3e88 bd3b 307e 853c
00000130: 78a3 e03b 7ce3 663c 1144 173c dc26 863c
00000140: c51b a63b 6a6d 5a3c 558b ac3b ff7d 4d3c
00000150: 9c23 d93b 6f09 d83b 38c0 153c 96f8 ac3b
00000160: 5508 303c faec 953b 3843 f33b 40f4 1f3c
00000170: 2388 e03b 67ce cd3b 9dde d63b 6638 153c
00000180: fd63 073c 1cbf 553c 5b21 003c dc32 303c
00000190: b6cd 023c b6d7 153c 6f9f f53b 624c 803b
000001a0: 2b7a 623c 43fc b53b a8ab 603c 776c 053c
000001b0: b418 fc3b 8818 d83b 25e7 9b3b 913a 063c
000001c0: a235 113c 567c de3b 0589 fc3b 4b96 c03b
000001d0: 329b 813b 6323 be3b e53b a03b bbba e03b
000001e0: 01c5 fe3b 4bab a43b 5b4b 633c 352b fd3b
000001f0: 45f0 c03b 52e0 183c 1746 093c 09be 703c
00000200: b2d1 9c3c f488 f93b cf13 013c be39 ce3b
00000210: 8720 ac3b 9e78 eb3b 710e 003c 844e 273c
00000220: 7205 0f3c 693b c93b be29 0a3c 165f e23b
00000230: 0b49 bb3b 566f 863b c2c8 cb3b cb4a 023c
00000240: 721f c93b c1af e43b 586e 753c 0b6a 013c
00000250: 3479 863c e67a 583c 4d6d db3b e559 e53b
00000260: ba1e 8d3b 5b93 0d3c 4ebf f13b 7e89 da3b
00000270: b801 973c 1395 9b3c f4b1 663c dbf5 103c
00000280: 9ced ce3b 7545 2d3b 580e 503c bb7b fc3b
00000290: ad57 163c 4003 113c efda b53b 840e 6d3b
000002a0: 2ff9 c53b 4add f33b a6af 583c 9ade 123c
000002b0: 9a44 433c ecc4 db3b 6b7c f83b cf98 3a3c
000002c0: 46bb 4f3c 7b68 023c c310 593c 9866 923b
000002d0: fbf5 bf3b ab49 7a3b b90e 693b 1e52 cf3b
000002e0: 8a34 b33b fdc6 3c3c bc1d f43b e7df 6f3c
000002f0: c4a4 d43b 7305 d83b 18e5 123c a2ab a53b
00000300: d3a8 d43b 34d2 903b f672 353c 89d7 163c
00000310: 4349 fd3b 5034 ee3b a1a3 f33b 4d1c 873b
00000320: 6119 353c bc44 413b fd9d 6f3c 0607 163c
00000330: 1967 bd3b 3ec0 183c 3fc6 ed3b d875 ab3b
00000340: 74ec 173c 9cd0 9a3b eeb2 8a3b 96b7 c63b
00000350: abd1 5a3c b2f6 073c 6834 133c c324 c13b
00000360: 6e37 723c 1c12 223c 038c bc3b c395 ed3b
00000370: 5bb4 0f3c 31f8 373c 35fa 663c 47ef 6a3b
00000380: ebff 7f3c 3dce e43b 6ad3 c13b 322b 083c
00000390: 28b0 fc3b 93a6 003c 6002 6d3b 9320 8a3c
000003a0: 09e9 6c3c aace dc3b 006c 2b3c 0b4e db3b
000003b0: f539 023c 3e89 663c e4d0 8c3b 446a 1f3c
000003c0: b2bf 043c 2ea8 903b 88ed c53b 4223 993c
000003d0: 4177 303c 08ee 5b3b ea06 a73b 396c 033c
000003e0: 120f 053c 0d77 133c 72f6 193c 8a49 f63b
000003f0: bea4 9c3c 9877 ae3b 2352 f13b f18a ee3b
0.013941671 0.009318339 0.008215876 0.006877536 0.004963078 0.0070800046 0.0073310873 0.00608101
0.0069928924 0.005439662 0.0073828357 0.0045958497 0.0061130393 0.012122549 0.0071972506 0.0063522267
0.013836317 0.005273423 0.0044538355 0.0044675176 0.010164724 0.0072353566 0.007973989 0.00595309
0.011291069 0.0072160405 0.0032069972 0.0048633777 0.012029725 0.007986642 0.0035961308 0.006181709
0.008506128 0.00943719 0.009076237 0.019120123 0.017117819 0.007917021 0.011409736 0.0033941518
0.007984474 0.0056521078 0.014522373 0.011610881 0.00968719 0.009344316 0.004734205 0.0051712818
0.009136246 0.007570188 0.0058581717 0.012499271 0.015956666 0.007626769 0.0047429516 0.004889329
0.004985075 0.006346025 0.00622683 0.00601004 0.009976862 0.010384085 0.0126062585 0.0051853973
0.00625863 0.010863671 0.006879053 0.006586102 0.010211622 0.005303229 0.007490552 0.012028121
0.017952528 0.012535088 0.0057840636 0.016295522 0.0068554245 0.014092322 0.009232537 0.016375951
0.0050692284 0.01333175 0.005265633 0.012542247 0.0066265594 0.0065929214 0.009140067 0.005278657
0.010744174 0.004575369 0.0074237846 0.009762824 0.0068521663 0.0062807086 0.0065572993 0.009107685
0.008263585 0.013046052 0.007820453 0.010754313 0.007983616 0.009145668 0.0074958126 0.0039153555
0.013823072 0.0055537536 0.013712801 0.008143536 0.0076933745 0.006594721 0.004757779 0.008192674
0.008862885 0.0067897243 0.0077067637 0.0058772913 0.0039552683 0.0058025583 0.0048899525 0.0068581975
0.0077749495 0.0050253025 0.013872947 0.007726098 0.0058880174 0.009330826 0.008378527 0.014693745
0.01914296 0.007615203 0.007878258 0.0062935045 0.005252901 0.0071860095 0.007815943 0.010211591
0.008729326 0.0061411154 0.008432804 0.006908308 0.0057154945 0.0041026277 0.0062190006 0.007952402
0.006137782 0.0069789593 0.014979921 0.007898818 0.016415216 0.013212895 0.0066963793 0.0069992417
0.0043066414 0.008641089 0.0073775416 0.0066692224 0.018433437 0.018991983 0.014080513 0.008847679
0.0063149463 0.0026439105 0.012698732 0.0077051795 0.009176177 0.0088508725 0.0055497806 0.0036171982
0.006041668 0.007442151 0.013225472 0.008964205 0.011918211 0.0067068245 0.007583191 0.0113889715
0.012678927 0.00795948 0.013248625 0.0044677965 0.0058581806 0.0038190882 0.0035561754 0.006326928
0.0054689096 0.011522052 0.0074498337 0.014640785 0.006489368 0.0065924465 0.008965753 0.0050558606
0.006489852 0.0044195894 0.011074772 0.009206661 0.0077296807 0.0072694197 0.0074352776 0.0041232468
0.011053414 0.0029490432 0.01462507 0.009156948 0.0057801125 0.009323178 0.007256299 0.005232554
0.009272683 0.004724575 0.004232756 0.0060643656 0.013355653 0.008298563 0.008984663 0.005894275
0.014783723 0.009892013 0.0057539954 0.007250519 0.008771027 0.011228607 0.01409774 0.0035848187
0.01562498 0.0069825933 0.005915095 0.00831108 0.007711429 0.007852214 0.0036164746 0.016861236
0.014459857 0.0067385035 0.010462761 0.006692653 0.007948388 0.014070807 0.0042973626 0.009729926
0.008102344 0.00441458 0.006040279 0.01869357 0.01077062 0.0033558626 0.00509726 0.008021408
0.008121269 0.009000552 0.009397136 0.0075160908 0.019121524 0.0053243153 0.007364528 0.0072797467

model.3.weight f4 [128, 256]
00000000: 2ec6 3cbd 947b cbbc 1e56 b0bc 88d9 9bbc
00000010: 91aa 823d b938 223d a4b6 4abd 97a1 553d
00000020: 5ffa 5d3d bb0f 493c 6628 da3b b67d d0bc
00000030: fb2d 8bbd 2b86 843d 7414 94bc f192 ac3d
00000040: 8a4f 69bc 3615 ef3b 30d2 7f3d bd6d 09bd
00000050: eb3f e6bb 06c4 643d fe62 a9bc b4ff d8bc
00000060: 833c 24bd 1382 82bc 761a d13d b0dc 8e3d
00000070: fa25 44bd 2e0d 7ebc 0274 4f3d bf95 8cbd
00000080: fd9e a13a 94bc 0d3d 2960 63bd f269 8bbd
00000090: d8f7 483d e161 0a3d 8b2b 823d 0fd5 2d3d
000000a0: bcec 353c 747b 35bd 9755 053d fd36 be3c
000000b0: 7f93 553d 0605 9e3c 0c4e 193d f18a 4bbc
000000c0: 541c c03c f743 f63c 5f78 833c cf63 833b
000000d0: d6ae adbd 0545 6fbd d426 0a3d 975b 363d
000000e0: b358 aa3d a9b6 b13c b3b2 ef3a 2919 48bd
000000f0: 5e5d 6cbd 9388 a0bc 77de f6bc 1a03 353d
00000100: fb91 46bd 4214 cdbc 3313 e43c 95e8 6f3c
00000110: 5176 48bc aeea 233c 372c 9c3d 1729 763c
00000120: 5bb9 79bd bce5 7c3a eaf5 22bd 7f86 503d
00000130: d1e5 39bd 8f59 cb3b 30e6 a13c 9657 123c
00000140: 2353 83bd a0e6 d53b bcd2 d53c 7bc5 403c
00000150: f7c5 bc3a c2e6 123c 7c66 733b 49f1 353d
00000160: 9eee 313d caca c43c 5c4c 4a3d c3e7 1a3d
00000170: fb68 b7bc e73c 4fbd 24ed cd3c 52c3 3bbd
00000180: f162 66b9 dccb d039 2c31 ae3b ea18 13bc
00000190: 5fd1 85bd 4b0f 263d c8b9 44bd 60f3 c13a
000001a0: 108c 2dbd 6684 703d 9924 f1bc ac25 9d3c
000001b0: 565a 533d 935e 46bd 4178 e9ba cd21 d93c
000001c0: ada3 69bd 71cb eebc 69b7 aabb 0d7a 15bd
000001d0: 624d 2cbc 74c5 203d 1574 3e3d 1186 d4bc
000001e0: 98b4 19bd 03f0 803d b8c0 4e3d c4b0 d53c
000001f0: 6521 8dbc 4194 eebc b047 263d bfe9 553d
00000200: 4049 e0bc bf47 77bd 6ed8 823c 906e 2ebc
00000210: 8e28 ab3a 3fcf cc3c e9be a2bd e721 82bc
00000220: 2249 963c 1b30 1cbd 8758 89bd 7ce5 a3bd
00000230: b370 7bbd 5a67 883d 6bea 8fbd 2d76 303d
00000240: 45b5 823d 85f8 94bc d09f 9f3b 8dae 22bd
00000250: 7ca2 223d a26a 12bd cded 83bd c7a8 ebbc
00000260: 13ae dd3c 73f0 42bc d7b2 62bd 8efb dcbc
00000270: 6968 dabc 1a77 3a3d 53c9 a73c b1f3 6ebc
00000280: 8825 f83b dd8c 2ebd 6b7c 83bc bc09 9cbd
00000290: d81d 98bc cfe8 2a3c 224b f13c 9e00 4cbd
000002a0: e93c 033d f06c c1bc f977 813d ae9e 54bd
000002b0: 1fa4 6f3d fed7 04bd ac2a 2fbd 1a4d 0e3d
000002c0: b73e 53bd ba32 abbc 38ff 103d 7ebd c93b
000002d0: 60f8 17bb 3f44 64bd 7696 653d c537 62bc
000002e0: 9bae 88bc 15ac f0bc e2a2 853c b96d 71ba
000002f0: 9a60 89bd 1741 6f3c 6486 873d 0d56 77bb
00000300: 939d 92bc ad3a e63c ae47 04bd 1751 123d
00000310: cb0c 983c 0de1 e9bc 1a71 483d 979f 023d
00000320: c6cc 853c 242a 89bd 0f7f 4e3c 1228 76bd
00000330: ff93 4f3c 4fe5 f33c c083 6dbc 1ceb 903d
00000340: 82a6 4a3d 55f3 b53d 72c8 b53d 1366 a13c
00000350: 2a83 c33c f36b b93b 0fa0 913d ab0d 6f3d
00000360: 691c 163c dda4 82bd bede 783d 1b74 84bd
00000370: 103a cfbc 145b 30bd 3d65 4abd 7d1f 913d
00000380: 07c8 f23c 2cff c9bc 1208 e83b 1a03 91bd
00000390: 717b d03c 3b7d 36bd f547 97bd a1fa 3c3d
000003a0: 9a5e c73a 4244 1bbc 273a 84bd ad0e a93d
000003b0: 55fb 76bd 5c16 713d 29a5 58bd dfc1 c0bb
000003c0: 8ca0 bd3c 3c61 493d d03f 9dbd e9ea 873d
000003d0: 7ece 673c 68ed 72bd 888c 58bc 13fe e6bb
000003e0: ba95 7cbc 4e5d 8bbb ff08 55bd 86ef 233d
000003f0: f279 d9bc 3440 b03d b115 7abd 5979 75bc
-0.046087436 -0.0248392 -0.021525439 -0.019024625 0.06380189 0.039604876 -0.049490586 0.052156057
0.05419385 0.012271817 0.006657648 -0.025450569 -0.067958795 0.06470903 -0.018076159 0.08426464
-0.014240155 0.0072962297 0.06245631 -0.03355192 -0.0070266626 0.055851005 -0.020677086 -0.026489116
-0.04009677 -0.015931165 0.10210125 0.069756866 -0.04788778 -0.015506072 0.050647743 -0.06864499
0.0012330707 0.03460367 -0.055511627 -0.06807317 0.049064487 0.03378475 0.063559614 0.042439517
0.011103805 -0.044307187 0.032552328 0.02321958 0.052142616 0.019289505 0.037427947 -0.012423263
0.023451008 0.030061705 0.016048608 0.004009701 -0.08480613 -0.05841543 0.033728436 0.04452094
0.08317699 0.021693544 0.001828751 -0.04885212 -0.05770623 -0.019596374 -0.030135376 0.04419241
-0.04847906 -0.025034074 0.027841186 0.014642854 -0.01223524 0.0100046825 0.07625621 0.015024445
-0.060967784 0.000964727 -0.039785303 0.050909515 -0.045385186 0.0062057446 0.019763082 0.008932015
-0.064123414 0.006527737 0.026101463 0.011765833 0.001440226 0.00896615 0.0037139943 0.04441956
0.043440454 0.024022479 0.04938923 0.03781868 -0.022388926 -0.05059519 0.025137492 -0.04584057
-0.00021971368 0.0003982474 0.0053159203 -0.008978108 -0.06534075 0.04054193 -0.048028737 0.0014797263
-0.042369902 0.058720015 -0.029436396 0.019183002 0.051599823 -0.048430037 -0.0017812328 0.026505375
-0.05704086 -0.029149743 -0.0052098525 -0.03649335 -0.010516496 0.039250806 0.046497423 -0.025942834
-0.037525743 0.062957786 0.05047676 0.026085265 -0.017227838 -0.029123427 0.04059571 0.05222487
-0.027378678 -0.060371157 0.015972342 -0.010646477 0.0013058351 0.025001166 -0.079465695 -0.015885307
0.01834542 -0.038131814 -0.067063384 -0.08002755 -0.061386775 0.06660338 -0.070271336 0.04308145
0.06382231 -0.01818491 0.004871346 -0.039717246 0.03970574 -0.035746224 -0.06441841 -0.028767003
0.027060544 -0.011898148 -0.055346336 -0.02697542 -0.026661115 0.04552374 0.020481741 -0.014584468
0.0075728334 -0.042614806 -0.016050538 -0.07619044 -0.018568918 0.010431482 0.029454771 -0.049805276
0.03204051 -0.023611516 0.06321711 -0.05190914 0.058506127 -0.03243255 -0.042765304 0.0347415
-0.05157348 -0.020898212 0.035399646 0.0061566224 -0.0023188815 -0.055729147 0.056051694 -0.013807242
-0.01668482 -0.02937893 0.01631302 -0.00092097704 -0.067078784 0.014602921 0.0661743 -0.00377405
-0.017897403 0.02810415 -0.03229492 0.035721865 0.018560788 -0.028549695 0.048935987 0.031890478
0.016332995 -0.06697491 0.012603535 -0.060096808 0.012669562 0.029772429 -0.014496744 0.070760936
0.0494752 0.088843025 0.088761225 0.019701993 0.023866255 0.0056586205 0.07110607 0.058362644
0.009162047 -0.063791014 0.0607593 -0.06467458 -0.025296241 -0.04305561 -0.049412955 0.07086084
0.029636396 -0.024657808 0.00708104 -0.0708067 0.025449486 -0.044553023 -0.073867716 0.046137456
0.0015210689 -0.009476723 -0.06456404 0.08254752 -0.060298283 0.058859214 -0.052891884 -0.0058824862
0.023147844 0.049164996 -0.07678187 0.066366024 0.014148353 -0.05930844 -0.013217099 -0.007049331
-0.015416557 -0.004253066 -0.052010532 0.04002335 -0.026547406 0.08605996 -0.061055843 -0.014982545

model.3.bias f4 [128]
00000000: 1036 9e3c 3cd8 233c 03da 153d 6e5a 01bd
00000010: 440a 273b 7cd7 093d 3662 293d bd52 3dbd
00000020: 11bb 673d c1d0 3cbc a9a4 19bd 1c58 7e3d
00000030: 7278 f3bb 9e47 553d f340 bdba 3c87 ba3c
00000040: 78e4 713d 0403 3f3d aa9d 83bd 6884 32bd
00000050: 76cc 47bb e88b 6ebd f27d 6b3d 24a4 413d
00000060: 7b33 3c3c b7e8 56bd 9c6d a2bc 690b d83c
00000070: b0b6 95bc 5786 e7bc 408c 0f3c fe72 0c3d
00000080: af2b 50bd 6c7d 5fbc b4a6 66bd 5566 d73c
00000090: 6fdf 0fbc 296e 10bb fa7d 243b 3be0 09bd
000000a0: 3995 4b3c 4a01 9d3c d734 703d 971e 3e3d
000000b0: 7168 68bd 103d 5dbd 2cc5 263d 7510 2a3d
000000c0: 6ad8 e03c ec54 2a3d be11 b73b 1e76 113c
000000d0: ba12 2abd 84cb ac3a e869 49bd 3598 613d
000000e0: 1e52 493d 28ad 1cbd 5644 6d3d 24cf 4e3d
000000f0: d01d c1bc 56db 0f3d a083 683d 21ba ca3c
00000100: b4c8 52bc 5c1d 70bc 4cde 1f3d d818 5fbc
00000110: 7431 363c 5877 29bc 0685 a43c eac0 eabc
00000120: 9929 1cbd 0a53 523d 54c4 2d3d 3205 ea3c
00000130: 394d 223d 31a3 1b3d ee20 13bd dd3f 0fbd
00000140: ecca 293c c0db a63c 6e3e 7b3d 63aa d6bc
00000150: 2e97 2e3d d6c5 bfbc 86d3 f7ba 2cc2 b23c
00000160: 2dc2 3d3d 0420 b73c a9d0 203d 956b 693c
00000170: 9201 3dbc 4f59 e3bc 96d3 abbb 8314 ef3c
00000180: 3a5b a33c 3fab a13c 2614 0ebd 7113 0e3b
00000190: c5f0 87bc ef15 83bd 8762 5a3d f040 6bbc
000001a0: c08d 083d 15be 643c ac94 3cbc 6c59 afbc
000001b0: 4c19 adbc c2ed 7e3d a780 cdbc e7f6 5c3c
000001c0: a938 083d 01c4 0e3d a75f a0bc 5974 263d
000001d0: c3bc 183d 65d3 18bd 7d2b 7bbd 156c 3dbd
000001e0: b700 4e3d 3d7b 063c cfb7 4c3c 61fc a5ba
000001f0: 1158 2d3d 3d70 b13c 242e bbbb 1e66 063d
0.019312888 0.010000285 0.036584865 -0.03158038 0.0025488297 0.033652768 0.041353427 -0.046221483
0.056574885 -0.01152438 -0.037510548 0.062095746 -0.0074301297 0.052070253 -0.0014438912 0.022769563
0.059055775 0.046633735 -0.064265564 -0.043583304 -0.0030486858 -0.058238894 0.057493158 0.047275677
0.011486883 -0.052468028 -0.019827656 0.026372628 -0.018275589 -0.0282623 0.008761466 0.034289353
-0.05082291 -0.013640743 -0.056311324 0.026293913 -0.008781298 -0.0022038317 0.0025099502 -0.03366111
0.012425714 0.019165654 0.058644142 0.04641589 -0.056740228 -0.054013312 0.04071538 0.0415196
0.027446944 0.041584894 0.005586832 0.008878259 -0.041521765 0.0013183211 -0.049173266 0.055076797
0.04915058 -0.038251072 0.0579265 0.050490513 -0.023573786 0.035121284 0.056766152 0.024746956
-0.012865234 -0.014655437 0.03903036 -0.013616763 0.011120189 -0.010343395 0.020082962 -0.028656442
-0.038125608 0.051348723 0.04242356 0.02856693 0.039624427 0.03799743 -0.035920076 -0.034973014
0.010363322 0.020368457 0.061338834 -0.026204294 0.042624645 -0.023409765 -0.0018907643 0.021821104
0.04632776 0.022354133 0.039261494 0.014246841 -0.011536019 -0.027752547 -0.005243729 0.029184585
0.019940961 0.019734977 -0.034687184 0.0021679068 -0.0165943 -0.06400668 0.05331662 -0.014358744
0.03333831 0.013961335 -0.0115100555 -0.021404944 -0.021130227 0.062238462 -0.02508576 0.0134866005
0.03325716 0.034854893 -0.01957686 0.0406383 0.037289392 -0.037310977 -0.06132077 -0.046245653
0.05029365 0.008208093 0.012494995 -0.0012663716 0.042320315 0.021659965 -0.0057122875 0.03281223

model.4.weight f4 [128]
00000000: cb31 853f 2f5f 863f 6c0f 7e3f e8db 803f
00000010: 06f5 843f 03e4 813f cf45 873f 4328 863f
00000020: feff 823f f04e 853f afdc 843f 3203 883f
00000030: fda9 833f c7af 853f 303b 843f 6bd4 843f
00000040: 8e22 833f 5a2d 853f 4670 833f 1e31 843f
00000050: e7e2 823f caf3 863f 5155 833f 4d1e 843f
00000060: 2ef8 823f 0c4d 863f 099c 843f 9306 833f
00000070: 4a27 893f 6890 843f 53ce 7e3f c1d9 853f
00000080: fd61 833f d757 843f 101a 843f 894c 853f
00000090: 87bc 853f cc78 843f 4965 833f d3b3 853f
000000a0: 6012 803f d1b9 833f 01bd 853f 31f6 853f
000000b0: 1578 863f 4594 833f 8855 833f 0bb7 8a3f
000000c0: 10af 843f a2eb 7f3f cd43 823f 654f 833f
000000d0: 82d6 833f a9cd 853f 6ceb 813f 05dd 803f
000000e0: d437 813f b9cb 853f 1130 863f 8490 803f
000000f0: bc1b 853f a018 843f 092a 843f 774b 803f
00000100: fd0f 853f efc1 873f 3b04 853f 5c18 853f
00000110: eb92 843f 6f48 7f3f dfab 833f 9cd5 813f
00000120: b524 873f 6c33 843f 115d 7e3f 47eb 843f
00000130: 9520 7e3f 742f 893f 5963 843f ce00 7f3f
00000140: 25e8 853f 561b 833f 6860 7d3f 2588 823f
00000150: 92b5 853f 32de 873f fa97 843f 5f6a 833f
00000160: addf 823f 34f6 863f 757e 833f 5e04 833f
00000170: 666b 8a3f c212 883f 5240 833f edb8 833f
00000180: 24b9 833f 4c5e 853f d666 833f 8a17 873f
00000190: 118e 803f 33a4 823f de3f 843f 9f8f 883f
000001a0: d8f0 803f 801b 853f 05e1 7e3f 0104 863f
000001b0: 7aa0 803f c076 823f 21a9 833f 825d 873f
000001c0: 831d 823f ad1a 803f 3608 803f 4c55 853f
000001d0: 62f4 813f c6a9 843f 2941 8c3f ce17 7f3f
000001e0: bb14 843f 2beb 833f 1d31 853f d190 833f
000001f0: 9c2f 843f 273c 863f d42c 833f d92b 813f
1.0405821 1.0497798 0.9924228 1.006711 1.0387275 1.0147709 1.0568179 1.0481037
1.0234373 1.0414715 1.0379847 1.0625975 1.0286251 1.0444268 1.0330563 1.0377325
1.024492 1.0404465 1.0268638 1.0327489 1.0225495 1.0543149 1.0260412 1.0321747
1.0231988 1.0492263 1.0360118 1.0236381 1.0715115 1.0356569 0.99533576 1.0457078
1.0264279 1.0339307 1.0320454 1.0413982 1.0448159 1.0349364 1.0265285 1.0445503
1.0005608 1.0291082 1.0448304 1.0465757 1.0505396 1.0279623 1.0260477 1.083711
1.0365925 0.9996892 1.0176941 1.0258604 1.0299838 1.0453387 1.014997 1.006745
1.0095162 1.0452796 1.0483419 1.0044103 1.0399089 1.0320015 1.0325328 1.002303
1.0395504 1.0606059 1.0391916 1.0398059 1.0357336 0.997199 1.0286826 1.0143313
1.0558077 1.0328193 0.9936076 1.0384301 0.99268466 1.0717607 1.0342818 0.996106
1.046147 1.0242717 0.9897523 1.0197798 1.0446036 1.0614684 1.035888 1.0266837
1.022451 1.0543885 1.0272967 1.0235708 1.0814025 1.0630724 1.0254004 1.029081
1.0290875 1.0419402 1.0265758 1.0554059 1.0043355 1.020636 1.0331991 1.066883
1.00735 1.0399017 0.995621 1.0469972 1.0048974 1.019249 1.0285989 1.0575411
1.0165256 1.0008141 1.0002506 1.0416656 1.0152705 1.0364311 1.0957385 0.996457
1.0318826 1.0306143 1.0405613 1.027857 1.0327029 1.0487107 1.0248055 1.0091506
